maddpg/trained_ckpt/rl_simple_spread_n3/agents.ckpt (torch_old, 554866 bytes, 38 tensors)

weight f4 [128, 14]
00000000: c813 2a3e f096 b13e ad8c c23f 0431 2b3e
00000010: a61f 173f 03c5 c43d 1597 61be a6bd 94bd
00000020: 7241 d3be 9889 0a3e f90a fbbe 3620 abbe
00000030: 3535 1abf 08a8 9bbe 6147 1ebe 9491 bb3d
00000040: 3888 3a3f e393 18bf 9c84 c4bd a81a 843e
00000050: 07e2 bd3f ebd7 febf 25c1 ccbd 7ef8 753e
00000060: 958f 173e 9a0e c4be 4cbe fc3d cc38 d3be
00000070: 57fe b3be 49fe 213e f11f 11c0 309a 2bbc
00000080: 2d86 5d3e 9ee7 1c3f e1ee 1cbe af9f 073f
00000090: c709 4dbe 995f 4e3e b4d8 5fbf 3ec6 81bf
000000a0: 4579 62bf 1297 9ebf 46e0 abbe 078e c33e
000000b0: eeae 9f3f 858b 0240 2883 ac3e 7494 533f
000000c0: a644 76be d711 9e3e afb4 9c3f ac28 e63e
000000d0: b576 433e 8e18 15be f340 1f3e f18d 82be
000000e0: aca2 a9bd 739f 1dbd f73b 6dbe 1e11 b2be
000000f0: 0e35 913e a3f7 febe 834b 6abf 3e7a 8b3f
00000100: 1633 4bbf 5f4b a03e 2cf1 3d3e ee9c c83d
00000110: 5c60 463d ca4b 4e3e 18a8 46be 5d7d 283e
00000120: 97ee 3bbf 4305 573f e5b0 d93e f3f7 f73d
00000130: b9bb b03e 3319 47be 2ae3 df3e 2fd3 b0bc
00000140: fce5 753f 19e4 6cbf eeb3 fdbf 0cc8 3c3f
00000150: 506e a83f 1161 543e 23fe 2140 e29a 81bf
00000160: d9c8 2cbe 3a62 01be 1abd afbe c6a3 2bbf
00000170: aced 68be 1f37 2bbe b52f e5bf 868b 61be
00000180: 07a9 a7bf 385e 8ebe 4f93 8a3d 4c1b d33c
00000190: f36f 373f 1032 0ac0 3e28 5cbe d0ca 563e
000001a0: 9edd 803c ea26 5c3e d226 0fbe 68f5 bb3e
000001b0: 253a 6e3f 06fe b5bf e54c 723f e9cb babf
000001c0: 34a2 48be d6bf 8f3e 4c13 21bf 0fef 913f
000001d0: 211f 9bbd 3bdb 52be 5579 b9bd 83e1 b83a
000001e0: 73dd ac3d acdb 8f3c ae89 85bf 01de e43f
000001f0: b542 c43f eafd 17c0 4500 30be 385a e23e
00000200: 48c0 7fbe 4561 17bd 30ba 89bd 1665 e33e
00000210: 7dd9 87be 12ac f73e 2657 843f c693 24c0
00000220: 90de 4a3b a1a2 2dbf ace7 2c3e ea22 07bf
00000230: f524 23bd 3512 ae3d 112a a53f 9b23 d03f
00000240: 4c6c a8bb cf20 073f 8d12 063f 27bd 303e
00000250: f479 003e bf92 12bf e813 c63e d3d2 a3be
00000260: daef 363f 3d6b a5b9 d284 623e 9c41 8fbe
00000270: 5c13 ff3e 3554 3fbf 77e0 453e 62af 6b3e
00000280: 39fe 403e b663 42bc c333 913d de62 8bbc
00000290: 329f c6bf b052 2140 eb01 5e3f 64dc d7bf
000002a0: 06b9 ac3d 3bfb 5fbe 0c68 dd3e 8c33 043e
000002b0: 5406 453f 83c1 513f a683 84bf d5c2 51bf
000002c0: faf1 883f dec6 8c3f 0e1e 2bbe c67a 9fbd
000002d0: e5a9 8dbd fa38 fd3d 0de3 b03d fbb0 d4be
000002e0: f445 923f 18e0 24c0 0b2b aabe f9ba f3bd
000002f0: 9a5b f9bd 71d5 813d c72b 4bbe 0f11 193d
00000300: 3e76 333f f4a3 393e 710c 1b3f 55a3 773d
00000310: 3d75 2e3e b34b b23c 5091 503f 7f47 15be
00000320: 5e1c aabf d317 893d 5d64 223f a85e 0bbf
00000330: 6022 43bf 0fab 713e 67c8 343e 24af 95be
00000340: 6b6e b93d 99be 8dbe 7fb3 cd3c fb00 973e
00000350: 681e bd3e 7be2 8c3e ad7e 8c3e d9d7 cdbf
00000360: e74a d0be afcb 833e a50f 4fbe 5638 c53e
00000370: 435e 8c3e ac0b dabe 16d6 a93e 157b 9ebe
00000380: c589 c73d 071e 45be 678b e03f 8da6 abbf
00000390: 86a0 4c3f ec3e 53bf 4986 eb3e 4d6c 11be
000003a0: 0b3d 353f 5e35 57bf b9b1 fe3d 8432 543e
000003b0: 922b bbbd a592 153d 45f6 8b3e 4b42 163f
000003c0: 1b03 8c3f b208 853f bfdc cabf 36c3 eabf
000003d0: 74ee 823f 0931 3d3f 9f2d 7f3f 1188 513f
000003e0: ba9e 45bf e73e 2cbf c9fa 12bf 6d38 0ebf
000003f0: e0be c33d c187 f3bd 716e c73e 9fe2 55bf
0.16609108 0.3468547 1.5199181 0.16717917 0.59032667 0.096078895 -0.2203029 -0.07262735
-0.41260868 0.1352905 -0.4903181 -0.33423012 -0.6023744 -0.30401635 -0.15456916 0.09158626
0.72864103 -0.5960066 -0.09595606 0.25801587 1.4834603 -1.9909643 -0.09997777 0.24020573
0.14800866 -0.3829239 0.12340984 -0.4125427 -0.35154983 0.15819658 -2.2675745 -0.010473773
0.21633215 0.6129092 -0.153255 0.5297803 -0.20023261 0.20153655 -0.8744004 -1.0138624
-0.8846629 -1.2389853 -0.33569545 0.38194296 1.2475259 2.0397656 0.33693814 0.82648396
-0.24049625 0.30872986 1.224264 0.44952905 0.19088252 -0.14560148 0.1555212 -0.25498918
-0.0828298 -0.03848214 -0.23167406 -0.34778684 0.2836079 -0.49798307 -0.9152147 1.089668
-0.79374826 0.31307504 0.18549031 0.09795557 0.04843174 0.20146099 -0.1940006 0.16454072
-0.73410934 0.83992404 0.42517772 0.121078394 0.3451822 -0.19443206 0.43728 -0.021585075
0.96054053 -0.9253555 -1.9820535 0.7374275 1.3158665 0.20740153 2.5311363 -1.0125391
-0.16873492 -0.12635127 -0.3432396 -0.67046773 -0.22746915 -0.16720246 -1.7905184 -0.2202588
-1.3098458 -0.27806258 0.06766378 0.025769852 0.71655196 -2.1593056 -0.21499726 0.20975804
0.015730675 0.2149922 -0.13979653 0.36710668 0.9305747 -1.4218147 0.9464858 -1.4593478
-0.19593126 0.28076047 -0.6292007 1.140108 -0.07574297 -0.20591442 -0.090563454 0.0014105294
0.084406756 0.017560802 -1.0432642 1.788025 1.5332857 -2.3748727 -0.17187603 0.44209456
-0.24975693 -0.036957998 -0.067249656 0.4441306 -0.26533118 0.48373467 1.0339096 -2.5715194
0.0030955411 -0.67826277 0.16885251 -0.5278765 -0.039830167 0.084995665 1.2903463 1.6260866
-0.005139863 0.52784437 0.52372056 0.17259656 0.12546521 -0.57255167 0.38687062 -0.31996784
0.71459734 -0.0003155115 0.2212098 -0.27979743 0.49819458 -0.74737865 0.19323908 0.23016122
0.18846978 -0.011864593 0.07089951 -0.017014917 -1.5517333 2.5206718 0.86721677 -1.6864133
0.08433728 -0.2187318 0.43243444 0.12910289 0.7696278 0.819359 -1.0352676 -0.81937915
1.0698845 1.099819 -0.16710684 -0.07787089 -0.069171704 0.12364383 0.086370565 -0.41541275
1.1427598 -2.5761776 -0.33235964 -0.119008966 -0.12175675 0.06339539 -0.19840918 0.037369784
0.701023 0.1812895 0.6056586 0.0604585 0.1703691 0.021764612 0.8147173 -0.14578055
-1.3289907 0.06693997 0.6343439 -0.5444131 -0.7622433 0.2360041 0.17654572 -0.29235184
0.09054264 -0.27684477 0.025110004 0.29492936 0.3693726 0.2751654 0.27440396 -1.6081496
-0.40682146 0.25741336 -0.20220812 0.38519543 0.27415666 -0.4258703 0.33171147 -0.3095328
0.09743074 -0.19249736 1.7542542 -1.3410202 0.7993244 -0.82517886 0.4600089 -0.1420147
0.7079627 -0.84065807 0.12436242 0.20722395 -0.0913917 0.036516804 0.27336326 0.58694905
1.0938448 1.0393279 -1.5848616 -1.8340824 1.022902 0.73902947 0.9967899 0.81848246
-0.7719532 -0.6728348 -0.5741392 -0.5555485 0.09557891 -0.118911274 0.38951448 -0.8354892

bias f4 [128]
00000000: 9f4e 20bf 58bd 8cbf da32 2e3f 2a38 45bd
00000010: c78b 9abf bc60 25bf 71d5 01bd b28e c1be
00000020: abd7 f7be cc6c 3abf 2663 4bbf aa80 5fbe
00000030: 981e bebf 6aba 0fc0 1250 68bf abe6 9abf
00000040: 8299 313f 85ec cbbe 831e eebf 90b1 9abe
00000050: d688 99bf 4a92 b8bf bef1 073f b612 15bf
00000060: 0365 b9be 9b8e 51bf b173 8ebf 1077 1ebe
00000070: 3add 0abf 731f f0bf 7a68 00c0 1bfe acbe
00000080: d9cd 76bf d7b7 d9be 8fd1 2abf fb46 08bf
00000090: 4a5d d5be 885a 1dbf 46a8 8bbf 2c0c 35bf
000000a0: 5a98 11bf 86e5 3abf 1d5e 1cbf 5bfe 4abf
000000b0: b378 0abf 78f8 95bf a42b 95be 2b0a acbf
000000c0: 82df aebf 9fa4 86bf 7bee 27bf ed1d 51bd
000000d0: 3ca6 fdbe 8132 7abe 24d6 e4bf 03c5 c2bf
000000e0: b549 18bf 02be 50bf c1fc 0abf 9cb3 95bf
000000f0: 07bd cfbe a58e 89bf 60b0 b9bf 4a1e 93be
00000100: 0930 e4bf 8a7f cebe 5d04 0abf f6b0 7fbf
00000110: 0292 78bf bcad 4f3c 7836 66bf 7bc6 26bf
00000120: 3e8e e23d a946 95bf 5aaf b5be 64e9 6fbf
00000130: c56c dc3b 749a 37bf ea84 80bf ef1f d03e
00000140: cdb0 f2bf 7bc7 d2be 3d92 7cbf 6d4c ffbe
00000150: 1b00 abbe 7833 0cbf 33c0 393f acdf 92bf
00000160: 10d0 eebf 2eb0 7cbe cb94 3abe 4185 e5be
00000170: 4957 2abf 8999 b8bf ffbc 03bf 2b4c 23bf
00000180: 2c59 c0bf b844 9bbf 06c8 59bf 4627 6bbf
00000190: ff11 c5be abb2 0abf 141a 14bf 3a8f 03bf
000001a0: 9fd9 61bf d148 81bf fac6 30bf 0c5d 74bf
000001b0: 6302 98be 928c 2abf 4feb 7ebd 2744 f6be
000001c0: ee62 10bf dfb7 8abf 274c b0bf 2263 b0bf
000001d0: 43be 1dbf 6d42 87bf 595c 56bf f518 8dbf
000001e0: a1b5 b4bf 768a 72bf 4fdd 8abf 5a1c a6bf
000001f0: 2f77 48bf aa8b a0be 4115 ffbe bd9d 5bbf
-0.62619966 -1.0995283 0.68046343 -0.048149265 -1.2073907 -0.6460073 -0.031697694 -0.3780418
-0.4840673 -0.7282226 -0.79448164 -0.21826425 -1.4853086 -2.2457528 -0.9074718 -1.2101644
0.6937486 -0.39828888 -1.8603061 -0.30213594 -1.1994884 -1.4419644 0.53103244 -0.58231676
-0.36209878 -0.81858224 -1.1129056 -0.15475106 -0.54243815 -1.8759598 -2.0063767 -0.33787617
-0.9640785 -0.4252307 -0.6672601 -0.5323331 -0.41672736 -0.61466265 -1.0910728 -0.707217
-0.56873095 -0.73006475 -0.61081105 -0.79294366 -0.5409042 -1.1716452 -0.29134858 -1.3440603
-1.3661959 -1.0518988 -0.6559827 -0.05105393 -0.4954089 -0.24433328 -1.787785 -1.5216373
-0.5948747 -0.8153993 -0.5429192 -1.1695437 -0.40573904 -1.0746657 -1.450695 -0.28734046
-1.7827159 -0.4033168 -0.5391291 -0.99879396 -0.9709779 0.012675699 -0.8992686 -0.6514661
0.11062287 -1.1662189 -0.35485345 -0.937155 0.0067268335 -0.7172005 -1.0040562 0.40649363
-1.8960205 -0.41167817 -0.9866064 -0.49862996 -0.33398518 -0.54766035 0.725589 -1.1474509
-1.8657246 -0.24676582 -0.18220823 -0.44828227 -0.66539437 -1.4421855 -0.5146026 -0.637881
-1.5027213 -1.2130346 -0.85070837 -0.918568 -0.38490292 -0.54178876 -0.5785229 -0.5139042
-0.8822269 -1.0100347 -0.69053614 -0.9545448 -0.2968932 -0.66620743 -0.062236127 -0.4809887
-0.56400955 -1.0837363 -1.377324 -1.3780253 -0.6161844 -1.0567147 -0.8373466 -1.1023241
-1.4117929 -0.94742525 -1.0848788 -1.2977402 -0.7830686 -0.31356555 -0.49820903 -0.85787565

weight f4 [128, 128]
00000000: badf 01c0 84c3 363e ecc5 97bd b8a3 e63e
00000010: d703 3bbf a254 543f 7ead a1bf c394 3ebf
00000020: 3457 d13f 743d c0be 6253 8e3f 03d3 d73e
00000030: c33a b6bd a294 3ebe 96a0 e73d b9db b93e
00000040: c180 cabe c487 9e3f 0ab7 683f 1442 93bf
00000050: 3cb6 a33e e929 c93f 91d3 babe f16e aa3e
00000060: 33c3 44bf c9b1 06bf 4a89 9ebe 1a3a 3c3d
00000070: e32e 363f 624e 6e3d 24a0 82bf 1fc7 433e
00000080: 7458 d3bf f6a1 8dbf b9fd 9bbf 25b0 b93e
00000090: b56f 8a3f 2ffe 8f3f 083f cebe b058 2e3e
000000a0: 872c 17bf a6f1 083f c205 ccbf a4db dfbe
000000b0: 2ff0 20bf 1be6 f3be 4785 81bf 97b2 e5bd
000000c0: 6a88 d13f 3d4e a1bd a59a afbf 4feb 00bf
000000d0: 1ae9 5bbf d450 103e 8694 213e a8f1 b0be
000000e0: 15c8 0dbf bde1 183f e69c 5e3f 55d2 6e3e
000000f0: c952 c13f 14ed acbf eefb 3d3d 5d68 82bf
00000100: 6d90 56bf 6378 48bd 3398 e23e 0a82 b63e
00000110: fc18 2ebe f9ce 87bf 943b 6ebf d259 1abf
00000120: e184 bf3e b89b 38bf 4d86 0cbf 8058 0c3f
00000130: 0e24 8b3f a4f2 843f b3a7 57bc a6ef 353f
00000140: 4b39 933e 8d79 ed3e c362 943d 15f1 c13c
00000150: d222 5c3e e250 3cbf 293e 883e 2afc dcbf
00000160: f401 7f3e 5633 56bf c50d 483f c031 0cbd
00000170: 74fd 773f 99ea 84bf 663e e53d 2338 c9be
00000180: 984f 8fbf a4f0 00bf 0ca6 60be 1e19 b03e
00000190: f69e 87bf 8135 02bf 4ecd 60bf 5497 d1bd
000001a0: 879c 22bf 2e98 193f 7489 c13e 5520 b1bf
000001b0: e0dc 87be 967a af3f e24d 01bf 6302 ca3f
000001c0: 78fd 4fbf 5ad2 68bf a7f2 a9bf e5a9 113d
000001d0: 5d30 e73d 2b1a 35bf 48de 00c0 710c 9fbf
000001e0: f1b0 a03f 30f1 0abf c827 a43d aa33 5d3e
000001f0: 7428 aebf f3c6 8abf 62ea 3f3e d323 38bf
00000200: 5241 3fbe d9fc f6bd f1aa 70be 9c94 69be
00000210: cfd0 a2be d1ab e1be 53a2 e6be 3a59 86be
00000220: 1c3a 18bf 976b c8be 5aab c8be e4a5 9abe
00000230: d558 fabe d393 20bf 71cc 0cbf 6fe1 91be
00000240: 84a3 e6be 6319 05bf adf6 ffbe cc25 973d
00000250: 3e5f d1be b365 f0be e60a 84be 9dd1 aebe
00000260: 5084 13bf 1e34 43be fd63 c4be e047 28bd
00000270: 35df febe b233 14bf 93fb b1be 44a4 cbbe
00000280: 29ad 84be ae61 91be 1705 71be 5ba4 25bf
00000290: b422 8cbe 56a8 12bf 2dbb 72be 24a3 dcbe
000002a0: d3e7 afbe 4210 0ebf 8d9c f7be f61d fdbe
000002b0: d750 f1be 2b84 e4be f715 8bbe 37e8 e9be
000002c0: 4350 b2be 711b 1abf 3e5a a6bd 8a5c 0abf
000002d0: a8ef c9be 4d2b aabe c597 06bf 09a1 0dbf
000002e0: 20e6 b1be 6a97 37bf 4db9 39be db78 9ebe
000002f0: 9814 4bbd 8142 35be 05c1 38bf 7bb7 15be
00000300: c4a3 07bf 8ca2 e6be 63b9 a1be 638d d5be
00000310: 180a 08bf cec2 0abf 14d1 aabe 9a6a e9be
00000320: 2169 e8be 077f bdbe 7e4c 00bf b007 07bf
00000330: 5eed 3abe 4b61 9fbc 6fd8 f9be 1981 efbe
00000340: 981d 05bf 36d4 3dbe 3d3c 8abe 4ed3 cabe
00000350: 2f58 13bf ab37 c8be 339d a9bd 774e f8be
00000360: d5d7 dabe 7597 dfbe f6f8 b7be 06d8 edbe
00000370: 3bb6 59be 59d7 01bf 3dd3 f4be d3f1 a1be
00000380: 00ce 21bf e21c c5be 3fd7 d1be b9d7 17bf
00000390: a881 a7be 7d96 e3be 6823 f9bd 6cd2 fcbe
000003a0: b0ce 08bf ec1c d0be 1f4b 36bf 7a05 f6be
000003b0: 4512 d7be 3a7a 21bf 805a 9bbe c021 90be
000003c0: 1599 a2be e48f cabe ddd2 b7be b1cd 0abf
000003d0: be76 f0be fb50 56be b286 04bf 7a98 9bbe
000003e0: d8c1 09bf 4411 c8be 7d68 96be e2c2 0bbf
000003f0: e74c a9be 35df e7be 1609 a2be 0109 15be
-2.0292802 0.17848021 -0.074107975 0.45046782 -0.73052734 0.8294164 -1.2631071 -0.7444574
1.6354737 -0.37546885 1.1119196 0.42153177 -0.08897927 -0.18611386 0.11309926 0.36300448
-0.39551356 1.2385182 0.90904295 -1.150454 0.3197497 1.5715915 -0.36489537 0.33287767
-0.7686035 -0.5261503 -0.30964118 0.045953847 0.71165293 0.05818022 -1.0205121 0.19118927
-1.6511369 -1.1065052 -1.2186805 0.362672 1.081534 1.1249446 -0.40282464 0.17026019
-0.5905232 0.53493726 -1.5939257 -0.4372226 -0.6286649 -0.47636494 -1.0118798 -0.11215704
1.6369755 -0.07876251 -1.3719069 -0.5035905 -0.8590256 0.14093333 0.15779313 -0.3455937
-0.55383426 0.5971945 0.8695816 0.23322423 1.5103389 -1.350985 0.046382837 -1.0188099
-0.83814126 -0.048942935 0.44256744 0.35646087 -0.17001718 -1.0610038 -0.9305966 -0.60293305
0.37406066 -0.7211261 -0.54892427 0.5482254 1.0870378 1.0386548 -0.013162541 0.710688
0.2875465 0.46381798 0.072454 0.023674527 0.21497658 -0.7356092 0.26609924 -1.7264454
0.24903089 -0.8367208 0.7814601 -0.034227133 0.96871114 -1.0384094 0.11193542 -0.3930064
-1.1196165 -0.5036719 -0.21938342 0.34394163 -1.0595386 -0.5086289 -0.8781327 -0.10233942
-0.6352009 0.5999783 0.3780018 -1.3837992 -0.26535702 1.3709285 -0.50509465 1.5781978
-0.8124614 -0.9094597 -1.3277177 0.035562415 0.112885214 -0.70743054 -2.013567 -1.2425672
1.2553998 -0.5427427 0.080154 0.2160174 -1.3606095 -1.0841964 0.18741754 -0.71929663
-0.18677261 -0.120599456 -0.23502709 -0.22810596 -0.31799933 -0.44076398 -0.4504572 -0.2623995
-0.5946367 -0.39144585 -0.3919323 -0.3020469 -0.48895898 -0.6272556 -0.5499945 -0.28492305
-0.45046628 -0.5199186 -0.49992886 0.07380256 -0.40892977 -0.4695259 -0.25789565 -0.34144297
-0.5762377 -0.1906285 -0.38357535 -0.04108417 -0.49779668 -0.5789138 -0.34762248 -0.39773762
-0.2591336 -0.28394836 -0.23537098 -0.6470391 -0.27370226 -0.5728811 -0.23704214 -0.43093216
-0.34356555 -0.5549356 -0.48361626 -0.4943692 -0.47131988 -0.44632086 -0.27165195 -0.45684978
-0.3482686 -0.6019812 -0.08122681 -0.54047453 -0.39440656 -0.3323616 -0.5257533 -0.55323845
-0.34745884 -0.71715415 -0.18137093 -0.3095158 -0.049580187 -0.1770115 -0.72169524 -0.14620773
-0.5298426 -0.45045888 -0.3158675 -0.41709432 -0.531404 -0.542035 -0.3336264 -0.45589143
-0.45392707 -0.37010977 -0.5011672 -0.52746105 -0.18254611 -0.019455573 -0.48797938 -0.4677818
-0.5199828 -0.18537983 -0.26999083 -0.39614338 -0.5755643 -0.3910497 -0.082819365 -0.48497364
-0.42742792 -0.4367024 -0.3593213 -0.46453875 -0.21260922 -0.5071922 -0.47817412 -0.3162981
-0.63204956 -0.38498598 -0.40984532 -0.5931354 -0.32716107 -0.4445075 -0.12164956 -0.4937929
-0.5344038 -0.40647066 -0.71208376 -0.48051053 -0.42006126 -0.6307713 -0.30342484 -0.2815075
-0.31757417 -0.39562905 -0.35903063 -0.5422011 -0.46965593 -0.20929329 -0.5176803 -0.30389768
-0.5381141 -0.39075673 -0.29376593 -0.5459424 -0.33066484 -0.4528748 -0.31647557 -0.14554216

bias f4 [128]
00000000: 4472 1ebf 4ac2 82be 5e7d 99bd 6299 923f
00000010: 39b2 f63e 6914 9fbe 1dc7 2bbe dd3d 1fbe
00000020: 2c1c e43c 9094 a0bd a883 84be a776 99bc
00000030: 54ae 9e3e 64a0 60be f4a0 523f 976b 0abe
00000040: d1d4 c83e 8153 1cbe eeb1 21be 34e0 c0be
00000050: 2c2c 52be 8133 933f bc0a 8dbe 5957 d93e
00000060: be00 37be 0c09 08bf 40cb ea3d 196b 43be
00000070: ab24 18bf b227 18be dd55 cabd 74bb e8bd
00000080: fbd9 fd3e 7952 3ebe 4d2a ac3e b713 5fbe
00000090: 310b bdbe 6c1b 893f 28de 7fbe d854 bcbd
000000a0: 66f1 bbbe bd55 04be 3963 b6bf b4fc 763e
000000b0: dbfe 23be 7fb5 25bd fb28 81be 2ca1 2fbe
000000c0: e32f 62be 88f3 553d d173 b53d 88b2 4bbd
000000d0: 4732 e0be ab63 86bf 1ea1 91bd 5d27 b8bd
000000e0: 4799 a4be 85c4 3f3e 3e06 a0be 861a 1bbe
000000f0: 9aff f33e e752 26be ba29 0c3e cba1 05bf
00000100: 9a84 933e c5f8 3cbd 3f75 53bd f5c8 0a3e
00000110: 6137 7bbd e3c0 05bd ffa3 e2be 1967 1cbe
00000120: ca12 813f ec76 6cbe a24f d0bd dee1 d73d
00000130: a89f e2bf d894 033e d5f3 f7bd cbad 723f
00000140: dccc e5bd d79a a5be ad17 a0be b4f0 b2bd
00000150: f21a 0cbf 9c37 4bbe ecfe 06be 55b0 46bf
00000160: d7b9 453e 6ba4 9f3f c245 1abd 632b d33e
00000170: b791 aebe ebc1 e2be 9abf 16be 7418 96bd
00000180: 3c4a 843e 8cf8 43be 2a10 bd3e 01be dc3e
00000190: ff47 133f 3ce1 bfbe 16dc a5be da06 f4bd
000001a0: 74e8 c7be 33f5 9ebe bc67 95be 17c6 863e
000001b0: c2a7 08bd f30e 133f 3988 91be 0769 56be
000001c0: 12c8 1dbe 9c3a 83bd d4dc 09be dec7 cbbd
000001d0: 0fbe bebd 5345 27bf 66a1 26bf 3229 973e
000001e0: 77f2 a0bf 4fb7 503f 0d05 8dbd 83be 013f
000001f0: bee6 9fbf 777e 29bf 64fd ccbc cde3 bf3d
-0.61893106 -0.25538856 -0.07494615 1.1453059 0.48182848 -0.3107026 -0.16775174 -0.15550943
0.027845465 -0.07840836 -0.25881696 -0.018733336 0.30992377 -0.21936184 0.82276845 -0.13517605
0.39224866 -0.15266229 -0.15790531 -0.37671053 -0.20524663 1.1500093 -0.27547252 0.42449453
-0.17871377 -0.53138804 0.11464548 -0.19083823 -0.5943095 -0.14858893 -0.09879658 -0.11363879
0.49580368 -0.18586148 0.33626023 -0.21784864 -0.369226 1.0711493 -0.2498709 -0.0919587
-0.3670761 -0.12923332 -1.424903 0.24119836 -0.16015188 -0.04045629 -0.25226578 -0.17151326
-0.2208858 0.052234203 0.08859981 -0.049730808 -0.4378836 -1.0499166 -0.07110809 -0.08991883
-0.3214819 0.1872731 -0.31254762 -0.15146837 0.47655946 -0.16242562 0.13687792 -0.522
0.28812104 -0.046135683 -0.051625486 0.13553222 -0.06133211 -0.032654654 -0.44265744 -0.15273704
1.0083859 -0.2309224 -0.10171439 0.105411276 -1.7704973 0.12849748 -0.12107054 0.9479644
-0.112207144 -0.32344696 -0.31268063 -0.08737317 -0.54728615 -0.19845432 -0.13183182 -0.7761281
0.19309174 1.2472051 -0.037664182 0.4124404 -0.34095547 -0.44288573 -0.14721528 -0.07328883
0.25837886 -0.19137782 0.36926395 0.4311371 0.5753173 -0.37476528 -0.32394475 -0.11915369
-0.39044535 -0.31046447 -0.29180706 0.26323006 -0.03336311 0.57444686 -0.28424242 -0.20938502
-0.15408352 -0.06407663 -0.13463145 -0.09950231 -0.093135945 -0.65340155 -0.65090024 0.29523617
-1.2573994 0.81529707 -0.06885729 0.5068132 -1.2492292 -0.66208595 -0.02502317 0.093696214

weight f4 [5, 128]
00000000: 230c 943d d34e 203f e2d1 943d 24e2 cabe
00000010: 6922 8abe 3005 e6bc 8cf2 9b3e a457 263f
00000020: e589 67be cc57 a23d 9db5 a5be a209 89be
00000030: 9c87 e4be c107 e4be 1526 da3d 9a9b 4d3d
00000040: 8992 7c3e f1fd e5bd e271 2e3e 0e21 04bf
00000050: 9c71 523d b358 333d b313 e9ba 2f2a ddbe
00000060: 9151 bf3d 6a33 8cbd e43f c03d 6e1b ad3d
00000070: a4bc 903e cbdf b03d 11df 0abe 329c 2b3d
00000080: 7fc9 223c 9208 af3d f1c5 78be cb3e febe
00000090: 0ca0 523e 189b 17be dea5 ff3e 72e8 6f3d
000000a0: 4ad7 aabe 7aec 66bd f805 353c bd85 02be
000000b0: 69f6 8e3d 0cbd cf3d 05c0 243e 03e7 fa3d
000000c0: a0d5 7c3d 0747 1abe deca a8bd 8712 a53c
000000d0: 67fc a53e 7e6c f0be 1146 a0be 0f22 0d3e
000000e0: 1be3 b1bc 0161 c43d d4bd 9d3e 2c16 083e
000000f0: 9d45 97bd 06c0 e93d a361 35bd e37f a43f
00000100: cddc 9d3d fd7a b8bd 14a1 ad3d 00d2 92be
00000110: 4acb db3b caf8 e73b 84f5 41be ca15 b93d
00000120: 7e42 4c3d d783 703d 12ad d23d a348 b03d
00000130: f397 a83d c09a d9bd d41c 05bd f489 91be
00000140: 63f6 25bd 2585 a13d cbd1 b33d 2f3f 8a3d
00000150: 23b1 173f bca2 cc3d bec5 903d a79f 3abd
00000160: 5541 073d bbf1 a7be bc0a 0e3c 3c68 17be
00000170: 9426 80bd b204 b43e e461 e53c a416 d23d
00000180: bbf1 49bd 1340 8f3d 7cfd 1a3e 3738 bf3c
00000190: faa5 2dbd 1dbb 4dbe 37c6 f93e 07ba b73d
000001a0: 3ddd 21bc 5ed5 babd 8f99 9c3d 0848 303d
000001b0: fb03 ef3c a222 4dbe 39eb c13e 1e62 893e
000001c0: bd6c 0c3e a99a d0bd b7b1 a03d bc3a 663d
000001d0: 579c 583e 9e18 7d3e 8b0b d33e 175f 143e
000001e0: 1627 d83d aad9 87be 4e80 023e a378 903d
000001f0: 9620 91be 0158 8c3d 9692 ebbc cf29 5dbe
00000200: ff9f 943e 904b 72be 170e d03b 5fdb b73f
00000210: d37f 07bf 0c16 70bd 83d6 e1bd dc44 203f
00000220: 4984 7b3c 4df5 a23d 1529 19be f001 563f
00000230: 7295 0b3f 6457 cbbd 3a9f 16bd 2e96 0c3d
00000240: c733 ef3d 0179 88bd 297a 6bbe ff35 c73e
00000250: d4be 8abe 746d 663e 286c 90bc 7794 a73d
00000260: 60b6 6d3e 9abf e53e 5c58 a2be 7bdf eb3d
00000270: 1a4b 5f3f d4f7 443d cdb8 60bd ab43 68bd
00000280: 3ac8 bb3e 743c 71bd 22a5 53be 691f 493d
00000290: 2596 ee3e 9cb4 f4be 0130 5dbe 5f2b 9d3c
000002a0: b5a4 26bd e417 93bb 5bd9 423e 0ac1 44be
000002b0: 66fc 06bd d71e 33bd c09b e93e e178 c93b
000002c0: eac6 b03c 7285 4f3e a390 85be 599e 653b
000002d0: 8ba2 333e 6653 43be 8909 aebd c002 ec3c
000002e0: c352 673e b991 0a3e ae5f 90bd edc3 14be
000002f0: cc56 8cbe 2096 77bd 3cbf 4abe 975a 8b3d
00000300: 72fc e53e 3c74 b53d 6983 343d e2ba d0be
00000310: 2bd3 013d 49dd 0f3d 3b4d c0bd edce 663c
00000320: 07a2 7bbd 08dc 433e 0fc7 543d 4eab 2fbe
00000330: 7729 4dbe 8a7f db3e a857 933b 7423 b93e
00000340: 308d 403c 0c16 a0bd e8e9 013d 039d fb3c
00000350: 6591 7a3e eb0a cbbd 2f80 3dbd d355 843e
00000360: 146d 99be a4b0 a13e eac7 a83d 35a1 e7be
00000370: 270c 48be 58ac 99bd 0b4c 9c3d ba5f 2d3c
00000380: 29da ee3d d8e3 6cbc 8c22 dbbe 4345 9dbe
00000390: aacf aabe dfcc 903e bffd eebc d064 84ba
000003a0: b802 5cbe bc73 8a3e a663 90bd 5b22 9fbe
000003b0: d6d9 143d f75f d2bf 845a 2cbd 4d8d 0c3f
000003c0: 45e5 703d 45b0 423e 3a21 5a3d b7c0 dc3c
000003d0: 6bd5 043e 40b0 363d 75a1 193e 1245 7b3e
000003e0: 9e7a 843e 27c0 3f3e 532b 883b 6814 b9bd
000003f0: 6da4 d13e 9e18 e3bd f730 ba3c 1024 06bf
0.072288774 0.62620276 0.072665945 -0.39625657 -0.26979378 -0.028078645 0.30458486 0.6497748
-0.22611196 0.07926902 -0.32365122 -0.26765162 -0.44634712 -0.44537166 0.10651795 0.05019722
0.24665274 -0.11230076 0.1703563 -0.5161294 0.051377878 0.043785762 -0.001778236 -0.43196246
0.093417294 -0.06845744 0.09387186 0.084524974 0.2826892 0.08636435 -0.13561656 0.041897006
0.009935736 0.085465565 -0.24294259 -0.49657282 0.20568866 -0.14805257 0.49931234 0.058571286
-0.33367378 -0.056377865 0.011048786 -0.1274633 0.06980593 0.1014348 0.16088875 0.12251093
0.061727166 -0.15066157 -0.08241819 0.020150436 0.3241913 -0.46957773 -0.31303456 0.13782524
-0.021714738 0.095888145 0.3080889 0.13289708 -0.073863246 0.11413579 -0.044282567 1.2851528
0.0770813 -0.09007833 0.08477989 -0.28675842 0.0067075836 0.0070792185 -0.18941313 0.09037359
0.0498681 0.058719482 0.10286917 0.08607604 0.08232107 -0.10625219 -0.032498196 -0.28425562
-0.040518176 0.078867234 0.08780249 0.067503326 0.59254664 0.099919766 0.07068966 -0.045562413
0.03302129 -0.32801613 0.008669551 -0.14785856 -0.06257358 0.35159832 0.02800078 0.102582246
-0.049302798 0.06994643 0.15135759 0.023342235 -0.042394616 -0.2009091 0.48784038 0.08971029
-0.0098794075 -0.09122728 0.076464765 0.043037444 0.029176703 -0.20032743 0.37874773 0.2683267
0.13713355 -0.10185749 0.078463964 0.056208357 0.21153389 0.24716422 0.41219744 0.14489399
0.1055433 -0.26533252 0.12744257 0.0705426 -0.28345174 0.06852723 -0.028756421 -0.2159798
0.29028317 -0.23661637 0.006349336 1.4363822 -0.5292942 -0.058614776 -0.11027243 0.6260507
0.015351363 0.07956944 -0.14957078 0.83596706 0.5452491 -0.09928778 -0.036772944 0.03432291
0.116797976 -0.06663705 -0.22995819 0.38908383 -0.27098715 0.2250269 -0.017629698 0.08182614
0.23214102 0.44872743 -0.31708038 0.11517235 0.8722397 0.04808791 -0.05486374 -0.05670516
0.36676198 -0.058895543 -0.20668462 0.04910222 0.46598926 -0.47794044 -0.21600343 0.01918572
-0.04068442 -0.004488932 0.19028227 -0.19214264 -0.03295555 -0.043730583 0.4562664 0.006148443
0.021579225 0.20265749 -0.26086912 0.003503701 0.17542474 -0.19074783 -0.084979124 0.028809905
0.22590165 0.13532151 -0.070494995 -0.14527865 -0.2740997 -0.060445905 -0.19799513 0.06804388
0.44919163 0.088600606 0.044070635 -0.4076758 0.031695526 0.035123143 -0.093897305 0.014087421
-0.06143382 0.19126904 0.05194765 -0.17155191 -0.20035349 0.42870742 0.0044965334 0.3615986
0.011752412 -0.07816705 0.03171721 0.030714517 0.24469526 -0.09914192 -0.046264824 0.2584673
-0.29966033 0.3158008 0.082412556 -0.4524018 -0.19535886 -0.07503575 0.076316915 0.010581905
0.116627045 -0.014458619 -0.42799795 -0.30716905 -0.3336156 0.28281304 -0.02917373 -0.0010100845
-0.21485412 0.27041423 -0.070502564 -0.310809 0.036340557 -1.6435536 -0.04207851 0.5490311
0.0588124 0.19012554 0.053254344 0.026947362 0.12972037 0.04460168 0.15002997 0.24538067
0.258748 0.18725644 0.0041555553 -0.09037095 0.4094576 -0.1108868 0.022728426 -0.52398777

bias f4 [5]
00000000: fd73 7a3f ef51 3c3e ddf2 203e 415b 23bf
00000010: d0b1 edbe
0.97833234 0.1839063 0.15717645 -0.6381112 -0.46424723

weight f4 [128, 14]
00000000: 4865 403e 11a8 87be 686c 823d 5cae 603e
00000010: 2a5c 1b3e 27ea 81be 2ce8 41bd 7229 4a3e
00000020: 7edd 01be 628b 49be e0c8 093d 802e bf3c
00000030: d024 f4bd cd46 47be cf96 843e 6061 67bc
00000040: 6051 d1bd dade 60be 5647 193e 48aa a43d
00000050: 009d 683d 4852 723d 0070 9539 0852 6ebd
00000060: 8fd6 87be 0c6b 95bd 7074 373d 058a 63be
00000070: f23f 003e 2cd1 643e 5367 02be 6677 2d3e
00000080: a878 673d 580d e93d 006a 57be 28eb 76be
00000090: e0c5 453d 5b46 4fbe ac57 9cbd 11f4 813e
000000a0: a0b5 94bc 4edd 6b3e a8ac 683d 4425 efbd
000000b0: f7d5 3abe c07f c73c 4043 1cbe 0044 bdba
000000c0: c24f 073e a25f 733e 3247 51be 32e8 753e
000000d0: ca9d 1b3e 4c05 9ebd 6028 343e 5a8c 263e
000000e0: be29 44be d063 363e c632 2abe aa08 7cbe
000000f0: 42ff 273e b8ab 39be a05c 643c d23c 3ebe
00000100: 0c67 063e 1cf3 de3d b0c8 0a3d 3e01 403e
00000110: 90a5 4bbe b074 a03c 8a3e 93bd d04a 34be
00000120: 4a72 523e 903f fdbd 7053 eb3d 45d6 73be
00000130: e827 483d 57cd 863e 6ab6 653e 7894 7a3d
00000140: fe2f ccbd c43f b33d 9617 debd b5ac 84be
00000150: 18eb 9e3d 3cc3 113e 2427 213e fc35 8c3d
00000160: 6c10 363e f87b 5b3e e844 a4bd f0dd a73d
00000170: e015 9fbc 5871 783d 2a4b 3c3e 9285 1c3e
00000180: bc2f d43d d120 81be 446b 3abd c478 e23d
00000190: 9d03 833e 0470 6c3e 00e8 22bb 04ff 7bbd
000001a0: 2c0d 8f3d fc92 0f3e ae87 513e c41e ae3d
000001b0: 562c 043e 08b7 71bd c8ef 0b3e 3bab 73be
000001c0: ce8e 7fbe 936e 6ebe cc75 87bd 6c9a d2bd
000001d0: 54fc 333e 18dc 3d3e 9572 883e 5bba 873e
000001e0: e4ff 323e 7260 e3bd fc40 9d3d b2f9 6abe
000001f0: 0671 533e fa6d 17be 8c52 df3d 0c3d 17be
00000200: a776 6cbe 402f ef3d b092 f0bc 580e d83d
00000210: d846 f7bd 0203 3c3e 5cef 293e 0600 493e
00000220: cb0d 45be 57c4 22be 9051 58be 6c69 f53d
00000230: daec 5bbe 98e0 71be 508e 30bd e02d 183e
00000240: de41 e5bd 240e 2a3e 8c9d 40be c411 d83d
00000250: 8458 4e3e b04c 13bd fcf0 de3d f035 71bd
00000260: 884e 86be 2eac 75be 78a2 4b3e c066 d93d
00000270: c277 263e e470 3bbd 9468 6ebe 2b0c 83be
00000280: 994e 84be 1ae4 213e 30df eebc 16d2 0a3e
00000290: 8c05 59be 6f0f 81be f646 10be da5d 563e
000002a0: 7037 80bc ba79 513e ef05 6ebe 928d 80be
000002b0: 7cab 0dbd 6002 32bc 80c8 8abc da15 bdbd
000002c0: 3ce9 18be e05b 42bc 3253 0dbe 3a45 b7bd
000002d0: 00d3 e4bd 4440 553e 581f 0fbe 527e 4c3e
000002e0: 7ae6 363e 3ea7 39be 1cdb 2bbd 0050 783b
000002f0: a8db 54bd f80d 553e 34a2 44be 144d 223e
00000300: 1cc2 48bd 7af8 c8bd 80d6 7f3c 0439 31be
00000310: 2eff 053e d405 f4bd a0eb 223d 59d5 6cbe
00000320: e8cc 423e 7e09 303e 2f7d 823e c043 b1bc
00000330: 74f0 35bd 3411 34be 90ac cabc 9ef8 243e
00000340: a62c 6dbe 460a 88be 664b 5b3e eee5 45be
00000350: 09d6 4dbe 9e51 2c3e e2d3 cabd b4f9 20be
00000360: e49b 07be d899 2b3e 58f8 46bd 4076 613e
00000370: 40fb 843c d253 7cbe 80c7 473e c8b7 12be
00000380: d05c 313d 7801 26be f5bd 863e 48b7 353d
00000390: a614 16be c8c8 d73d fc03 653e 9218 373e
000003a0: 8e59 b2bd 34e8 11bd e60c 1bbe 0aaa 563e
000003b0: c069 f5bd 64ad e6bd 60af 413e 98b7 a93d
000003c0: 6cfa ed3d 7835 7cbd e03b 67bc 5740 54be
000003d0: 1061 93bc 622e 4cbe fa87 273e f126 11be
000003e0: 58c5 393e 5026 b83c a442 42bd 9094 8f3c
000003f0: 685a d13d 5e96 d1bd 7aa4 5d3e 4b06 0ebe
0.18788636 -0.26495412 0.06368333 0.21941513 0.15171877 -0.25373957 -0.047340557 0.19742373
-0.12682149 -0.19682077 0.033638835 0.023337603 -0.11921084 -0.19460602 0.25896308 -0.014122337
-0.10220599 -0.21960011 0.14968619 0.08040291 0.056790352 0.0591605 0.0002850294 -0.0581837
-0.26530883 -0.07295808 0.044788778 -0.22220619 0.12524393 0.22345418 -0.12734728 0.16940078
0.05651155 0.11379498 -0.2103653 -0.24113142 0.04828441 -0.20241682 -0.076339096 0.2538152
-0.018153012 0.2303364 0.056805283 -0.1167703 -0.18245684 0.024352908 -0.15260029 -0.0014439821
0.13214019 0.2376695 -0.20437315 0.24014357 0.1519691 -0.07715854 0.17593527 0.16264477
-0.19156548 0.17811513 -0.16620931 -0.2461268 0.16405967 -0.18131912 0.013938099 -0.18577889
0.13125247 0.10886213 0.033882797 0.18750474 -0.19887376 0.019586891 -0.07189663 -0.17606664
0.2055141 -0.12365639 0.11490524 -0.23812206 0.048866183 0.26328537 0.22432867 0.061176747
-0.09970091 0.08752397 -0.108443424 -0.25913015 0.07759684 0.14234632 0.15737587 0.06846234
0.17779702 0.21434009 -0.08020955 0.08196628 -0.01941961 0.060654968 0.18388048 0.15285328
0.10360667 -0.2522035 -0.045512453 0.110581905 0.25588694 0.23089606 -0.002485752 -0.0615225
0.06984934 0.14020914 0.20461914 0.08501962 0.12907538 -0.059012443 0.13665688 -0.23795788
-0.2495682 -0.23284368 -0.06614265 -0.1028336 0.17576724 0.1854099 0.2664992 0.26509365
0.17480427 -0.1110238 0.076784104 -0.22946814 0.20648584 -0.14788046 0.109044164 -0.14769381
-0.23092137 0.11678934 -0.029366821 0.10549611 -0.12074059 0.18360522 0.16595215 0.19628915
-0.19243543 -0.1589521 -0.21124864 0.11982998 -0.2147707 -0.23620832 -0.04310447 0.1486125
-0.11194204 0.16606957 -0.188101 0.105502635 0.20150954 -0.035961807 0.10885808 -0.05888933
-0.2623179 -0.23991463 0.19886196 0.10615301 0.16256621 -0.045761958 -0.23282081 -0.2559522
-0.25841215 0.1580967 -0.029159158 0.13556704 -0.21193522 -0.25207087 -0.1408957 0.20934239
-0.015651435 0.20456591 -0.23244451 -0.2510801 -0.03458737 -0.010864824 -0.016941309 -0.092326835
-0.14932722 -0.011862725 -0.13801268 -0.08948751 -0.111730576 0.20825297 -0.139768 0.19970062
0.17861357 -0.18130204 -0.041957006 0.003788948 -0.051967293 0.2080611 -0.192025 0.15849715
-0.049013242 -0.09813018 0.015615106 -0.17306906 0.13085625 -0.11915174 0.03977549 -0.2312826
0.19023478 0.17191121 0.25486133 -0.021638751 -0.044418767 -0.17584687 -0.024740487 0.16110465
-0.23161563 -0.26570338 0.21415481 -0.19325992 -0.20101179 0.1682801 -0.09903695 -0.15720254
-0.13243061 0.16757905 -0.048576683 0.22017765 0.016233087 -0.2464135 0.19509697 -0.1432792
0.043301404 -0.16211498 0.263168 0.044364244 -0.14656314 0.10536343 0.22364801 0.17880467
-0.087084875 -0.035621837 -0.15141639 0.20963302 -0.11983061 -0.112635404 0.18914557 0.08286971
0.1162003 -0.06157443 -0.014113396 -0.20727669 -0.017990619 -0.19939569 0.16360465 -0.14175011
0.18141687 0.022479206 -0.047426835 0.017526895 0.10222322 -0.102337584 0.21644774 -0.13869588

bias f4 [128]
00000000: 8453 3a3e 8806 5d3e ac60 1c3e ee24 2b3e
00000010: d603 5d3e b1b2 853e 9412 bcbd d4c3 313e
00000020: 1c60 163e 4bf8 2cbe 803f 55bc 9653 6fbe
00000030: c4fa f23d 26d0 68be 04f5 c8bd 9c7e b9bd
00000040: 4d70 80be 2882 673e f0cb 1c3d 4494 413e
00000050: 8c4d 19bd 84b6 d5bd 12aa 183e d13b 41be
00000060: b823 133e a002 15bd e00c 39be 606b c43c
00000070: 56cc 183e dcee 30be 5a0a 573e f190 883e
00000080: 7c99 dc3d 49ca 803e cc24 9ebd 886b 8d3d
00000090: 3c26 52be eb58 05be d8a1 fbbc 77b7 823e
000000a0: 6cc7 e7bd 74a0 85be 2262 123e e0e4 50bd
000000b0: a04a 783d 40b3 4f3d 6a6c 4b3e 6d41 833e
000000c0: 2483 10bd 77a0 72be 7084 9b3d 02c0 653e
000000d0: 106f 033e 78f7 65be 622d 6dbe e0c3 f23c
000000e0: 47bf 853e a841 34bd 3811 a43d ecb0 f3bd
000000f0: b416 65bd 9059 babd fcfe fc3d ccd5 22bd
00000100: 1e4d 273e f0ae 31be d012 83be ac0e 383e
00000110: 9c03 163e aa92 493e 1c58 36bd 7f47 3fbe
00000120: d8b3 093e 17ae 48be 82e5 31be 34cb d2bd
00000130: 16f8 97bd 4833 5f3d 82c3 cfbd 4f1e 5ebe
00000140: c043 cb3d 5b3d 39be c87a 30be 2288 163e
00000150: 2c20 4abe 646d 2cbe e5b3 6ebe fcc1 85be
00000160: 60e4 1a3e b24e 48be b6c3 9abd 5ef2 f9bd
00000170: 2cb4 87bd 3a06 6f3e c0cf 45bc e20a f8bd
00000180: 0090 0bbc 1b0a 6abe 30d8 54bd 87a5 803e
00000190: da04 753e 64ff 08be 74e1 4a3e 8403 953d
000001a0: a25f 523e 98fe 13be 66e2 453e 30e8 14be
000001b0: d07f 9bbc 00d4 54bb 5250 d0bd b47d 083e
000001c0: fce6 d3bd 84c3 77be a025 d73c dd0a 803e
000001d0: 906c a4bd 3835 1b3e 1bff 823e e0b0 fe3c
000001e0: a0df 3c3c 6e27 c4bd 3cf7 d4bd fd7f 85be
000001f0: 6a70 373e 00c8 883d b988 853e fe32 23be
0.18195921 0.21584523 0.15271252 0.16713306 0.21583495 0.26112893 -0.09183231 0.17359859
0.146851 -0.16891591 -0.013015628 -0.23371729 0.11864236 -0.22735652 -0.09812358 -0.09057352
-0.2508568 0.22608244 0.038280427 0.18904215 -0.03742747 -0.10435203 0.14908627 -0.18870474
0.14369094 -0.036379457 -0.18071318 0.023976982 0.14921698 -0.17278618 0.21000043 0.26673082
0.10771462 0.2515433 -0.07721862 0.069052756 -0.20522398 -0.13022201 -0.030716822 0.25530598
-0.113173336 -0.2609898 0.14295247 -0.050999522 0.060618043 0.050708055 0.19865575 0.25635853
-0.035281315 -0.23694025 0.0759362 0.22436526 0.12835336 -0.22457683 -0.23161843 0.029634416
0.26122496 -0.044007927 0.08011097 -0.118989795 -0.055929855 -0.09099114 0.12353322 -0.039754674
0.16338012 -0.1735189 -0.2560029 0.17974347 0.14649814 0.19684854 -0.04451762 -0.18679617
0.13447511 -0.1959766 -0.17372707 -0.10292664 -0.074203655 0.054492265 -0.10144712 -0.2169125
0.09925032 -0.18089812 -0.17234337 0.14700368 -0.19738835 -0.16838604 -0.23310812 -0.2612456
0.1512618 -0.1956127 -0.0755686 -0.12204431 -0.06626162 0.23342219 -0.012073457 -0.12111451
-0.008518219 -0.22855417 -0.051963985 0.25126287 0.23927632 -0.13378674 0.19812566 0.07276061
0.20544294 -0.14452589 0.19324645 -0.14541698 -0.018981844 -0.0032474995 -0.1017157 0.13329202
-0.10346791 -0.24195677 0.026263058 0.25008288 -0.08028519 0.1515702 0.25585255 0.0310902
0.011527926 -0.09577833 -0.10398719 -0.2607421 0.17913976 0.06678772 0.26080874 -0.1593742

weight f4 [128, 128]
00000000: 44d6 ad3c a1e5 29bd 9914 8d3d f908 56bd
00000010: 93f3 68bd d86a 153d 23ca 97bd 68dc 2fbd
00000020: d4b9 9e3c 3abc 6a3d ae4d 753d 4ec8 60bd
00000030: e15e 823d b096 a8bc 8c04 ac3c f44c c0bc
00000040: d319 8bbd 0b80 43bd a12e a33d 82a1 3d3d
00000050: d8c7 0abc 78d0 43bd 6e07 303d 088b c2bc
00000060: 0056 57bc d07d aebd 30c5 91bc c4f0 fe3c
00000070: fa19 5f3d 3044 013c 2fe8 983d 5652 efbc
00000080: fed2 aebd ec6f cabc 66c1 a3bd e0fe bcbb
00000090: fe8c 3d3d 54a7 abbc 5201 203d b0ed 3b3c
000000a0: 3fce b4bd 3555 1ebd 00c1 8c39 4d94 abbd
000000b0: 32eb 463d e5c4 ab3d 5e2e 653d 67b3 b33d
000000c0: 0269 7d3d b4db c0bc a8af acbd 06b4 7a3d
000000d0: b71b 5abd 4030 bfbb bca2 9abc d4c6 90bd
000000e0: b4c4 a5bd b807 0fbc 61e7 a53d 50ba 843c
000000f0: 968a 363d 18ea e73c 3861 54bc 8614 2e3d
00000100: 60a4 173c 459f 813d 98ce aabd fca6 8bbc
00000110: 96a7 0b3d 4fa2 29bd aee8 2dbd d01f 03bc
00000120: c831 88bc 22f6 1e3d 5898 a1bd e28a b2bd
00000130: a62b 143d 9075 9ebb dc94 83bd 23b5 a2bd
00000140: 1faf 61bd 2dfe a13d 3c6b 1cbd 7965 a13d
00000150: 4864 8cbd d814 73bd 88fe bbbc 8b59 ad3d
00000160: 9c0e 45bd 6a78 603d 5faf 95bd bbd0 69bd
00000170: 5f19 973d 252a 9ebd c07c 673c f8aa 58bd
00000180: 7a49 e7bc 5c77 fabc ba0e 7d3d 3a3b 103d
00000190: a668 82bd f46c ab3c e092 1ebb 6644 403d
000001a0: be07 42bd e6c3 453d a20b 37bd a031 08bb
000001b0: 39f7 91bd 45b9 03bd 1222 aabd 80c9 cebc
000001c0: f42d 043d 80d9 05ba 94ad bd3c 7212 773d
000001d0: 9848 253c 632f 1cbd 3e5f 1a3d 4315 893d
000001e0: 569c 5dbd 6ce4 8d3c 1804 7dbc 602b 99bd
000001f0: 40bc 74bb e036 14bb 403a 693c 8ec6 163d
00000200: 9e2c a0bd 201d 093b 68dd b4bd 1883 363c
00000210: 364f 6e3d c106 9fbd 8c44 8dbd b02a fdbb
00000220: b816 08bc fc3a 0c3d e6d9 35bd 0097 7c3b
00000230: 4058 3cbb e8c0 013d 0c6a 9ebd 888a 89bd
00000240: 7e5e 58bd 319b 6dbd c1e6 a23d 80c5 9c3b
00000250: 5ec6 233d e8aa 0f3c 0eca 2f3d 2010 743b
00000260: 8031 093b 683a 24bc a88b 7e3c 94a6 4ebd
00000270: 4d52 31bd ac06 aebc ecdc 4bbd 3b3a 8dbd
00000280: c62e e9bc 14de d1bc 82b4 603d 869e 223d
00000290: 2af2 1dbd 1e86 3b3d 0872 743c 0040 c3ba
000002a0: 5644 93bd 2ce6 a2bc 284b ef3c cfed 8b3d
000002b0: 3af2 b3bd 01dc a63d ed24 973d cb54 983d
000002c0: 512b 14bd c675 0e3d b075 79bc b6e9 edbc
000002d0: b8c3 a5bd 7c41 ae3c 7cc7 e5bc 3554 943d
000002e0: e04f 853c 838e 31bd 60d9 aebb 50db 133d
000002f0: 978d 85bd 00c2 463c 60d3 7c3b 483c 81bc
00000300: fb35 0bbd 9ed7 613d feba ddbc 56ba abbd
00000310: b612 1a3d 7857 553c 4ae0 2f3d 8b7b 8abd
00000320: c707 aa3d 5a76 4c3d cecc 4d3d 6999 9c3d
00000330: 4aea 063d 00f2 0fba 222b 2e3d c696 493d
00000340: 99a0 993d 4a0f 8fbd 40b3 42bd f03f c4bb
00000350: aacd 8abd 7a14 723d 8ece 673d 3e04 3a3d
00000360: 1038 f73b 6cdf eb3c 9e10 61bd f085 c0bc
00000370: 4f8e 873d 76e8 753d f0ee 043c 8abf 69bd
00000380: 18b9 883c c29e 5f3d 5841 4c3c 2588 993d
00000390: b6ab 333d a94c 813d 32b4 4b3d 32e6 073d
000003a0: ef0c 973d 06b4 7fbd 3ea8 223d f0b8 0d3c
000003b0: 5cae dc3c ce09 603d 37e4 68bd 68f0 cdbc
000003c0: 04b5 cebc 18be 8d3c a418 d13c 8e88 423d
000003d0: e6c5 5a3d e998 933d d841 fd3c c6ac 75bd
000003e0: 5b04 b33d ac76 bf3c 96ee 6e3d e2c0 5a3d
000003f0: 80a8 8ebd aef6 0d3d e8ed 8e3c b3a8 4ebd
0.021220334 -0.041478757 0.06888694 -0.05225465 -0.056872915 0.036478847 -0.074116014 -0.042934805
0.01937572 0.057308413 0.059888534 -0.054878525 0.06365753 -0.020579666 0.020998262 -0.023474194
-0.06792035 -0.047729533 0.07967878 0.046296604 -0.008470498 -0.047806233 0.042975836 -0.023747936
-0.013143063 -0.085200906 -0.017794222 0.031120665 0.054468133 0.007889792 0.074661605 -0.029214066
-0.08536337 -0.024711572 -0.07995872 -0.005767688 0.04627704 -0.020953812 0.03906376 0.011470243
-0.08828401 -0.03865548 0.00026846677 -0.083778955 0.048564143 0.08387164 0.055952422 0.08774453
0.06186772 -0.023542263 -0.08431941 0.06120684 -0.053249087 -0.0058346093 -0.018876426 -0.070691735
-0.08094159 -0.008729868 0.08100773 0.016202122 0.04456576 0.028309867 -0.012962632 0.04250004
0.009255499 0.063292064 -0.08340186 -0.017047398 0.03409537 -0.041414555 -0.04245823 -0.00800319
-0.0166253 0.03880895 -0.078903854 -0.08717896 0.03617444 -0.004835792 -0.06424877 -0.07944705
-0.05509865 0.07909808 -0.038188204 0.078806825 -0.06855065 -0.05934605 -0.022948518 0.084643446
-0.048109636 0.054802336 -0.0730884 -0.057083827 0.07377886 -0.07722882 0.014128864 -0.052897424
-0.028233279 -0.030574493 0.061781622 0.035212733 -0.06367616 0.020925976 -0.002419643 0.04694023
-0.047370665 0.048282526 -0.04468883 -0.0020781532 -0.07127232 -0.03215911 -0.0830728 -0.025242567
0.032270387 -0.00051059574 0.023154058 0.060320325 0.0100881085 -0.03813113 0.037688486 0.066935085
-0.05410417 0.017320834 -0.015442871 -0.07478976 -0.003734365 -0.0022615716 0.014235079 0.03681045
-0.0782101 0.00209219 -0.088312924 0.011139654 0.05818101 -0.0776496 -0.0689784 -0.007726036
-0.008306198 0.03423594 -0.044397257 0.0038542151 -0.0028739125 0.03167811 -0.077350706 -0.06715876
-0.05282449 -0.05800933 0.07954169 0.004784286 0.0399841 0.008768775 0.042917304 0.0037241057
0.0020934045 -0.010023691 0.015536226 -0.05045183 -0.04329138 -0.021243416 -0.049771234 -0.06895872
-0.028464686 -0.02561859 0.054859646 0.03970196 -0.038561024 0.0457822 0.014919765 -0.0014896393
-0.071907684 -0.019885145 0.029210642 0.06832468 -0.087864354 0.08147431 0.0738009 0.07438048
-0.036174122 0.034780286 -0.015225813 -0.029042106 -0.08093971 0.02127146 -0.028049223 0.07242624
0.016273439 -0.0433488 -0.0053359717 0.036097825 -0.06521147 0.012131214 0.0038578138 -0.015775815
-0.033987027 0.05513727 -0.027066704 -0.0838515 0.0376155 0.013021342 0.042938508 -0.06761845
0.08302265 0.049917556 0.050244145 0.07646448 0.03293828 -0.0005491078 0.042521603 0.049216054
0.07501335 -0.06985338 -0.047534227 -0.0059890673 -0.067775086 0.05910156 0.05659347 0.045414202
0.007544525 0.02879306 -0.054947488 -0.023501366 0.0661894 0.060036145 0.008113608 -0.05706743
0.016689822 0.054594763 0.012466751 0.07496671 0.04386493 0.0631345 0.049732395 0.033178516
0.07375514 -0.062427543 0.03971123 0.00865005 0.02693861 0.05469685 -0.056858268 -0.025139049
-0.0252328 0.017302558 0.025524445 0.04749351 0.053411387 0.072069 0.030915186 -0.059979223
0.08741065 0.023372017 0.058333002 0.053406604 -0.069657326 0.03465908 0.017447427 -0.050453853

bias f4 [128]
00000000: 582c 163c 6e02 7f3d 6287 683d 4435 f93c
00000010: 70f5 69bc 2085 7abc 170b b03d 759f 0ebd
00000020: 10ff 6a3c e567 b4bd cce5 993c 4521 a43d
00000030: 2a15 1fbd b399 19bd 7eaf 1b3d 6059 40bb
00000040: 8875 66bd 2e5f 483d c0a8 f23c d2fe d7bc
00000050: 9cf7 913c 3045 5cbc 90b3 af3c d352 943d
00000060: 0078 9b39 6fe3 a13d 74b9 b5bc 0f3e 89bd
00000070: 9d9d 53bd 2844 253c caaa 37bd 5e24 3abd
00000080: 9892 4abc 40c2 49bb 0b90 87bd feb3 483d
00000090: b112 87bd 9afb 7f3d 6017 42bd e89f b7bc
000000a0: 6089 e4bc 60c6 82bd 9c38 1abd 40fd 21bc
000000b0: 3d73 4cbd fe68 0f3d 8933 88bd ed68 9bbd
000000c0: 7ec9 4f3d f712 34bd 494a ad3d 1086 f4bc
000000d0: 1a1e 613d 6843 91bc f1df 70bd 7c5b ec3c
000000e0: 881b 25bc 98e3 b13c 7298 e4bc a342 8f3d
000000f0: f8a4 6c3c 34aa b4bc 0e1f 313d 99e5 9cbd
00000100: 16e1 88bd 8ccc e83c dbfb b33d 82b6 aebd
00000110: 2699 82bd a5e3 973d 8048 99bd 9443 b03c
00000120: 3e59 6a3d a145 a8bd 8032 8cbc 1e6f a5bd
00000130: e073 263c bb79 9dbd d8b2 81bd f211 87bd
00000140: 7854 133c 3a2c 643d 5f7d 8e3d ebc4 813d
00000150: ec03 e23c acca 84bd c8ea 393c 315c 04bd
00000160: 1d39 a23d dfcb 8b3d 22c1 7d3d 614b 90bd
00000170: a40b a23c 22c1 54bd 9acf 483d 90c5 aebc
00000180: 4040 983c 105e 0fbc dd8e 91bd 1af9 633d
00000190: 34a9 64bd 6263 0fbd 6904 813d 80f1 0a3a
000001a0: 29f5 02bd d93c 843d 30ae 833b c046 1bbc
000001b0: 7c9c bebc 2ac2 afbd fec3 733d 9acd 533d
000001c0: f404 5abd 1710 2cbd 8845 233c 2f1c 1cbd
000001d0: 3716 8e3d 75a2 a23d 40f0 07bd 997d a53d
000001e0: b002 133d 1d80 963d a83d 7a3c 9dcc b33d
000001f0: c002 373b 42d9 26bd 40bf 11bb 2b24 923d
0.009165846 0.062258177 0.056769736 0.030420907 -0.014279708 -0.015290529 0.08595865 -0.03482004
0.014343038 -0.08808879 0.018786334 0.08014158 -0.038838543 -0.037500095 0.03800916 -0.0029350147
-0.05626443 0.048918895 0.029621482 -0.026366625 0.017818265 -0.01344423 0.021447927 0.0724236
0.0002965331 0.07904708 -0.022183158 -0.0670129 -0.051663984 0.0100870505 -0.04484061 -0.04544484
-0.012364052 -0.0030785948 -0.06619271 0.04899978 -0.06595362 0.062495805 -0.047385573 -0.022415116
-0.027897537 -0.06385493 -0.037651643 -0.00988704 -0.049914587 0.035012238 -0.066504546 -0.075883724
0.050729267 -0.0439634 0.084614344 -0.029849082 0.054960348 -0.017732337 -0.058807317 0.028852217
-0.010077365 0.02171497 -0.027904723 0.06995132 0.0144436285 -0.022053815 0.043242507 -0.0766098
-0.06683557 0.028417848 0.08788272 -0.08530904 -0.06376867 0.074164666 -0.074845314 0.021516599
0.057214014 -0.08216406 -0.017113924 -0.080778345 0.010159463 -0.07689234 -0.0633294 -0.0659522
0.008992307 0.05570624 0.069575064 0.06336387 0.02758976 -0.06483969 0.01134748 -0.032314483
0.0792105 0.06825995 0.061951764 -0.070456274 0.019780941 -0.051942 0.04902611 -0.02133444
0.018585324 -0.008750454 -0.07107327 0.055657484 -0.055825427 -0.03500689 0.06299669 0.00053002685
-0.031972084 0.06456918 0.0040185675 -0.009477317 -0.023267977 -0.08581956 0.059513085 0.05170975
-0.05322738 -0.042007532 0.009965308 -0.038112815 0.06937831 0.079411425 -0.033188105 0.080805965
0.035891235 0.073486544 0.015273489 0.08779261 0.0027925223 -0.040734537 -0.0022239238 0.07135805

weight f4 [5, 128]
00000000: 0b08 c1bb e737 1cba 1f46 a83b 7498 0d3c
00000010: 00c0 133a 3aac 173b 3a53 2a3b 721e 71bb
00000020: 67d4 3a3b 4dfe 033a 1e5d a1bb 7046 34bb
00000030: c534 873b e74e 05bb 974d 5d3b a37e 86bb
00000040: ea3b 433b 53ca 8fba 93ce cfbb bf7d 09bc
00000050: e3e8 073c 57c8 783b dacf 5f3b 26b4 053c
00000060: f7de 63bb cb47 edbb defa 87bb b5f0 02bc
00000070: 5858 2bbb 90bd 503b c556 acbb dba6 cfbb
00000080: 9507 c63b 13b9 cb3a 1663 063c 087c b03b
00000090: 6db2 05bc a851 813b 9a15 bc38 3822 05bc
000000a0: 3c1c a5bb 7fc2 a03b 8380 72bb 332c cd3a
000000b0: caa5 74bb 3860 f6bb e2bb e13b 3305 39b9
000000c0: 7fe8 37bb fdaf ffbb b308 d4bb 4732 aabb
000000d0: fff2 833b 9f97 fd3b 62d4 883b fc9f 03bc
000000e0: 7351 0eba 5afd f33a 8723 373b 49b8 023c
000000f0: bff9 d93b 6f8e d33b 1d05 dbbb a8d1 b23b
00000100: 2519 c63b 6b16 dd3b 7382 dcba 5017 edbb
00000110: 8b85 82bb a318 65bb f39f 073a e326 183b
00000120: 3c9b a3bb 436f 503b ee9f 06bc 9f69 a23b
00000130: 6378 223b 77ed c9bb ab38 bb3b 482c b93b
00000140: f591 d23b efca c83b e092 673b 729c a13b
00000150: 25e3 bdbb 775b 21bb 33b7 e6b8 a761 453a
00000160: a0c2 dfbb b7dc c1bb 7f69 e03b 23ae f2bb
00000170: f8ab fe3b 3a74 3d3b 52d2 b33b 0338 23bb
00000180: e749 8f3a 754a db3b 8d7c e0bb e668 96bb
00000190: c636 0d3c 661e 043c b94b 8bbb 9dec 6cbb
000001a0: a7ee 6f3b 80c9 3a3b 6ef9 063c 0e46 0c3c
000001b0: aa54 7e3b c4a4 92bb ed04 8e3a 93cf bfba
000001c0: 1244 87bb eda1 25bb a3e8 babb 3808 923b
000001d0: d179 063c 7873 c53b d8ab da3b 57db 55bb
000001e0: 0db5 3cba f727 dfbb 7335 0cbc 0863 a8bb
000001f0: 67d3 89bb cf3a 053c 9b6a dfbb 730a da3a
00000200: 177a 0e3c 1d48 7e3b fb8a a33b c278 d43b
00000210: dbdf 8c3b ed1a fe3a 9b10 da3b 6087 b43a
00000220: 62e5 833b 9f01 a3bb 080a c0bb 6314 7c3b
00000230: 1a03 a0b9 1f37 fdbb 9a29 e8b9 92ec dabb
00000240: 7369 bb3a 3a9a 36bb 12ed d33b 6234 a63b
00000250: 454d e33b 6a12 0fbb 5219 dabb 9a18 43ba
00000260: 9785 523b 9a9f d93a ed68 ec3a 9a36 5a3b
00000270: babf c9bb c3d6 6a3b e8d0 8e3b e76f cb3a
00000280: 672c 413b 604a 0bbc 9afc 2fba b0b8 0a3b
00000290: 8aee aebb 5379 953a b3f9 77ba 2710 a8bb
000002a0: 37fe 25bb 538c a73a 5b77 e03b cd50 cfb8
000002b0: 4ad3 593b 223e 90bb fdfb f5bb 37f8 423b
000002c0: e8f8 dcbb 2810 aabb f8ed 903b 9470 a3bb
000002d0: 3b23 013c d03c 393b 0fb9 d13b 8fc9 adbb
000002e0: 674a 5a39 33ea 183a 45de dd3b 4a66 4ebb
000002f0: 4bcb d53b d006 713b 9856 d63b b459 0ebc
00000300: e878 fcbb 995e 0c3c a7c3 c8bb 0c74 043c
00000310: 4bb9 023c d2e2 a43b 28b2 cd3b cf3e 0bbc
00000320: a79d 063a 3f54 65bb ad29 f0bb 237e 473b
00000330: bb08 bfbb cd14 80b7 7f72 963b 72a8 c43b
00000340: ea8c f8bb 78cc a33b 62fe 863b 72b1 cb3b
00000350: 0097 073a 27d2 c1ba 6f31 acbb aac7 303b
00000360: 93f7 4e3b 27cf 49bb 4aca 24bb 6045 6b3b
00000370: c81c 40bb f85c d43b bb10 9e3b 9ba6 fdbb
00000380: 9aed cfb9 dac7 413b cd18 3c3b 1add b0ba
00000390: 1347 303b cd10 f3bb 0771 f83a 47da f5bb
000003a0: b30b eeb9 d2ac 8e3b 2085 9bba 7239 aa3b
000003b0: 0003 7f3a 2b84 903b cf49 973b 2570 f53b
000003c0: 0049 34ba 0d76 d4bb 20ed c3ba 35cf e43b
000003d0: a54d 823b daf8 05bb dac3 3a3a 8b0e ec3b
000003e0: d3b1 cf3a 9a50 c539 afe0 b93b 6f84 48bb
000003f0: 1086 4b3b 8a37 713b 2d57 493b fae6 493b
-0.0058908514 -0.0005959258 0.005135312 0.008642305 0.0005636215 0.0023143427 0.0025989548 -0.0036791828
0.002850795 0.0005035147 -0.0049244305 -0.0027507804 0.0041261637 -0.002034122 0.003376817 -0.0041044517
0.002979035 -0.0010970331 -0.0063417642 -0.008391797 0.008295271 0.0037961209 0.0034150989 0.0081606265
-0.0034770349 -0.0072412244 -0.0041497787 -0.007991959 -0.0026145186 0.003185127 -0.005259367 -0.0063370294
0.0060433843 0.0015542827 0.008202335 0.0053858794 -0.008160216 0.0039465018 8.968562e-05 -0.008125834
-0.005038766 0.0049059982 -0.0037002868 0.0015653431 -0.0037330263 -0.0075187944 0.0068888525 -0.00017644912
-0.0028062162 -0.007802962 -0.0064707636 -0.005193982 0.00402677 0.007739022 0.0041757086 -0.008033749
-0.0005429007 0.0018614933 0.002794476 0.007978507 0.0066520865 0.0064561884 -0.006683959 0.005457122
0.006045478 0.006747057 -0.0016823545 -0.007235445 -0.0039832047 -0.0034957312 0.00051736756 0.0023216538
-0.0049928706 0.0031804598 -0.008216841 0.0049564387 0.0024790994 -0.006162341 0.0057135425 0.0056510307
0.006426091 0.006127707 0.0035335347 0.00493198 -0.0057949 -0.0024621168 -0.00011001378 0.0007529505
-0.006828621 -0.005916204 0.0068485136 -0.0074060126 0.007771965 0.0028908388 0.0054877186 -0.0024905212
0.0010932059 0.0066922256 -0.006850785 -0.0045901416 0.008619016 0.008063888 -0.00425097 -0.0036151775
0.0036610754 0.002850145 0.00823818 0.008561624 0.0038807788 -0.004475208 0.0010835208 -0.0014634005
-0.0041279877 -0.0025273517 -0.005704002 0.004456546 0.008207754 0.006025728 0.0066733174 -0.0032631957
-0.00071986095 -0.006810184 -0.008557665 -0.0051387586 -0.0042061093 0.008131697 -0.0068181283 0.0016635194
0.008696101 0.0038800307 0.004990933 0.006484122 0.0042991466 0.0019386687 0.0066548116 0.0013773255
0.0040251473 -0.0049745585 -0.005860571 0.00384643 -0.0003051989 -0.007727518 -0.00044281484 -0.0066810334
0.0014298394 -0.0027862922 0.00646747 0.0050721625 0.0069367015 -0.0021831044 -0.0066558504 -0.00074423256
0.0032123083 0.0016603351 0.0018036641 0.0033296705 -0.006156889 0.0035833574 0.0043583997 0.001552102
0.0029475929 -0.008501619 -0.0006713361 0.0021167211 -0.0053384947 0.0011403955 -0.00094595103 -0.0051288786
-0.0025328526 0.0012782909 0.006850166 -9.8855795e-05 0.003323751 -0.004401938 -0.007506846 0.0029749998
-0.006743539 -0.0051899143 0.0044228993 -0.0049877856 0.007881935 0.0028265007 0.0064002345 -0.0053035687
0.00020817817 0.0005833238 0.0067708814 -0.0031494075 0.0065244786 0.0036777742 0.0065410845 -0.008688379
-0.007704843 0.008567476 -0.006126839 0.008084308 0.007978748 0.005031922 0.0062773414 -0.008498861
0.00051351864 -0.0034992842 -0.007329187 0.0030440174 -0.005829898 -1.5268475e-05 0.0045912857 0.0060015256
-0.0075851576 0.00499874 0.0041196803 0.0062162215 0.0005172342 -0.0014787362 -0.0052549164 0.0026974478
0.0031580671 -0.0030793638 -0.0025144988 0.0035899505 -0.002931403 0.0064808093 0.004823772 -0.007740808
-0.00039659144 0.0029568584 0.0028701306 -0.0013493628 0.0026897832 -0.0074177743 0.0018954583 -0.0075028273
-0.00045403614 0.004354098 -0.0011865236 0.0051948363 0.0009727925 0.004410287 0.004616953 0.0074901753
-0.0006877333 -0.0064837993 -0.0014947988 0.006982709 0.003976541 -0.0020442517 0.0007124521 0.007203882
0.0015845842 0.0003763482 0.0056725363 -0.0030596515 0.003105525 0.0036806786 0.0030722127 0.0030807839

bias f4 [5]
00000000: 10bc 773b 7b02 b0bb 0a8a 773b 1862 823b
00000010: eaf1 783b
0.0037801303 -0.0053713894 0.0037771487 0.003978979 0.003798599
