maddpg/trained_ckpt/il_rl_static_simple_spread_n3/agents.ckpt (torch_old, 554866 bytes, 38 tensors)

weight f4 [128, 14]
0.04692278 0.035094798 -0.005024425 0.023441251 -1.2960198 0.01570918 0.4540585 0.084182866
0.1801886 -0.08885109 0.31394348 0.023481315 0.33869463 0.029482102 -0.16370764 -0.22541562
-0.23302087 -0.28285548 0.20542474 -0.09996704 0.36255717 -0.2632534 0.7351981 -0.19733958
0.2536846 0.73251164 -0.050720137 0.42376179 0.08169896 0.053246118 -0.2168053 -0.05822408
0.21325132 -0.018137777 -1.7189249 -0.02176189 0.42602628 0.085123315 0.3578264 -0.12209317
0.31653368 -0.068797 0.08562531 0.12845646 0.10740972 0.10506578 -0.23378296 -0.2870311
-0.21606 -0.17846023 -0.18298613 -0.16685157 0.14624897 0.10787868 0.891893 0.90295196
0.15289122 0.3913505 -0.13352673 -0.25392067 0.21294376 0.20783979 0.15232687 0.17303842
-0.87711495 -1.6211203 -0.2306626 -0.39934725 -0.245795 -0.36027473 0.025967108 0.0020141625
0.109994575 0.08472125 -0.038560193 0.0039399355 -0.048395135 -0.00711275 -0.012499111 -0.047656663
-0.31749454 -1.5169809 -0.040352345 -0.03655845 0.10085164 0.3478536 -0.37560114 -0.5095217
-0.21064512 -1.2541226 -0.17798927 -0.219723 -0.110580176 -0.15837711 -0.2512116 -0.26373485
-0.1949999 -0.2109134 0.02119983 -0.02083413 -0.4047611 1.4403356 0.030646455 -0.43405274
0.15687302 -0.37165472 0.10251023 -0.36928007 -0.2603454 0.88301086 -0.26556098 0.85262865
0.025727337 -0.027079584 -0.19692883 0.39052626 -0.22817867 0.3875141 -0.22219162 0.35313693
-0.30199614 0.21437547 0.6255658 -0.58532834 0.5823382 -0.6620102 0.25154805 -0.11745267
1.2141873 -0.23706058 0.58033335 -0.034784872 0.37872484 -0.06053585 0.665834 0.23814368
-0.2646712 0.028940093 -0.20927674 0.037378035 0.03470032 -0.6674733 0.38319954 -1.1071444
-0.13791394 0.13258003 -0.030416025 0.12048189 0.42568204 0.027161377 0.03347094 0.6848594
0.1807056 0.8498811 -0.09656494 0.015031778 -1.3828244 -1.3040397 -0.07648337 -0.14881255
-0.03884492 -0.34175023 0.071943514 -0.09868349 -0.48014888 -0.041115433 -0.27921382 -0.11008439
-0.04629534 -0.087961234 0.36501175 1.6433514 0.112307765 0.36718822 0.2458003 0.6921315
0.22902623 0.54525465 -0.2706356 -0.08640608 -0.17056684 0.023721142 0.14934812 0.2272316
0.28752154 0.17013732 -0.2563906 -0.5327629 -0.061304435 0.071092896 0.5132565 0.71182007
-0.264545 -0.3987156 -0.20165414 -0.39053616 -0.47724435 0.34309235 0.62270707 -0.5671932
1.1242535 0.27749372 0.22157048 -0.4455069 0.23176792 -0.22306602 0.4388442 -0.5187002
0.39168552 -0.41636753 0.08416882 0.14132619 -0.5857571 0.19800343 -0.22382757 0.33645007
0.24911712 -0.3084972 -1.3174045 0.09118628 -0.0030645314 0.026017755 0.117100626 -0.0760819
-0.007664919 -0.2846151 -0.4341487 0.42553255 -0.56706107 1.1002636 0.13674079 -0.15837866
0.78824484 -0.023859378 -0.4092933 0.2839188 -0.39884436 0.21080963 -0.00958539 0.0069065886
-0.12919973 0.22777238 -0.0047354614 0.048950914 0.018268157 0.07327065 0.002631907 -0.004346276
-0.7967053 1.0362448 0.5556916 -0.86340714 0.023397094 -0.21921943 -0.003994215 -0.70862705
00000000: 1a32 403d 90bf 0f3d efa3 a4bb de07 c03c
00000010: fae3 a5bf 8ab0 803c 5b7a e83e 1168 ac3d
00000020: 5c83 383e 8ff7 b5bd 33bd a03e e35b c03c
00000030: 6269 ad3e 7384 f13c faa2 27be 5ad3 66be
00000040: 069d 6ebe 6fd2 90be dd5a 523e 85bb ccbd
00000050: 18a1 b93e 26c9 86be f135 3c3f 6313 4abe
00000060: f3e2 813e e285 3b3f ebbf 4fbd 4ef7 d83e
00000070: c951 a73d 9a18 5a3d 3502 5ebe 5f7c 6ebd
00000080: 8e5e 5a3e ad95 94bc bb05 dcbf fe45 b2bc
00000090: 1e20 da3e 2255 ae3d 0635 b73e fc0b fabd
000000a0: b410 a23e 71e5 8cbd 535c af3d 178a 033e
000000b0: a1f9 db3d ba2c d73d cd64 6fbe bef5 92be
000000c0: d53e 5dbe 47be 36be b760 3bbe 23db 2abe
000000d0: 4ac2 153e 7fef dc3d 1a53 643f dc27 673f
000000e0: 848f 1c3e 185f c83e 3bbb 08be e401 82be
000000f0: ee0d 5a3e f4d3 543e 93fb 1b3e fc30 313e
00000100: 9b8a 60bf df80 cfbf d132 6cbe 3e77 ccbe
00000110: afb1 7bbe ee75 b8be f9b8 d43c 0a00 043b
00000120: d644 e13d 5682 ad3d 4bf1 1dbd 931a 813b
00000130: fa39 46bd 1212 e9bb 12c9 4cbc a233 43bd
00000140: a58e a2be 6e2c c2bf 8048 25bd 50be 15bd
00000150: 4e8b ce3d de19 b23e cb4e c0be 0470 02bf
00000160: 5bb3 57be 1787 a0bf d242 36be 11ff 60be
00000170: dc77 e2bd 9c2d 22be cf9e 80be 4108 87be
00000180: 0eae 47be aff9 57be 44ab ad3c 56ac aabc
00000190: d93c cfbe eb5c b83f 460e fb3c 293c debe
000001a0: 52a3 203e 8749 bebe e2f0 d13d 4712 bdbe
000001b0: fe4b 85be 000d 623f 9cf7 87be df45 5a3f
000001c0: 23c2 d23c 01d6 ddbc b6a7 49be 0ff3 c73e
000001d0: aba7 69be 4068 c63e 3386 63be 5dce b43e
000001e0: 3d9f 9abe 3e85 5b3e 1525 203f 14d8 15bf
000001f0: 1e14 153f 8079 29bf e8ca 803e 078b f0bd
00000200: 7d6a 9b3f 02c0 72be ba90 143f 957a 0ebd
00000210: 39e8 c13e 70f4 77bd 1974 2a3f f0db 733e
00000220: fc82 87be c613 ed3c a44c 56be b619 193d
00000230: ec21 0e3d 88df 2abf bb32 c43e e8b6 8dbf
00000240: 5039 0dbe 0fc3 073e 072b f9bc 36bf f63d
00000250: fff2 d93e 8981 de3c d318 093d f252 2f3f
00000260: e40a 393e cf91 593f d7c3 c5bd d947 763c
00000270: 6400 b1bf c6ea a6bf 50a3 9cbd 5162 18be
00000280: da1b 1fbd e3f9 aebe 1f57 933d 921a cabd
00000290: 13d6 f5be a868 28bd 1df5 8ebe ed73 e1bd
000002a0: 2fa0 3dbd 0525 b4bd d2e2 ba3e 5759 d23f
000002b0: 9d01 e63d 1800 bc3e 13b3 7b3e 882f 313f
000002c0: da85 6a3e cf95 0b3f c090 8abe acf5 b0bd
000002d0: 13a9 2ebe d752 c23c b7ee 183e 67af 683e
000002e0: 0636 933e 7a38 2e3e a145 83be 2663 08bf
000002f0: 5c1a 7bbd 2799 913d c764 033f d739 363f
00000300: 7172 87be 7324 ccbe 6c7e 4ebe 5bf4 c7be
00000310: 5f59 f4be cda9 af3e bb69 1f3f 9333 11bf
00000320: 8ae7 8f3f a813 8e3e 5fe3 623e 7b19 e4be
00000330: 9254 6d3e 6b6b 64be 30b0 e03e 89c9 04bf
00000340: 018b c83e 202e d5be b460 ac3d d0b7 103e
00000350: 2df4 15bf 69c1 4a3e 0e33 65be 2f43 ac3e
00000360: 8f18 7f3e 58f3 9dbe b6a0 a8bf dfbf ba3d
00000370: 4ed6 48bb 3023 d53c 74d2 ef3d d4d0 9bbd
00000380: 002a fbbb 12b9 91be bd48 debe 67df d93e
00000390: ea2a 11bf 70d5 8c3f c705 0c3e 042e 22be
000003a0: 6aca 493f be74 c3bc e48e d1be ce5d 913e
000003b0: 5435 ccbe 7bde 573e 0a0c 1dbc aa50 e23b
000003c0: ef4c 04be 2a3d 693e ee2b 9bbb c180 483d
000003d0: 1aa7 953c ec0e 963d 127c 2c3b 356b 8ebb
000003e0: e1f4 4bbf aba3 843f ce41 0e3f 4008 5dbf
000003f0: 43ab bf3c 0f7b 60be e7e1 82bb 9568 35bf

bias f4 [128]
-0.17891835 -0.06756354 -0.5193649 0.2983231 -0.066328116 0.18593873 -0.15676267 -0.4046847
0.15856147 -0.3150278 0.2764177 -0.038266517 -0.43121597 -0.18740028 -0.22415888 -0.17100371
-0.4126042 -0.15223418 -0.62383646 0.19410291 -0.31315497 -0.12077519 0.38033423 -0.13332263
-0.13035181 -0.43726668 0.14794652 0.14427824 -0.46087688 0.08163288 -0.61106455 0.22402303
0.11358025 -0.5321564 -0.315577 0.069212705 0.0031862012 -0.63767064 0.09412241 -0.40488783
-0.14075674 0.03169749 -0.61612636 -0.2617423 0.19668445 -0.063421994 -0.11772076 -0.39109334
-0.45037335 -0.15207753 -0.05898182 0.07377673 -0.24037981 0.1373639 -0.47540858 -0.5534188
-0.14042276 0.36793527 0.09924723 -0.49242014 0.12703267 -0.30060217 -0.36516976 0.2938545
0.06804518 -0.30239037 0.23476143 -0.27998793 -0.054133464 -0.073348515 -0.18511495 -0.30307695
-0.2415069 -0.055286523 -0.037757292 -0.20379724 -0.13338311 0.114800505 -0.31708825 -0.7777152
-0.62055403 0.11509716 -0.24774171 0.18426412 -0.102695376 0.2174235 0.34093723 -0.13379
0.09478251 -0.48512447 -0.58689433 -0.48370612 -0.38737193 -0.12014276 -0.38411617 -0.25199252
-0.48641944 0.2543168 -0.7104613 -0.59002465 -0.21789603 0.08968905 -0.16443135 0.15600999
0.15837105 -0.22357672 -0.7954784 0.1152249 -0.13278571 0.18142678 -0.32957965 0.14091992
-0.40565863 -0.26616338 -0.35577062 -0.010771685 -0.51136976 -0.047304355 -0.5267359 -0.0041683386
0.24636412 0.19281882 -0.2051875 -0.41637814 -0.5065752 -0.078231916 0.04729584 -0.30138487
00000000: 5f36 37be c15e 8abd 19f5 04bf cebd 983e
00000010: 09d7 87bd b966 3e3e 6586 20be d532 cfbe
00000020: f05d 223e 534b a1be 9f86 8d3e 5abd 1cbd
00000030: 57c8 dcbe dce5 3fbe e889 65be 991b 2fbe
00000040: dc40 d3be 47e3 1bbe bfb3 1fbf eac2 463e
00000050: d955 a0be fc58 f7bd 2bbb c23e ba85 08be
00000060: f27a 05be 6be1 dfbe 4b7f 173e adbd 133e
00000070: 0ef8 ebbe 242f a73d ba6e 1cbf 4b66 653e
00000080: c39c e83d 673b 08bf 4f93 a1be 64bf 8d3d
00000090: 96cf 503b 623e 23bf 40c3 c03d 754d cfbe
000000a0: 8922 10be 3ad5 013d 75ba 1dbf 1603 86be
000000b0: a667 493e 64e3 81bd 9517 f1bd 633d c8be
000000c0: 5697 e6be 36ba 1bbe ec96 71bd 4118 973d
000000d0: 2026 76be 1fa9 0c3e c168 f3be dbac 0dbf
000000e0: fcca 0fbe 0362 bc3e 2242 cb3d 7e1e fcbe
000000f0: da14 023e 87e8 99be 88f7 babe 1974 963e
00000100: 455b 8b3d e9d2 9abe 4d65 703e 945a 8fbe
00000110: 0dbb 5dbd bf37 96bd c68e 3dbe e72c 9bbe
00000120: 964d 77be 1f74 62bd 64a7 1abd 39b0 50be
00000130: 9595 08be 871c eb3d 6459 a2be 5818 47bf
00000140: a1dc 1ebf 0fb8 eb3d 01b0 7dbe bcaf 3c3e
00000150: f451 d2bd 44a4 5e3e 538f ae3e 3f00 09be
00000160: 551d c23d 3c62 f8be b53e 16bf 54a8 f7be
00000170: 9d55 c6be 680d f6bd e0aa c4be 2a05 81be
00000180: f80b f9be d035 823e cbe0 35bf db0b 17bf
00000190: 2320 5fbe e5ae b73d b160 28be 15c1 1f3e
000001a0: 052c 223e 4cf1 64be 79a4 4bbf 08fb eb3d
000001b0: faf8 07be f1c7 393e aabe a8be 504d 103e
000001c0: 7db2 cfbe 9146 88be 9127 b6be b97b 30bc
000001d0: 21e9 02bf 36c2 41bd 2ad8 06bf 8f96 88bb
000001e0: e046 7c3e 4c72 453e ac1c 52be 842f d5be
000001f0: eaae 01bf 0e38 a0bd 48b9 413d 1e4f 9abe

weight f4 [128, 128]
-0.6449813 0.098676264 -0.09050194 -0.209435 0.34095055 -0.11620494 0.0011167463 -0.26614487
-0.0028635892 -0.6567291 -0.30964735 0.05954503 0.8259042 -0.42952606 0.45754227 0.028761426
-0.5386633 0.08284588 -0.3805762 -0.0051881485 0.49665248 0.048444238 0.15106285 0.011428367
-0.6838132 -0.10936487 0.18408725 -0.0063719596 -0.0070054955 0.4465592 -0.121956915 0.16935182
0.17972995 0.02179724 0.32168335 0.07332863 0.028140262 0.038731907 0.074639745 0.4760872
-0.119158626 -0.05883532 -0.13688797 -0.8529154 0.3411447 0.036278438 0.14400819 -0.0044322847
-0.17083968 0.6124495 0.3249636 -0.044715878 0.14353725 0.2930548 0.4551604 0.06657598
0.010187646 -0.26093957 0.5141294 0.08412003 0.15506451 -0.58349496 0.19152589 -0.12287503
-0.1355526 -0.5307853 -0.021817144 0.60465235 0.077420704 0.24450028 0.36232767 0.10176657
-0.16280293 -0.59739435 0.28056327 0.70869946 0.08183659 -0.03516666 -0.7207022 -0.69237757
-1.1031941 0.22452027 0.018196719 0.15744148 -0.40824437 -0.020746566 -0.27978987 0.05740311
-0.050732993 -0.0391656 0.56776863 -0.045007158 -1.1417081 -0.26195183 -0.44385275 0.6293895
-0.12455012 -4.844644 0.13592659 -0.62662685 0.31532508 0.51202375 -0.1637036 0.083568946
0.11718829 0.17294878 -1.1144854 0.10792164 -0.4585873 0.04206293 -1.2614453 0.264521
-0.5192558 0.15351652 -0.055555273 0.23004657 0.3750087 0.25190908 0.4101427 -0.36385068
0.41175702 -0.44256246 0.21919772 0.5111259 -0.59484017 0.3653948 0.3161007 -0.0513976
0.015061148 -0.049756397 0.20902732 0.20123969 0.26865804 0.25802878 0.040459435 -0.23765048
0.012893086 -0.4293282 -0.2387832 0.22530141 -0.4632298 0.25936145 -0.41187695 0.20946169
-0.22203098 -0.18730801 -0.56618905 -0.036044225 0.459902 -0.17453317 -0.04386214 0.14080557
-1.16201 0.1999575 0.7138127 0.30789474 -0.22852598 0.06985901 -0.013397662 0.121691294
-0.11080263 -0.5035792 0.11889826 0.2050052 -0.37389106 0.70870537 0.01354873 0.15931982
-0.37283733 0.004063332 0.18149827 0.5437982 -0.20534842 0.41462627 0.010653143 -0.106159255
0.089022584 0.50146055 -0.29763764 -0.3048101 -0.36680186 0.13891816 -0.3173581 -0.26511335
0.24508551 0.27949685 0.056592353 -0.4910081 0.13061714 0.057763666 -0.1245081 -0.22569402
-0.039598826 -0.35983187 0.27208304 0.09468826 0.39563587 0.41792327 0.6632234 -0.15002707
-0.52003556 0.016143132 0.17758353 -0.6276164 0.007939092 -0.053534333 -0.26366082 0.3598155
-1.0561461 0.2109543 0.14075255 0.13681723 0.24748887 -0.14477257 0.19622733 0.19973491
0.13491575 -0.5434191 0.11012608 0.69277936 -0.09670667 0.39713377 0.16144861 -0.5041089
-0.012776886 0.25277779 0.2337693 -0.7141043 -0.45317325 -0.30218574 -0.019598529 0.13899712
-0.042576805 -0.53292423 -0.34928393 0.23056819 -1.0097471 -0.13325053 0.34840396 -0.19361869
-0.2639833 -0.25207236 0.30918175 0.16498387 0.71292263 0.65629286 -0.7132119 0.29050794
-0.068218246 -0.026591374 -0.013579181 0.16906911 0.09211092 -0.36363363 -0.17279975 0.20616715
00000000: 7f1d 25bf c816 ca3d 1559 b9bd 2176 56be
00000010: 1291 ae3e dbfc edbd ca5f 923a 2444 88be
00000020: 0eab 3bbb 661f 28bf 198a 9ebe 7de5 733d
00000030: 756e 533f d7ea dbbe fb42 ea3e 159d eb3c
00000040: d7e5 09bf 1aab a93d e2da c2be 5801 aabb
00000050: 3c49 fe3e 776d 463d 38b0 1a3e 0c3e 3b3c
00000060: 620e 2fbf b0fa dfbd 5e81 3c3e dfcb d0bb
00000070: 5b8e e5bb 68a3 e43e 8cc4 f9bd 906a 2d3e
00000080: 210b 383e 2090 b23c aeb3 a43e 522d 963d
00000090: 6886 e63c 59a5 1e3d b9dc 983d b4c1 f33e
000000a0: 7009 f4bd 4efd 70bd 5c2c 0cbe aa58 5abf
000000b0: 85aa ae3e b398 143d e276 133e b33c 91bb
000000c0: 99f0 2ebe 7ec9 1c3f a161 a63e ff27 37bd
000000d0: 6efb 123e 470b 963e c90a e93e fd58 883d
000000e0: 16ea 263c df99 85be fc9d 033f 1f47 ac3d
000000f0: 3bc9 1e3e ed5f 15bf 5d1f 443e e7a5 fbbd
00000100: 4dce 0abe 8ce1 07bf deb9 b2bc 7fca 1a3f
00000110: bf8e 9e3d 485e 7a3e 0383 b93e fe6a d03d
00000120: d0b5 26be d6ee 18bf fda5 8f3e 546d 353f
00000130: f199 a73d ea0a 10bd f07f 38bf a83f 31bf
00000140: 7735 8dbf a4e8 653e 4911 953c 5738 213e
00000150: 6805 d1be b4f4 a9bc 9e40 8fbe 861f 6b3d
00000160: 66cd 4fbd 1c6c 20bd 4959 113f 6d59 38bd
00000170: 7e23 92bf 8d1e 86be ab40 e3be ac1f 213f
00000180: 2214 ffbd 5307 9bc0 5730 0b3e 9e6a 20bf
00000190: 4a72 a13e fd13 033f eba1 27be 3226 ab3d
000001a0: 6a00 f03d 7c19 313e 75a7 8ebf 0506 dd3d
000001b0: f4cb eabe 2e4a 2c3d 0a77 a1bf 4c6f 873e
000001c0: f3ed 04bf 6f33 1d3e ed8d 63bd 5491 6b3e
000001d0: 2401 c03e 3afa 803e 39fe d13e a34a babe
000001e0: d1d1 d23e 8c97 e2be 5e75 603e 26d9 023f
000001f0: 7247 18bf 0715 bb3e f3d7 a13e 4a86 52bd
00000200: 09c3 763c 5dcd 4bbd 420b 563e c711 4e3e
00000210: 8c8d 893e 591c 843e cbb8 253d a65a 73be
00000220: 863d 533c e8d0 dbbe 9583 74be 6ab5 663e
00000230: 752c edbe 06cb 843e 89e1 d2be 207d 563e
00000240: 175c 63be accd 3fbe c4f1 10bf 1ca3 13bd
00000250: 4678 eb3e d3b8 32be caa8 33bd 562f 103e
00000260: bebc 94bf a9c1 4c3e 6ebc 363f 61a4 9d3e
00000270: b702 6abe 3e12 8f3d de81 5bbc 4939 f93d
00000280: 7dec e2bd 91ea 00bf ee80 f33d e2ec 513e
00000290: a66e bfbe b76d 353f 7efb 5d3c bc24 233e
000002a0: 89e4 bebe b325 853b afda 393e 5c36 0b3f
000002b0: db46 52be e549 d43e 858a 2e3c 066a d9bd
000002c0: 7951 b63d b85f 003f f663 98be 1210 9cbe
000002d0: 74cd bbbe 9040 0e3e c37c a2be f0bc 87be
000002e0: b2f7 7a3e 361a 8f3e 62cd 673d 6a65 fbbe
000002f0: 80c0 053e 9899 6c3d 1afe febd 551c 67be
00000300: 6132 22bd e23b b8be 784e 8b3e ebeb c13d
00000310: c990 ca3e 0afa d53e 02c9 293f b2a0 19be
00000320: 0d21 05bf 9a3e 843c 75d8 353e 78ab 20bf
00000330: f712 023c d146 5bbd 8dfe 86be bd39 b83e
00000340: cc2f 87bf 6704 583e 7021 103e d119 0c3e
00000350: b96d 7d3e 433f 14be d1ef 483e 4f87 4c3e
00000360: 5b27 0a3e 841d 0bbf c889 e13d fd59 313f
00000370: 260e c6bd 1e55 cb3e c952 253e 480d 01bf
00000380: 2556 51bc 176c 813e 3861 6f3e 8acf 36bf
00000390: 5306 e8be 17b8 9abe 188d a0bc 4355 0e3e
000003a0: 0465 2ebd b96d 08bf 58d5 b2be 111a 6c3e
000003b0: 653f 81bf d472 08be 0162 b23e fa43 46be
000003c0: d228 87be a10f 81be 124d 9e3e 88f1 283e
000003d0: 1982 363f cf02 283f 0e95 36bf 75bd 943e
000003e0: 02b6 8bbd 27d6 d9bc 377b 5ebc 7420 2d3e
000003f0: a6a4 bc3d 302e babe 6bf2 30be 7b1d 533e

bias f4 [128]
0.16170931 0.10670609 0.14558797 0.22386171 0.13858387 -0.37363794 0.034403626 0.13093059
0.7006593 0.35899785 -0.45184377 0.5257806 0.12794793 0.1157958 -0.19551557 -0.09760793
0.11156579 0.14006056 0.11455825 -0.10663177 0.05211067 -0.13088585 0.5905131 0.32935566
0.27548334 -0.42491877 -0.17635438 0.37731567 0.05048779 -0.27684298 0.2558217 0.30135268
0.16599703 0.063826784 -0.21415392 0.6114264 0.28586578 0.30369705 0.2763126 -0.27314803
-0.558241 0.11996529 0.266795 -0.32304683 -0.2239979 0.09614874 0.2977289 -0.14808992
0.3658646 -0.010524734 0.31215578 -0.2741538 -0.06199674 -0.22873828 -0.08784009 -0.093656786
-0.2726999 0.043419912 -0.17257458 0.16157585 0.20054185 0.26190957 0.16938683 0.028710362
0.22995563 0.022427022 0.05418631 -0.08124187 -0.10595339 0.06578481 0.09093779 -0.03268394
-0.1305922 0.10539359 -0.089349575 0.3779982 -0.03327243 -0.1420354 -0.052461278 -0.20300397
-0.025091777 0.06609507 -0.089223064 0.29841742 0.07753769 0.50512975 0.027950374 0.17334144
0.259783 -0.1403343 -0.15877464 -0.27036124 0.048967797 0.21939714 -0.08245872 0.13879639
0.033371422 -0.08414682 0.23030506 0.1100514 0.43839443 0.4995043 0.5680031 -0.11028771
0.57955736 0.1185015 0.51866746 -0.15898533 0.18058628 0.12115944 0.18907821 0.024911629
-0.027713645 -0.05895708 0.12448748 0.16125108 0.47885582 -0.0042181634 0.4805408 0.3291255
-0.1605064 0.14154209 -0.1353259 0.13277307 -0.053344052 -0.3813775 -0.54576856 0.29090193
00000000: 2097 253e b988 da3d 0315 153e 013c 653e
00000010: eee8 0d3e 794d bfbe d1ea 0c3d ab12 063e
00000020: 685e 333f 91ce b73e 1158 e7be 8f99 063f
00000030: c804 033e 5926 ed3d 3c35 48be abe6 c7bd
00000040: 9b7c e43d 096c 0f3e 849d ea3d c261 dabd
00000050: ff71 553d f106 06be de2b 173f 4ea1 a83e
00000060: 270c 8d3e f48e d9be 3e96 34be 852f c13e
00000070: 49cc 4e3d 5dbe 8dbe 10fb 823e e64a 9a3e
00000080: 20fb 293e 9eb7 823d 2a4b 5bbe 7186 1c3f
00000090: 005d 923e 2e7e 9b3e d878 8d3e 0fda 8bbe
000000a0: e2e8 0ebf 5db0 f53d 5b99 883e 6566 a5be
000000b0: b55f 65be a1e9 c43d ec6f 983e e2a4 17be
000000c0: 9b52 bb3e ef6f 2cbc e2d2 9f3e e35d 8cbe
000000d0: 4bf0 7dbd 5e3a 6abe 81e5 b3bd 21cf bfbd
000000e0: 529f 8bbe 14d9 313d 64b7 30be 2474 253e
000000f0: d85a 4d3e 0319 863e be73 2d3e fe31 eb3c
00000100: 7d79 6b3e e0b8 b73c 77f2 5d3d 2362 a6bd
00000110: 17fe d8bd 30ba 863d 983d ba3d 98df 05bd
00000120: f6b9 05be 98d8 d73d e9fc b6bd fb88 c13e
00000130: ac48 08bd ba71 11be a3e1 56bd 46e0 4fbe
00000140: 458d cdbc da5c 873d 95ba b6bd 2bca 983e
00000150: 15cc 9e3d 2f50 013f 2ff8 e43c 6b80 313e
00000160: 4702 853e cbb3 0fbe d295 22be ca6c 8abe
00000170: 7592 483d a5a9 603e 1ee0 a8bd a420 0e3e
00000180: 79b0 083d 2b55 acbd 17d5 6b3e a162 e13d
00000190: 3c75 e03e 07bf ff3e a768 113f 86de e1bd
000001a0: df5d 143f eab0 f23d 64c7 043f 0dcd 22be
000001b0: 9ceb 383e 7122 f83d b89d 413e 7913 cc3c
000001c0: ba07 e3bc fb7c 71bd 4bf3 fe3d 011f 253e
000001d0: 972c f53e 8538 8abb 7209 f63e 2383 a83e
000001e0: ca5b 24be 69f0 103e df92 0abe aaf5 073e
000001f0: 4b7f 5abd e943 c3be 7db7 0bbf 19f1 943e

weight f4 [5, 128]
-0.3239114 -0.19583851 0.25230205 -0.055033434 -0.12958223 0.042168677 0.07444143 -0.0940733
-0.120483294 -0.0045713224 0.06585892 0.008966408 -0.11103254 -0.03975312 -0.1465553 0.13045494
0.2529213 -0.20867953 0.099696875 -0.0107094 0.28867215 -0.121897966 -0.2462795 0.14860418
0.08969313 0.0936646 0.097857624 -0.019187689 -0.17478493 0.13129097 0.13883299 0.25006366
0.09809557 0.094991654 0.05047446 -0.3096327 0.07033352 -0.07521 0.04720183 -0.1223907
0.018539213 -0.008094449 0.098548725 -0.06824105 0.1240616 -0.30652356 0.13144451 -0.07855985
-0.027808622 0.21214552 0.17030667 0.25071588 -0.027001642 -0.36202618 -0.22602722 -0.008118213
0.08480027 -0.04794738 0.06598006 -0.33587933 -0.02013156 0.079112016 0.29244694 0.061509546
0.23689257 0.1347031 -0.1771676 0.12996282 -0.30493933 0.07041384 -0.24008363 -0.040094353
-0.3161559 -0.08358887 -0.16754298 -0.15882553 0.026755633 -0.29033968 -0.13516021 0.11467619
0.083242975 -0.08875966 -0.15434645 -0.16278718 0.2149078 -0.049687706 -0.252469 -0.36664587
-0.013714368 0.057526395 0.062510975 0.35599735 0.29383415 -0.15753184 -0.024625057 -0.1573473
-0.32963458 -0.3857547 -0.30317697 0.18166646 0.18812232 0.1226825 -0.3022547 -0.26769745
-0.004276921 -0.28917578 -0.14616598 0.070004575 -0.111016326 -0.3128418 -0.35971132 0.05850209
-0.09182775 -0.0089285625 -0.1380764 -0.2406331 -0.18951134 -0.017510604 0.14369828 0.1758762
0.05850209 -0.061664157 0.15364204 -0.3147616 -0.3036135 -0.30713484 0.21260387 -0.034171917
0.380482 0.1363528 0.13011393 0.2087037 0.037466895 -0.24956535 -0.1955334 0.09203737
-0.33939075 -0.24034017 -0.056747165 -0.28427148 -0.018095115 0.3351234 0.38952482 0.13335511
-0.2081311 -0.16397318 -0.23351179 0.05099078 -0.3942717 0.21252647 0.29570654 -0.8849897
-0.028086396 -0.38689402 -0.005037765 0.09676497 0.23684032 -0.14230642 0.3355126 -0.14315756
0.48887667 -0.38548785 -0.48008645 0.4721089 -0.25018227 0.004418755 -0.37380928 -0.11878306
-0.34710985 0.5216475 0.28803632 0.23966207 0.13437036 0.67661107 0.015221449 -0.3037278
0.25684932 -0.35496405 0.07442184 0.014254828 -0.050685596 0.0059658308 0.24512409 -0.38102123
-0.54898816 -0.26218283 0.27732614 -0.3185431 -0.5503968 0.13996369 0.16632612 0.22197811
-0.11811741 0.2206776 0.040945806 0.24824902 0.44830912 0.2792815 -0.15000702 -0.023497647
-0.2906665 -0.4037373 0.39169115 0.3060131 -0.029140955 0.09573604 -0.202504 -0.2737653
-0.37108436 0.17495275 0.109962635 -0.12902766 0.09512244 0.2549383 0.47361985 -0.17236182
-0.31574294 0.3293078 -0.63979316 -0.29249445 -0.09432607 0.1908325 -0.038086362 -0.05499098
0.33885443 -0.36049753 -0.050329518 -0.4910967 0.20490944 0.24903902 0.2149686 -0.62698454
-0.2966892 0.3532757 -0.13859506 0.3403495 -0.1722301 -0.47852996 -0.18027058 0.07778092
0.30274183 -0.35522777 -0.064381465 0.0673995 0.000109589775 -0.35532993 0.3762641 -0.06604514
-0.2785991 0.25813225 0.1449869 0.34744087 0.026273891 -0.11670112 0.19009201 -0.22757012
00000000: b7d7 a5be e489 48be bc2d 813e bd6a 61bd
00000010: 34b1 04be 10b9 2c3d c074 983d 81a9 c0bd
00000020: f2bf f6bd 08cb 95bb 0be1 863d d7e7 123c
00000030: 0765 e3bd 2bd4 22bd 9812 16be fb95 053e
00000040: e77e 813e 16b0 55be e02d cc3d 7b76 2fbc
00000050: d6cc 933e a4a5 f9bd b130 7cbe b22b 183e
00000060: 08b1 b73d 3ad3 bf3d 9469 c83d 802f 9dbc
00000070: d2fa 32be 2471 063e 3c2a 0e3e 5808 803e
00000080: 55e6 c83d fc8a c23d 4fbe 4e3d 2d88 9ebe
00000090: 050b 903d b307 9abd b556 413d faa7 fabd
000000a0: 8cdf 973c 949e 04bc ead3 c93d f7c1 8bbd
000000b0: 0214 fe3d a8f0 9cbe 6499 063e fde3 a0bd
000000c0: e8ce e3bc ad3c 593e df64 2e3e d55d 803e
000000d0: 8c32 ddbc 7f5b b9be ae73 67be 4102 05bc
000000e0: c4ab ad3d 7964 44bd 8e20 873d 60f8 abbe
000000f0: f1ea a4bc 7b05 a23d 9bbb 953e 6ff1 7b3d
00000100: f793 723e 9cef 093e 6c6b 35be f914 053e
00000110: 0221 9cbe 2235 903d 7cd8 75be fa39 24bd
00000120: 30df a1be a430 abbd 6390 2bbe 29a3 22be
00000130: a12e db3c 67a7 94be 7067 0abe 5adb ea3d
00000140: 4b7b aa3d a0c7 b5bd ff0c 1ebe afb1 26be
00000150: ca10 5c3e 5685 4bbd 9e43 81be 02b9 bbbe
00000160: 3bb2 60bc cca0 6b3d c105 803d 4945 b63e
00000170: 6e71 963e 0750 21be 7dba c9bc a71f 21be
00000180: ddc5 a8be a481 c5be 033a 9bbe c606 3a3e
00000190: 23a3 403e f640 fb3d 21c1 9abe a40f 89be
000001a0: 6a25 8cbb d90e 94be 89ac 15be 8f5e 8f3d
000001b0: 875c e3bd cd2c a0be 152c b8be e39f 6f3d
000001c0: 3010 bcbd 1b49 12bc e663 0dbe 8668 76be
000001d0: 430f 42be 6672 8fbc a425 133e e418 343e
000001e0: e39f 6f3d 8e93 7cbd 5754 1d3e 6f28 a1be
000001f0: 3b73 9bbe c740 9dbe d4b4 593e daf7 0bbd
00000200: 89ce c23e 12a0 0b3e 963c 053e 6cb6 553e
00000210: e376 193d 0f8e 7fbe e839 48be 177e bc3d
00000220: a0c4 adbe bc1b 76be b76f 68bd 088c 91be
00000230: 353c 94bc 4b95 ab3e cc6f c73e 3e8e 083e
00000240: 5220 55be 96e8 27be b71d 6fbe b5db 503d
00000250: fbdd c9be 8aa0 593e d966 973e af8e 62bf
00000260: 7115 e6bc f916 c6be d613 a5bb b62c c63d
00000270: 4586 723e c6b8 11be 4fc8 ab3e e597 12be
00000280: 0b4e fa3e aa5e c5be e4cd f5be 42b8 f13e
00000290: e417 80be 34cb 903b ee63 bfbe 8844 f3bd
000002a0: 62b8 b1be b18a 053f 7f79 933e f969 753e
000002b0: 6298 093e 6236 2d3f 6263 793c 3682 9bbe
000002c0: c181 833e d9bd b5be 7a6a 983d 158d 693c
000002d0: b39b 4fbd 047d c33b cf01 7b3e 3715 c3be
000002e0: 7d8a 0cbf d43c 86be b1fd 8d3e 1518 a3be
000002f0: cee6 0cbf a452 0f3e 6551 2a3e 3b4e 633e
00000300: 8ae7 f1bd 4ff9 613e cab6 273d fe34 7e3e
00000310: c688 e53e fcfd 8e3e 719b 19be 237e c0bc
00000320: 3dd2 94be a8b6 cebe be8b c83e c0ad 9c3e
00000330: 03b9 eebc 4211 c43d 355d 4fbe f72a 8cbe
00000340: c5fe bdbe d026 333e 1734 e13d d41f 04be
00000350: 8ecf c23d 4687 823e 4d7e f23e 9e7f 30be
00000360: 0fa9 a1be 089b a83e 7cc9 23bf d5c1 95be
00000370: 072e c1bd 9869 433e 7200 1cbd 393e 61bd
00000380: 547e ad3e 2293 b8be 5326 4ebd 0771 fbbe
00000390: c8d3 513e 1604 7f3e bb20 5c3e 0f82 20bf
000003a0: a6e7 97be 8de0 b43e ddeb 0dbe 4a42 ae3e
000003b0: 165d 30be e101 f5be da98 38be 9a4b 9f3d
000003c0: fa00 9b3e 6ae0 b5be 6eda 83bd c008 8a3d
000003d0: 90d3 e538 ceed b5be b0a5 c03e ad42 87bd
000003e0: 8ba4 8ebe e929 843e 7277 143e c5e3 b13e
000003f0: 583c d73c ff00 efbd 7ba7 423e 2408 69be

bias f4 [5]
-0.27987885 0.2825134 -0.06455198 0.32213417 -0.21232696
00000000: 484c 8fbe 99a5 903e d433 84bd c5ee a43e
00000010: 3d6c 59be

weight f4 [128, 14]
-0.24306773 -0.24845344 -0.1869886 0.20881647 0.042695433 0.14281872 0.25016347 -0.1424008
-0.1750991 0.19716299 0.13917363 -0.059569582 -0.079448864 0.11158866 0.24473652 0.0891799
-0.19194593 -0.07110976 0.115734845 -0.21160978 -0.12077357 0.024538994 -0.18430713 -0.011846334
0.009734303 0.09756449 0.00025108457 -0.06232974 -0.20351428 -0.16552222 -0.16252673 0.083020955
0.1841299 0.091474086 -0.047639817 -0.20226717 0.2497094 -0.12087776 0.07455939 -0.018401042
-0.09338753 -0.22507994 0.023662657 0.12549818 -0.12877299 -0.016986907 -0.111031696 -0.09716609
0.008067161 0.20209566 0.07552135 0.11511272 0.14452547 -0.051922753 0.057815164 0.1963448
0.15083113 -0.14963204 0.15502512 0.08977759 0.17380413 -0.059502035 -0.18172915 -0.17757314
0.027187914 -0.21672434 -0.14887714 -0.1436418 -0.24037126 -0.07728967 -0.1880744 -0.06753637
0.1329951 -0.14781082 0.24926665 -0.11400026 -0.023714691 -0.09110589 0.18184265 0.053899854
0.17131099 0.20932484 0.22371823 -0.08765109 -0.15377565 -0.08994584 0.22056127 0.075178355
0.1925202 -0.11827928 -0.022600994 0.20084041 0.109659225 -0.2073502 -0.17489295 -0.0133936405
-0.09056504 0.0036629736 0.24397811 -0.120807216 -0.24574521 0.123205245 -0.2078471 -0.1415038
-0.12880571 -0.25670806 -0.2072216 -0.11447966 -0.17584282 -0.16280949 0.042909503 -0.03704244
-0.16287895 0.23273784 -0.21613139 -0.05751419 0.071522266 -0.028487861 -0.25760564 -0.07389276
0.15373999 -0.045396134 -0.12935433 -0.13269432 0.219554 -0.1208711 0.085439205 0.065568656
0.047750175 0.040834308 0.05020839 -0.18914661 -0.16920552 0.08032945 -0.18732697 -0.15639442
0.02551791 -0.11187889 0.09168413 0.23206505 0.13838503 0.064095765 0.2619857 -0.1743848
-0.23924337 0.2572091 -0.21719213 0.012924731 0.054861218 -0.17980346 0.079134196 -0.1687346
0.021579236 0.12611166 0.09708619 -0.11224261 0.07834771 0.16388747 -0.13064007 -0.07183935
0.0396505 -0.08718856 -0.15212342 -0.1889067 0.24590525 -0.20743763 -0.15189722 -0.20632172
0.005721897 -0.10348743 -0.041605905 0.19721708 0.041696697 -0.09237374 -0.1253155 0.08918965
0.11664358 -0.2377442 0.089407295 0.06793743 -0.16090569 0.11038947 0.091441244 0.05842942
-0.006852329 -0.05226691 0.17185363 -0.13468948 0.14553711 0.11379498 -0.21609646 0.021228671
-0.25288743 0.1414195 0.2558966 0.26082286 0.09492898 0.008594662 -0.23745765 0.0031341016
0.13722908 -0.10572936 0.20331568 0.02982983 0.18578658 -0.09764387 0.17784896 -0.20934525
-0.24347804 0.19687295 -0.18508595 -0.20923617 0.21570194 -0.20269515 0.24717471 -0.083298415
0.05209315 -0.09616138 0.12929201 0.17009169 0.033361405 -0.2070075 -0.14848268 -0.008806527
-0.2002686 -0.21783972 0.062693685 0.23444453 0.12534001 -0.16884783 -0.11699627 -0.21848154
-0.21474971 0.09845364 0.034472436 0.12537405 0.21654159 -0.040266514 0.09922746 -0.089317724
0.22536 0.0653016 -0.0526319 -0.07976535 0.18001527 0.12517852 -0.20519263 0.10143319
-0.035560057 0.26542 0.036898524 -0.09734091 -0.15634152 -0.23085743 -0.25056064 -0.0796182
00000000: bfe6 78be 946a 7ebe f179 3fbe fcd3 553e
00000010: 68e1 2e3d 123f 123e 6d15 803e 84d1 11be
00000020: 2e4d 33be 18e5 493e 8883 0e3e 3cff 73bd
00000030: 16b6 a2bd 9888 e43d 369c 7a3e f4a3 b63d
00000040: 798d 44be fea1 91bd 6406 ed3d 3cb0 58be
00000050: 2258 f7bd 0006 c93c 02bb 3cbe 2017 42bc
00000060: a07c 1f3c e4cf c73d 00a4 8339 784d 7fbd
00000070: 0c66 50be a87e 29be 686d 26be e406 aa3d
00000080: 8c8c 3c3e c456 bb3d f821 43bd 201f 4fbe
00000090: d2b3 7f3e c28e f7bd 98b2 983d c8bd 96bc
000000a0: f641 bfbd 5b7b 66be 30d8 c13c 9882 003e
000000b0: 11dd 03be 2028 8bbc 9664 e3bd 04ff c6bd
000000c0: 202c 043c 2af2 4e3e f0aa 9a3d 38c0 eb3d
000000d0: 7cfe 133e f4ac 54bd 98cf 6c3d 9c0e 493e
000000e0: 7a73 1a3e 2439 19be e8be 1e3e 50dd b73d
000000f0: b6f9 313e 68b8 73bd 3517 3abe bcd5 35be
00000100: 30b9 de3c fcec 5dbe 4073 18be d616 13be
00000110: e223 76be 0c4a 9ebd 9396 40be 8250 8abd
00000120: de2f 083e b85b 17be c23f 7f3e f878 e9bd
00000130: 5045 c2bc ba95 babd f634 3a3e 18c6 5c3d
00000140: 266c 2f3e 4059 563e 6416 653e 6a82 b3bd
00000150: 5d77 1dbe 8635 b8bd d0da 613e 1cf7 993d
00000160: 0424 453e 683c f2bd b825 b9bc 1ca9 4d3e
00000170: 0495 e03d 9c53 54be 2317 33be 0071 5bbc
00000180: 2a7a b9bd 800e 703b 66d5 793e c669 f7bd
00000190: a2a4 7bbe 0853 fc3d dfd5 54be 5fe6 10be
000001a0: a5e5 03be 3d6f 83be e631 54be 5074 eabd
000001b0: 2410 34be 88b7 26be e0c1 2f3d d0b9 17bd
000001c0: bdc9 26be d452 6e3e 8c51 5dbe 0094 6bbd
000001d0: 447a 923d 605f e9bc e3e4 83be 1655 97bd
000001e0: 046e 1d3e 4cf1 39bd 7675 04be 05e1 07be
000001f0: c4d2 603e 448b f7bd c0fa ae3d dc48 863d
00000200: b095 433d e041 273d 50a7 4d3d a6af 41be
00000210: 3644 2dbe c483 a43d a4d2 3fbe dc25 20be
00000220: f00a d13c c220 e5bd e4c4 bb3d 76a2 6d3e
00000230: ceb4 0d3e a444 833d fd22 863e ee91 32be
00000240: 37fc 74be e9b0 833e 9d67 5ebe 40c2 533c
00000250: 28b6 603d 661e 38be 1c11 a23d c3c8 2cbe
00000260: f0c6 b03c 6a23 013e 20d5 c63d 74df e5bd
00000270: c474 a03d 1ed2 273e 83c6 05be 8220 93bd
00000280: 9068 223d ea8f b2bd 3ec6 1bbe c270 41be
00000290: 96ce 7b3e 886a 54be f28a 1bbe 0046 53be
000002a0: c07e bb3b 38f1 d3bd f46a 2abd 46f3 493e
000002b0: 28ca 2a3d 722e bdbd b552 00be 10a9 b63d
000002c0: d4e2 ee3d 3773 73be 2c1b b73d c822 8b3d
000002d0: 76c4 24be e013 e23d 8c45 bb3d b053 6f3d
000002e0: 8089 e0bb d415 56bd 66fa 2f3e 0aec 09be
000002f0: ae07 153e 580d e93d 6448 5dbe c0e7 ad3c
00000300: 767a 81be 46d0 103e e104 833e 938a 853e
00000310: 206a c23d a0d0 0c3c 1928 73be 8065 4d3b
00000320: c885 0c3e a288 d8bd fc31 503e b05d f43c
00000330: d63e 3e3e 82f9 c7bd 0a1e 363e 9a5e 56be
00000340: 4f52 79be 1099 493e 2c87 3dbe 0242 56be
00000350: f8e0 5c3e 518f 4fbe 5e1b 7d3e 5c98 aabd
00000360: a05f 553d 42f0 c4bd 2065 043e 842c 2e3e
00000370: f8a5 083d c6f9 53be d80b 18be 4049 10bc
00000380: 3613 4dbe 6011 5fbe 8c65 803d 3a12 703e
00000390: 2259 003e 72e6 2cbe be9b efbd a0b9 5fbe
000003a0: 59e7 5bbe 10a2 c93d f832 0d3d 0e62 003e
000003b0: 14bd 5d3e 80ee 24bd c437 cb3d 36ec b6bd
000003c0: c6c4 663e d8bc 853d 8c94 57bd 045c a3bd
000003d0: ec55 383e cc2e 003e 041e 52be 34bc cf3d
000003e0: 6ca7 11bd 21e5 873e e822 173d ac5a c7bd
000003f0: fe17 20be e465 6cbe 7c49 80be de0e a3bd

bias f4 [128]
0.23344228 0.09139654 0.1396642 -0.007717937 -0.034125015 -0.03217557 -0.014722109 0.17979193
-0.2545385 0.12174845 -0.004652679 -0.12844498 -0.1559493 0.25989786 0.012077689 -0.018636048
0.15388644 0.09994942 -0.14945196 0.14327744 -0.103898525 -0.1814977 0.087108105 0.20790973
-0.20602316 -0.20930684 -0.21676314 0.0111011565 -0.051691905 -0.12250857 0.03308034 -0.2335181
0.2539843 -0.22736886 -0.2493323 -0.02735418 0.033278525 0.010040373 0.19867393 -0.059114143
0.14639887 -0.11487137 -0.093152076 0.02632323 0.2409142 -0.17840727 0.2431731 -0.021355107
0.17174909 -0.08411199 0.24977306 0.033299923 0.24595341 -0.25684392 0.14437822 -0.02356425
-0.1528342 0.13931134 -0.094682544 -0.24633567 0.21292505 -0.22707552 -0.21587723 0.065487474
0.19481471 -0.20852596 -0.04706703 0.15638605 -0.014581889 -0.17656738 0.044530123 -0.050034374
-0.10886037 0.20216447 -0.0148207545 -0.04425873 -0.104365155 -0.22436547 0.1702891 0.14345664
-0.20129576 0.04982063 -0.1486912 -0.24794744 0.23168144 -0.04144746 -0.26219368 0.107248485
0.2095103 0.15992448 0.03436783 0.036765993 -0.14128715 0.1893819 0.16862357 0.02529651
0.23273838 -0.22397436 0.23867354 -0.0019478798 0.108204186 -0.24178813 0.21023896 0.08586499
0.048019737 -0.1903755 0.08084741 -0.14303467 0.00804922 -0.019310206 -0.12321654 0.23035571
-0.18696882 -0.20824762 0.1423941 -0.026046485 -0.16921775 -0.1304073 0.17223144 0.12368059
0.120383024 -0.1258958 -0.2428564 0.23678681 -0.2291601 0.13186175 0.19048697 -0.09414758
00000000: 7e0b 6f3e 1c2e bb3d 2204 0f3e c0e6 fcbb
00000010: acc6 0bbd 88ca 03bd 0035 71bc 601b 383e
00000020: df52 82be 4057 f93d 8075 98bb 1587 03be
00000030: 2cb1 1fbe 5511 853e 80e1 453c a0aa 98bc
00000040: 6894 1d3e 48b2 cc3d ef09 19be 52b7 123e
00000050: c0c8 d4bd 88da 39be bc65 b23d 4ae6 543e
00000060: bcf7 52be 8854 56be 28f7 5dbe a0e1 353c
00000070: e4ba 53bd c6e5 fabd 407f 073d 5e1f 6fbe
00000080: 3b0a 823e 62d3 68be f750 7fbe e015 e0bc
00000090: 104f 083d 6080 243c 2e71 4b3e ac21 72bd
000000a0: 96e9 153e ae41 ebbd 84c6 bebd d0a3 d73c
000000b0: 36b2 763e 65b0 36be 5e02 793e e8f0 aebc
000000c0: fede 2f3e e842 acbd 82c4 7f3e 8065 083d
000000d0: 36db 7b3e 0c81 83be e2d7 133e d009 c1bc
000000e0: 9280 1cbe a2a7 0e3e ece8 c1bd 6b3f 7cbe
000000f0: 0609 5a3e 7c86 68be ec0e 5dbe 4c1e 863d
00000100: 827d 473e d487 55be 5cc9 40bd aa23 203e
00000110: e0e8 6ebc 14ce 34be 3865 363d d8f0 4cbd
00000120: 30f2 debd 3404 4f3e c0d2 72bc a448 35bd
00000130: 66bd d5bd 10c0 65be 4460 2e3e 4ce6 123e
00000140: 7a20 4ebe b810 4c3d 8242 18be efe5 7dbe
00000150: e63d 6d3e d0c4 29bd 403e 86be 18a5 db3d
00000160: de89 563e 3ec3 233e 48c5 0c3d f097 163d
00000170: 94ad 10be 54ed 413e a8ab 2c3e a03a cf3c
00000180: f852 6e3e 8959 65be d666 743e 0050 ffba
00000190: 289a dd3d 4f97 77be e248 573e fcd9 af3d
000001a0: 58b0 443d ccf1 42be 5493 a53d ae77 12be
000001b0: e0e0 033c 7030 9ebc f458 fcbd 5ee2 6b3e
000001c0: c174 3fbe dd3e 55be c2cf 113e 705f d5bc
000001d0: 6b47 2dbe 7e89 05be 705d 303e 404c fd3d
000001e0: 608b f63d d4ea 00be 59af 78be 3e78 723e
000001f0: f2a8 6abe c406 073e 040f 433e 72d0 c0bd

weight f4 [128, 128]
0.035810225 0.06857971 -0.07760118 -0.031525694 0.07666648 0.03384362 0.0028608367 0.012271382
0.028964385 -0.01781939 0.056781076 -0.017983347 0.07358538 -0.013077185 -0.06691962 0.002684161
-0.006205842 0.06349442 0.029781103 -0.08775797 0.06504134 0.0808728 0.0073487684 0.06631764
0.073298775 0.030428886 -0.06474956 -0.06515125 0.07056195 -0.05247825 0.051537655 -0.05442821
-0.02810568 0.07867298 0.049118884 -0.022436567 -0.074090384 -0.060745146 0.0559813 0.034998097
-0.004360996 0.018157385 -0.03879234 0.020655505 0.011016898 0.083691664 -0.06686537 -0.036997788
-0.015512161 0.06825825 -0.055424444 -0.013254814 -0.029785968 0.014732935 0.011855952 0.03158661
0.08405235 -0.028110534 -0.032129668 -0.0021039397 0.035749093 -0.08290501 0.08082213 0.00019866228
-0.031463843 0.087638564 0.03094235 -0.008431517 0.0564327 -0.03464673 0.07708978 0.048576735
0.046969064 -0.01777552 0.05724337 -0.055932272 -0.06196632 -0.057205673 0.06375048 -0.07379633
0.05921746 0.05305276 -0.045055244 0.07077635 -0.049523726 0.08112452 0.06649985 -0.02704246
-0.049270414 0.07677496 -0.056622468 -0.017120272 -0.06276569 -0.00020375103 0.07385709 -0.022898123
0.0017649904 -0.075450055 -0.056740258 0.028405845 -0.07832605 0.008646503 -0.053766333 0.07064847
-0.08077753 0.07882895 -0.08562628 0.006281808 0.078089915 -0.086758085 -0.07558935 -0.028334737
-0.01744058 0.026180506 0.035554662 -0.03781905 -0.033470824 -0.03293712 0.0006483421 0.067437954
-0.015081152 0.020006374 0.0078611225 0.027804255 -0.043425646 -0.031772874 0.032217443 -0.047941145
0.032545164 0.05571089 0.026782729 0.051426895 0.07551641 -0.06528081 -0.0019277856 0.043434672
-0.06027008 0.021193542 0.00042109936 -0.0867302 0.08199794 0.03612189 -0.08254381 0.05266989
0.08613073 0.018943481 -0.016808636 -0.014718533 -0.01790841 -0.08706604 0.072329305 -0.019405052
-0.03970913 -0.057489365 0.047612526 -0.06638715 -0.014822453 0.026938431 -0.07403675 -0.07501642
-0.05225831 -0.07627162 0.0503838 0.039488725 -0.050218444 -0.018247992 0.023472898 0.04569114
-0.008115895 -0.0028096363 0.031388573 0.052821822 -0.0133553445 -0.06967563 -0.017991118 -0.07717047
0.033987977 0.044930898 -0.01991877 0.032267213 -0.016403407 -0.07904266 0.054283194 0.078084834
-0.08186358 -0.012640797 0.051818945 -0.04616454 -0.07867332 0.0797962 -0.042674612 -0.048048913
0.022981152 -0.038659323 -0.06179636 -0.058040425 0.0003523454 0.06625169 0.04983952 -0.059218504
-0.030157514 -0.011437334 0.0070478693 0.08793699 -0.051283948 0.08114796 0.060819484 0.0640002
-0.07221223 0.019530408 0.087502904 0.048145287 0.08123758 0.002133496 0.08239675 -0.022076964
-0.087108776 -0.08591738 -0.03150946 0.0524308 -0.018690623 -0.055553835 -0.019372799 0.02674862
0.025339685 0.060853995 -0.027501598 0.036580324 0.03176356 -0.07925229 0.029715791 0.034865506
-0.047554594 0.052053772 -0.036160447 -0.08749402 -0.0535641 -0.02766123 -0.01625193 0.08715356
0.037484698 -0.08292572 0.05339452 -0.030257676 0.010634609 -0.035476234 -0.047413867 0.023435958
0.056456022 -0.07680727 -0.077941984 0.07477946 0.08052976 0.012193233 -0.07240075 -0.018855587
00000000: bead 123d 8573 8c3d 5eed 9ebd 1621 01bd
00000010: 5103 9d3d 9c9f 0a3d e07c 3b3b e80d 493c
00000020: b846 ed3c f8f9 91bc 4693 683d d051 93bc
00000030: efb3 963d b041 56bc 270d 89bd c0e8 2f3b
00000040: 605a cbbb 5d09 823d 80f7 f33c 73ba b3bd
00000050: 6534 853d a3a0 a53d f0cd f03b 8bd1 873d
00000060: ab1d 963d 0046 f93c 6b9b 84bd 056e 85bd
00000070: c982 903d 6ff3 56bd 2619 533d 1df0 5ebd
00000080: e23d e6bc 4d1f a13d e230 493d e4cc b7bc
00000090: b3bc 97bd e7cf 78bd a64c 653d 2a5a 0f3d
000000a0: b0e6 8ebb ccbe 943c b7e4 1ebd bc35 a93c
000000b0: 3880 343c 8966 ab3d b6f0 88bd fe8a 17bd
000000c0: b826 7ebc fbca 8b3d be04 63bd b82a 59bc
000000d0: b401 f4bc 6862 713c 783f 423c f660 013d
000000e0: a323 ac3d 1048 e6bc 669a 03bd 40e2 09bb
000000f0: a46d 123d 1aca a9bd 1386 a53d 0050 5039
00000100: 3be0 00bd d97b b33d d07a fd3c 5824 0abc
00000110: fa25 673d bbe9 0dbd 3fe1 9d3d 66f8 463d
00000120: a262 403d f89d 91bc 0678 6a3d 3d19 65bd
00000130: 65d0 7dbd 7f50 6abd 9d8f 823d 8822 97bd
00000140: 028e 723d da4d 593d d98b 38bd 31f3 903d
00000150: 64d9 4abd 9d24 a63d 1331 883d 2688 ddbc
00000160: c6cf 49bd 313c 9d3d f6ec 67bd d03f 8cbc
00000170: 4c8b 80bd 00a6 55b9 6342 973d d894 bbbc
00000180: 4057 e73a 8f85 9abd 7968 68bd 60b3 e83c
00000190: 6869 a0bd 10aa 0d3c 163a 5cbd 25b0 903d
000001a0: b16e a5bd 1371 a13d d55c afbd a0d7 cd3b
000001b0: 9bed 9f3d 39ae b1bd 97ce 9abd 401e e8bc
000001c0: 8cdf 8ebc 8078 d63c c4a1 113d 26e8 1abd
000001d0: b418 09bd 13e9 06bd 80f5 293a e91c 8a3d
000001e0: f016 77bc 68e4 a33c f0cb 003c c0c5 e33c
000001f0: 17df 31bd 4624 02bd 70f6 033d ef5d 44bd
00000200: 144e 053d 1a31 643d 7467 db3c 02a5 523d
00000210: 59a8 9a3d f2b1 85bd c0ad fcba 8ee8 313d
00000220: c2dd 76bd 149e ad3c 00c7 dc39 9a9f b1bd
00000230: 89ee a73d 8cf4 133d bb0c a9bd 62bc 573d
00000240: 4f65 b03d 5c2f 9b3c 44b2 89bc 0026 71bc
00000250: a8b4 92bc ae4f b2bd 6321 943d 58f7 9ebc
00000260: 0aa6 22bd f879 6bbd 5a05 433d fcf5 87bd
00000270: e0d9 72bc fcad dc3c 94a0 97bd 35a2 99bd
00000280: cf0c 56bd 4c34 9cbd 3e5f 4e3d eebe 213d
00000290: dbb1 4dbd d07c 95bc 3c4a c03c a226 3b3d
000002a0: 88f8 04bc e021 38bb 4e91 003d b25b 583d
000002b0: 60d0 5abc 19b2 8ebd 1c62 93bc 8d0b 9ebd
000002c0: fa36 0b3d 7609 383d b02c a3bc a02a 043d
000002d0: 7060 86bc 1ee1 a1bd 0e58 5e3d f1ea 9f3d
000002e0: 18a8 a7bd 581b 4fbc 1a40 543d 0717 3dbd
000002f0: 7a1f a1bd 316c a33d 93cb 2ebd f0ce 44bd
00000300: f842 bc3c 3d59 1ebd 2e1e 7dbd ccbb 6dbd
00000310: 00bb b839 f7ae 873d 8624 4c3d 1a8f 72bd
00000320: e40c f7bc a863 3bbc d0f1 e63b 4f18 b43d
00000330: 1e0f 52bd e730 a63d da1d 793d 8912 833d
00000340: 01e4 93bd 3cfe 9f3c b934 b33d fe33 453d
00000350: e35f a63d 20d2 0b3b a1bf a83d c0da b4bc
00000360: 1666 b2bd 74f5 afbd 1010 01bd aec1 563d
00000370: 141d 99bc 6b8c 63bd b4b3 9ebc ec1f db3c
00000380: 2c95 cf3c 0a42 793d 084b e1bc 40d5 153d
00000390: 821a 023d 064f a2bd 886e f33c 22cf 0e3d
000003a0: 9bc8 42bd 5636 553d fa1c 14bd 1130 b3bd
000003b0: 0866 5bbd ce99 e2bc c422 85bc 917d b23d
000003c0: 8e89 193d f6d4 a9bd 36b4 5a3d f2de f7bc
000003d0: c83c 2e3c 874f 11bd 0b35 42bd c4fc bf3c
000003e0: 6e3e 673d 214d 9dbd 0ca0 9fbd f925 993d
000003f0: c9ec a43d 20c6 473c d846 94bd 0877 9abc

bias f4 [128]
0.061089747 0.04264591 -0.047010258 -0.045212924 0.056412138 -0.030952077 0.0027895346 -0.03818001
-0.018811822 0.02548644 -0.06258173 0.028118998 -0.043812785 0.008638881 0.0347346 0.0069814026
-0.060530335 0.036536336 -0.069399446 -0.035524987 -0.04217458 0.06408257 -0.043994986 0.002278857
-0.08124229 -0.06826793 -0.007130161 -0.084314294 0.014308602 -0.068165615 0.06050142 -0.00063864887
0.05313153 0.059743844 -0.04619635 -0.009232067 0.02015613 0.0022728816 -0.08768637 0.045449786
0.008585304 0.078273185 -0.027136311 -0.0025078356 0.010510646 -0.061639596 -0.060761616 -0.024870321
0.08743777 -0.06834697 -0.06458214 -0.069817476 0.015284598 0.05203133 0.07602518 -0.08609879
-0.03659967 0.061378427 -0.07022892 0.029389441 -0.028861254 0.05316647 -0.026851483 0.08742385
-0.032424223 -0.020290665 -0.052649114 -0.07826844 0.068857215 -0.043638837 0.078227796 0.05431605
-0.038989533 -0.01070036 0.040643044 -0.04882277 0.02573479 0.05605776 0.072906114 0.073762335
-0.05296765 0.036361612 0.084620886 0.07596222 -0.086855486 0.043442793 0.07500913 -0.039433338
-0.0053212494 0.0064418837 0.047820143 -0.01236736 0.0048303157 0.035526738 -0.05025728 0.08366685
0.083299585 0.049242996 0.009739175 -0.04402076 0.014262073 -0.02299761 0.017831065 0.017390646
-0.08109965 -0.04230179 -0.026028957 -0.08577041 -0.066270344 -0.07924369 -0.0018912479 0.020721287
0.07967011 -0.051277697 0.048592515 -0.08164449 -0.08211405 0.07619765 0.05229553 -0.025324807
0.007455714 -0.086491115 0.0039355755 0.06235642 -0.0818832 0.000994511 -0.049621645 -0.018553972
00000000: 3e39 7a3d 7aad 2e3d d48d 40bd 3031 39bd
00000010: 6a10 673d 368f fdbc a0d0 363b a462 1cbd
00000020: 401b 9abc f0c8 d03c da2a 80bd d059 e63c
00000030: 0975 33bd 188a 0d3c de45 0e3d 40c4 e43b
00000040: a8ee 77bd 20a7 153d 4c21 8ebd a682 11bd
00000050: 41bf 2cbd b93d 833d 1634 34bd e058 153b
00000060: 5c62 a6bd 0ed0 8bbd 20a4 e9bb f9ac acbd
00000070: a06e 6a3c 6a9a 8bbd 56d0 773d 006b 27ba
00000080: 72a0 593d f6b5 743d 6238 3dbd 1842 17bc
00000090: 781e a53c a0f4 143b e994 b3bd 8e29 3a3d
000000a0: 60a9 0c3c b14d a03d f84c debc 805a 24bb
000000b0: d834 2c3c cd79 7cbd 2ce1 78bd d8bc cbbc
000000c0: 9312 b33d 7ff9 8bbd a443 84bd 77fc 8ebd
000000d0: 406c 7a3c ce1e 553d 17b3 9b3d 9054 b0bd
000000e0: 89e9 15bd f267 7b3d 2ed4 8fbd 20c2 f03c
000000f0: 706e ecbc 16c5 593d a4f7 dbbc 470b b33d
00000100: 43cf 04bd 9c38 a6bc 99a6 57bd 344b a0bd
00000110: 0305 8d3d a3be 32bd e535 a03d 827a 5e3d
00000120: 7db3 1fbd 9050 2fbc 5279 263d 63fa 47bd
00000130: c4d1 d23c d29c 653d cd4f 953d b510 973d
00000140: 9bf4 58bd eaef 143d b74d ad3d 1592 9b3d
00000150: 4ae1 b1bd 12f1 313d 639e 993d da84 21bd
00000160: e05d aebb 7016 d33b 0edf 433d 78a0 4abc
00000170: a047 9e3b 7c84 113d 94da 4dbd 8759 ab3d
00000180: f998 aa3d 06b3 493d 1091 1f3c 1d4f 34bd
00000190: 78ab 693c 7c65 bcbc 7412 923c d476 8e3c
000001a0: 9317 a6bd a444 2dbd ae3a d5bc 66a8 afbd
000001b0: bfb8 87bd 844a a2bd c0e3 f7ba b0bf a93c
000001c0: 152a a33d 9008 52bd f208 473d 3a35 a7bd
000001d0: 692b a8bd 830d 9c3d d633 563d f875 cfbc
000001e0: 104f f43b 4122 b1bd 00f6 803b 7269 7f3d
000001f0: 61b2 a7bd 405a 823a 1140 4bbd 80fe 97bc

weight f4 [5, 128]
0.0064848787 0.003995078 -0.0034829301 -0.008659204 -0.0038470011 -0.0074725784 -0.001472871 -0.0057063363
0.007945365 0.005740132 0.0014082737 0.0065898946 0.0038689158 0.0048283003 -0.005301377 -0.006051025
0.0060300133 0.0014051192 0.0036384456 -0.006939165 -0.006446661 -0.0009817638 0.0039131963 -0.003265187
0.0074347653 -0.002347257 -0.0017321028 0.006642338 0.0020355345 -0.0058274823 -0.008486265 0.0061276713
-0.007241431 0.00010555685 -0.0008718252 -0.007426023 -0.0072568743 -0.0078781 0.0033393824 0.0005717777
-0.0036566227 0.0015413783 -0.005914397 -0.00737623 -0.005187859 -0.0020328218 -0.004388416 0.0006079987
0.00054779724 0.0034068876 -0.0011507288 -0.0031061214 0.0010979258 -0.0019016982 0.005187031 0.007155802
0.001809837 -0.008800262 -0.002778746 -0.007199128 -0.004958715 -0.008582915 0.005245278 -0.001729732
0.001644019 0.006547103 0.00011629239 -0.00210488 0.0042935484 0.0042159073 -0.00011472404 0.006448408
0.0023160472 0.005126024 -0.0011008367 -0.0024011657 -0.00795976 -0.0052542887 0.0036050633 0.005299408
0.0064954795 -0.0039798585 -0.006484127 0.0028729865 -0.006980567 -0.002155328 -0.0037669893 -0.0031188584
0.008222345 0.008547484 0.005478249 -0.0026239902 0.0005688645 0.0018024467 -0.004957559 -0.004450127
0.0046137343 -0.0015973464 -0.005902248 0.00792155 -0.0053449315 -0.00724901 0.0028500594 -0.0015557557
0.0068659047 -0.008488134 -0.006855715 -0.0047772694 0.0075563155 0.002548633 0.0056155734 0.0061049424
0.006495721 -0.0070777424 0.0017446667 0.008039082 0.00035902933 0.0006074205 0.00426578 -0.0017371633
-0.003702687 0.004788848 -0.0047222856 -0.004214888 0.002676981 0.0023626783 0.0073071057 -0.0023076728
-0.0076496783 0.0034736462 0.0023737892 -0.003346373 0.0065111867 0.007071551 -0.0008350901 -0.0033449256
0.002889645 -0.008402163 -0.0019816258 0.007682138 -0.0060686506 0.0035130621 -0.0065410766 -0.005237214
0.00555403 -0.008812929 0.0060033314 0.003701929 -0.0009626836 -5.4463e-05 0.0043244893 -0.0016633779
0.003580852 -0.00012004301 -0.008153485 0.008190646 -0.0003257312 0.008575018 0.0064956914 0.0002979286
-0.0048816353 0.008266363 0.0031490177 0.008350293 0.0043124254 0.008268943 -0.008000253 -0.0013592951
-0.0068029985 -0.002960343 -0.0017635621 -0.002647272 0.0036202855 0.007408721 0.00529876 0.004507547
0.002476512 -0.003477706 -0.008067838 0.0005647369 -0.006979535 0.005824461 0.00018679575 -0.007860511
0.0011164732 -0.007108547 -0.005639202 0.0008816183 -0.0021688545 0.004923371 -0.0071779275 0.0009470843
-0.0037599057 0.006341539 0.00076836126 0.006016145 0.0067741834 -0.0041724104 0.007824018 -0.008172901
0.004478983 -0.0044699535 -0.0011002697 -0.0027201965 0.0013983839 0.0005472459 0.0060581304 0.004140196
0.0007228367 0.0075440207 0.0028300167 0.0032286823 0.0017056875 -0.0078064413 0.006170807 -0.0030521608
0.0038372881 0.0018856078 -0.0071552396 0.0041693235 -0.008096665 -0.0040983753 -0.00497212 0.0029114843
0.006590945 -0.008719325 0.007131601 0.0012380079 -0.0024981536 0.0011913121 0.0011900746 0.0061645815
0.006603221 0.002695194 0.00053094403 -0.008411127 0.00024966747 0.008251303 -0.0034342632 -0.0061926334
0.0031931028 -0.007161218 -0.0073697926 0.005628238 0.0058173086 -0.007494545 -0.002070109 0.007582297
0.0023465187 -0.0031975463 0.0010536425 0.008642369 0.005937899 0.006567811 0.004945665 -0.00019125194
00000000: 1b7f d43b 25e9 823b df41 64bb 55df 0dbc
00000010: f81d 7cbb 88dc f4bb 5a0d c1ba 38fc babb
00000020: 472d 023c b817 bc3b d395 b83a 0bf0 d73b
00000030: a38d 7d3b b836 9e3b 2cb7 adbb ad47 c6bb
00000040: 6b97 c53b fa2b b83a fd72 6e3b ef61 e3bb
00000050: 833e d3bb 87ae 80ba 453a 803b bffc 55bb
00000060: 559f f33b 70d4 19bb ba07 e3ba f8a7 d93b
00000070: 9a66 053b 77f4 bebb fa09 0bbc a2ca c83b
00000080: 8749 edbb 675e dd38 338b 64ba ff55 f3bb
00000090: 13cb edbb 2513 01bc 8ad9 5a3b 5ae3 153a
000000a0: f3a3 6fbb 1308 ca3a 8fcd c1bb 4db4 f1bb
000000b0: eafe a9bb 1739 05bb b4cc 8fbb 1a62 1f3a
000000c0: 0d9a 0f3a 1746 5f3b 0dd4 96ba 1290 4bbb
000000d0: 47e8 8f3a 6742 f9ba f8f7 a93b 387b ea3b
000000e0: 0d38 ed3a f92e 10bc 9f1b 36bb aae6 ebbb
000000f0: b77c a2bb 5b9f 0cbc 95e0 ab3b 2db8 e2ba
00000100: 207c d73a 1589 d63b 00e2 f338 07f2 09bb
00000110: e5b0 8c3b 9825 8a3b 0098 f0b8 2b4d d33b
00000120: d3c8 173b 35f8 a73b f349 90ba e05c 1dbb
00000130: a769 02bc 2b2c acbb ed42 6c3b a8a6 ad3b
00000140: 08d8 d43b 7969 82bb cd78 d4bb b748 3c3b
00000150: 3dbd e4bb 6740 0dbb 98df 76bb c365 4cbb
00000160: 04b7 063c bf0a 0c3c e282 b33b 40f7 2bbb
00000170: da1f 153a 1340 ec3a 0573 a2bb 5fd2 91bb
00000180: cf2e 973b 0d5e d1ba a567 c1bb 64c9 013c
00000190: 8924 afbb 1a89 edbb 10c8 3a3b 80ea cbba
000001a0: 62fb e03b d011 0bbc e8a5 e0bb a48a 9cbb
000001b0: f89a f73b f706 273b d802 b83b f80b c83b
000001c0: 0fda d43b 68ec e7bb 4dad e43a 5bb6 033c
000001d0: 1a3c bc39 4d3b 1f3a f5c7 8b3b 87b1 e3ba
000001e0: c8a8 72bb c5eb 9c3b 67bd 9abb 0b1d 8abb
000001f0: 4a70 2f3b 2ad7 1a3b 7270 ef3b 533c 17bb
00000200: 27aa fabb 1da6 633b 9391 1b3b d34e 5bbb
00000210: cb5b d53b 78b8 e73b f3e9 5aba 8a36 5bbb
00000220: 3360 3d3b 3aa9 09bc 2ade 01bb 72ba fb3b
00000230: 88db c6bb 673b 663b 8756 d6bb ef9c abbb
00000240: 95fe b53b 1a64 10bc 98b7 c43b 109c 723b
00000250: 9a5c 7cba 336f 64b8 72b4 8d3b b305 daba
00000260: baac 6a3b 9abf fbb8 3296 05bc 0f32 063c
00000270: e7c6 aab9 3b7e 0c3c cfd9 d43b 4d33 9c39
00000280: 20f6 9fbb a46f 073c c05f 4e3b abcf 083c
00000290: 3f4f 8d3b 767a 073c 7e13 03bc 602a b2ba
000002a0: b0eb debb 5002 42bb 5327 e7ba db7d 2dbb
000002b0: 5042 6d3b dbc4 f23b 38a1 ad3b 0bb4 933b
000002c0: fa4c 223b 3aea 63bb f72e 04bc da0a 143a
000002d0: 95b4 e4bb 1fdb be3b 9ade 4339 5fc9 00bc
000002e0: a056 923a d0ee e8bb 0ec9 b8bb 671c 673a
000002f0: 5723 0ebb 3b54 a13b d234 ebbb c045 783a
00000300: c068 76bb afcc cf3b da6b 493a 1523 c53b
00000310: f8f9 dd3b b7b8 88bb 4f30 003c a2e7 05bc
00000320: 6fc4 923b b078 92bb ed36 90ba 5345 32bb
00000330: fa49 b73a 0d75 0f3a 4883 c63b 7baa 873b
00000340: c07c 3d3a d533 f73b cd77 393b 4d98 533b
00000350: 6091 df3a 2dcd ffbb 7b34 ca3b c306 48bb
00000360: 037b 7b3b 8026 f73a 8076 eabb d29e 883b
00000370: e0a7 04bc aa4b 86bb 2aed a2bb 9ace 3e3b
00000380: dbf8 d73b 80db 0ebc 35b0 e93b a744 a23a
00000390: 10b8 23bb cd25 9c3a 47fc 9b3a 4200 ca3b
000003a0: d55f d83b daa1 303b 0d2f 0b3a d3ce 09bc
000003b0: cde5 8239 7930 073c 6011 61bb 93eb cabb
000003c0: 6043 513b a7a8 eabb 4d7e f1bb 156d b83b
000003d0: 1f9f be3b cd94 f5bb aaaa 07bb eb74 f83b
000003e0: 0dc8 193b ed8d 51bb 601a 8a3a b998 0d3c
000003f0: b592 c23b cb36 d73b 3f0f a23b cd8a 48b9
