maddpg/trained_ckpt/il_simple_spread_n3/agents.ckpt (torch_old, 554866 bytes, 38 tensors)

weight f4 [128, 14]
000000 fc ed 68 3d 98 37 6d 3d b8 ed a5 3c 54 15 9c bc
       0.056867585 0.057914346 0.020254955 -0.019053139
000010 c5 0f 9a bf 44 20 e6 be 66 3a 9b 3f a5 6f d9 3e
       -1.2036062 -0.44946492 1.2127197 0.4246799
000020 f2 2a a3 3c 8a 9e ee bd 89 13 3d be 1b ba 20 3d
       0.019917939 -0.11651333 -0.18464483 0.039239984
000030 e5 4c 31 be ca 51 a5 3a ad 7b 9c be 19 94 94 3e
       -0.17314489 0.0012612876 -0.30563107 0.2901924
000040 6c f1 a3 3d 85 ca 91 bd 78 36 80 be b6 bd 8e 3e
       0.08005032 -0.07118706 -0.25041556 0.27879113
000050 c5 d8 96 be 52 3e 94 3e de 0e d7 3f f8 53 d1 bf
       -0.29462257 0.28953797 1.6801412 -1.635375
000060 78 28 b2 3e 2d 1c cc be 40 a6 b4 3e 82 0c ba be
       0.347965 -0.39865246 0.3528309 -0.36337668
000070 df 88 86 3e 9b 13 cc 3e 58 d8 ae bd d1 83 5e bd
       0.262763 0.39858708 -0.08537358 -0.05432493
000080 bb 1d 16 3e f5 33 bd 3e 3b c2 33 3e 52 c4 7e 3e
       0.14659779 0.36953703 0.17554562 0.24879578
000090 96 04 86 bf 08 a0 e9 bf e3 55 1c be 3b 92 86 be
       -1.047015 -1.8251963 -0.15267138 -0.2628344
0000a0 02 09 33 be a1 e6 76 be 43 34 80 3d ba 27 84 be
       -0.17483905 -0.24111415 0.06259968 -0.2581156
0000b0 f0 f9 00 be 15 d4 23 3d 84 68 b5 3b b0 89 f7 3c
       -0.12595344 0.03999718 0.005536141 0.030217022
0000c0 b4 11 a5 3d 9d 01 87 3d 4e ca 59 bd 99 0d 91 3d
       0.08060017 0.065921046 -0.05317145 0.07082672
0000d0 14 3c 3c bf f4 52 86 3f 5c 19 aa be 8c ef 98 3e
       -0.7352917 1.0494065 -0.33222473 0.2987026
0000e0 7c 9e 8a 3c 6e 77 d7 3d d2 e8 b3 3e 1b 96 0b be
       0.016921274 0.10520826 0.35138565 -0.1363148
0000f0 fc c9 42 3e 4a 48 81 be 5d 0e 12 bf d9 33 88 be
       0.19022363 -0.25250465 -0.57053167 -0.26602057
000100 ac 7c dd be cc da 38 bf 84 45 ab 3e 91 02 66 3e
       -0.4325918 -0.7220886 0.33451474 0.22461917
000110 9a da bf 3e 85 54 8a 3e 6f 21 50 3c ef f2 27 bc
       0.37471467 0.27017608 0.012703284 -0.010250791
000120 aa 12 c0 bd 35 e1 77 be 70 2c c9 3b be c0 e8 3d
       -0.0937856 -0.24207003 0.0061393306 0.11364888
000130 a8 b2 84 3d b8 5e d5 3d ec d8 ed 3d 42 0b 88 3d
       0.064793885 0.10418457 0.1161364 0.06642772
000140 a1 d7 0b be 27 ca 64 be c5 5e 57 bf 7c 5c a7 bf
       -0.13656475 -0.2234274 -0.8412898 -1.3075099
000150 96 62 dd 3e 0d f0 43 be d9 e0 5f bd a3 d3 51 be
       0.43239278 -0.19134541 -0.05465779 -0.20490889
000160 c1 b9 93 be 2b 21 27 be b2 c2 1c bc fb 03 a2 bd
       -0.28852656 -0.16321246 -0.009567903 -0.079109155
000170 50 d2 8e bf 8c f2 82 3f 9b 40 c4 be 83 34 9c 3e
       -1.1157932 1.023027 -0.3833054 0.30508813
000180 90 7e b6 be 4c 99 93 3e 89 90 a0 3c 34 ea 19 be
       -0.35643435 0.28827894 0.01960017 -0.15030748
000190 2b 66 ad 3e f8 8f c5 3f fd 86 09 be ea a8 2d 3b
       0.3386701 1.5434561 -0.134304 0.0026498386
0001a0 f3 eb bc bd 1f b1 f3 bd 0c 21 c1 bc 96 e9 ab bd
       -0.09224691 -0.118990175 -0.023575328 -0.08394162
0001b0 79 d3 a4 bb 50 d0 32 3e d1 6e 1d 3e cf a2 50 3e
       -0.0050300923 0.17462277 0.15374304 0.20374607
0001c0 65 be 66 bf 6a 33 af 3d 66 51 e8 bd 02 db b3 bd
       -0.9013427 0.08554728 -0.113436505 -0.08782007
0001d0 3d 93 71 3e 63 f3 b7 3e 2d 19 9d 3d ad 57 36 3e
       0.23591323 0.35927877 0.076708175 0.17806883
0001e0 48 cb 51 3e 9e d2 48 3e c5 e9 59 be f0 5b 68 be
       0.20487702 0.19611594 -0.21280582 -0.22691321
0001f0 69 d6 1a be ce 58 46 be 00 9b cd bd 84 b2 0e be
       -0.15120853 -0.19369814 -0.100393295 -0.13935286
000200 3a dd 62 3c 98 c6 24 3a 92 29 a1 3f e7 21 ae 3e
       0.01384669 0.0006285696 1.2590811 0.3401024
000210 6f 42 25 bd b2 78 a4 bc 6f e6 a2 bf 38 08 71 3e
       -0.04034656 -0.020077083 -1.2726573 0.23538291
000220 1f d4 8c 3c e4 29 1b 3d 27 ff a7 3b ae 19 a1 3c
       0.017190991 0.037881747 0.005126852 0.019665565
000230 f9 44 0c 3c ba 12 95 be e9 65 42 bc d6 a4 30 3e
       0.008561366 -0.2911585 -0.011865118 0.1725038
000240 12 5a a5 3d 3c 43 e9 be 8a 7d a4 bc ea 17 c5 be
       0.0807382 -0.45559108 -0.020079393 -0.38494807
000250 5b c7 34 be 49 f9 05 40 69 97 28 3c ff 8e cd 3e
       -0.17654173 2.0933402 0.010290005 0.4014816
000260 e9 36 b1 bc 37 0e e7 3e 39 7c 07 3f c8 32 d0 be
       -0.021632629 0.45128033 0.52923924 -0.40663743
000270 08 21 05 bf 09 a8 36 3e 7f 24 f8 be 43 f0 a6 3e
       -0.52003527 0.17837538 -0.48465344 0.3260518
000280 78 3c e9 be 33 30 c5 3e e0 8f fc be 6e e9 ca 3e
       -0.45553946 0.38513336 -0.49328518 0.39631218
000290 9f 1b 81 3f e3 c9 38 bf ce 52 8f 3f bb 32 3d bf
       1.0086554 -0.72183055 1.1197145 -0.73905534
0002a0 c6 9d 30 3e 77 3c a1 bd 6d 8c 7d bb 21 57 dc bc
       0.17247686 -0.07872861 -0.0038688437 -0.026897015
0002b0 70 0f 0c bf bd 4d 25 3f 1f 12 29 bf de 31 24 3f
       -0.54711056 0.64571744 -0.66043276 0.6413859
0002c0 67 fc 1f bf c6 e8 16 3f a1 db 16 3f 3b 36 2a bf
       -0.6249451 0.58948934 0.5892888 -0.66489
0002d0 23 73 19 3f ff 1c 2f bf 12 de 12 3e 94 0b 84 bd
       0.5994131 -0.6840362 0.14342526 -0.06447521
0002e0 00 28 85 bd 6a 7a 90 3d 05 71 c7 be 47 ac d5 3e
       -0.0650177 0.07054599 -0.38953415 0.41733
0002f0 29 04 64 bf f5 75 02 3e bf 38 84 3f 1a 8f 3c bf
       -0.8906885 0.1274031 1.0329818 -0.73655856
000300 4c 4d 01 bf d4 9d 4d 3e b0 60 b8 be 42 00 75 3e
       -0.5050857 0.20079738 -0.36011267 0.2392588
000310 9a 25 aa be 2d 8d 33 3e 93 ec 9c 3d 9f 34 39 bd
       -0.33231813 0.17534323 0.076623105 -0.0452162
000320 9c 76 4b bf 8f 89 4f 3e 58 bd ce bd 11 1b b1 bd
       -0.7947786 0.20267318 -0.10094708 -0.08647741
000330 3d 4b b3 3f 30 dd 26 bf 1c 33 1e 3f 7e 6c 80 be
       1.4007336 -0.65181255 0.61796737 -0.25082773
000340 72 d8 14 3f 17 1a a6 be 57 c8 ba 3e 00 43 19 be
       0.5814277 -0.3244178 0.36480972 -0.14966965
000350 98 cf 04 bd fa 4a b1 3d e5 6e 3b be 63 19 80 bf
       -0.03242454 0.08656879 -0.18304022 -1.0007747
000360 58 27 9f bc ae 36 0f 3f 89 46 f0 be 28 3f 61 3f
       -0.01942794 0.5594281 -0.46928814 0.87986994
000370 49 af 28 bf 8a 96 be 3d ff 37 0c bf e4 c2 2a 3e
       -0.65892464 0.09306057 -0.54772943 0.16675907
000380 07 06 9e 3d c8 80 6b 3d 2d ff 9f 3d 38 39 23 bd
       0.077159934 0.057495862 0.07812343 -0.03984949
000390 d7 6d 72 3f 46 a1 76 be f7 87 bb bf 4c 1e 71 be
       0.9469885 -0.24084958 -1.4650868 -0.23546714
0003a0 26 a3 ed 3e f3 4f c8 3d 4d be 5b bd 71 0f d4 bd
       0.46413535 0.09780874 -0.05364828 -0.10354508
0003b0 ad 28 00 bc 60 0a b6 bd 83 a1 fb 3e 65 cf 4e be
       -0.007822198 -0.088886976 0.4914666 -0.20196302
0003c0 02 82 38 3e 52 30 31 3d 0a e0 85 bf 3c 7d fa 3e
       0.18018344 0.043258972 -1.0458996 0.4892367
0003d0 20 30 8b be 04 d6 59 3d fc ac a0 be ea a5 33 bd
       -0.27185154 0.053182617 -0.31381977 -0.0438594
0003e0 96 fe d5 be 1b ca 7b 3e a4 5c cb be 3c a3 a7 3d
       -0.41795796 0.24588816 -0.39719117 0.08185431
0003f0 73 ac 39 bd c1 d2 25 bd f7 07 2f 39 28 9d 04 bd
       -0.045330476 -0.040484194 0.00016692268 -0.03237644

bias f4 [128]
000000 5d c2 23 be 60 df b9 3e c9 13 8e 3e e9 c2 0a bf
       -0.15992112 0.36303234 0.2774947 -0.5420366
000010 88 66 c2 3e 8e 3c b0 3e 88 85 8c be 44 39 18 bf
       0.3796885 0.344212 -0.27445626 -0.5946238
000020 ac 80 72 3e 65 3d 2d bd a0 32 05 3e 11 6b c9 bf
       0.23681897 -0.04229488 0.13007593 -1.5735799
000030 80 31 05 3e 91 d7 3d be 47 47 55 be 3b 66 44 bf
       0.13007164 -0.18539263 -0.20827971 -0.7671849
000040 20 63 07 bf 5c af 36 bd 94 52 98 bd 9d 10 0e be
       -0.5288563 -0.04460083 -0.074376255 -0.13873525
000050 fd 2c d4 be 89 65 39 bd 64 ca c4 be 55 4b 73 3e
       -0.41440573 -0.045262847 -0.38435662 0.23759206
000060 ec 83 6e bd d3 c8 95 be bf e8 c2 be 44 df 43 3e
       -0.05823128 -0.2925478 -0.38068196 0.19128138
000070 70 16 83 be dd 0b a1 bd 73 b8 45 be 13 42 a8 3e
       -0.25603056 -0.07863591 -0.19308643 0.3286291
000080 89 a2 93 bc c7 9d c1 3e 51 ef b4 be 51 be 80 3e
       -0.018021839 0.37815687 -0.35338834 0.251452
000090 f9 8a 9f 3d 9f ac 32 be 6d dd 8c be 74 12 99 bd
       0.07790179 -0.17448662 -0.27512684 -0.07474223
0000a0 fb f0 fd be 7c 70 1b bd 78 fc 8a be 1c 8e 69 3e
       -0.49597916 -0.03794907 -0.27145743 0.22808117
0000b0 cf f2 14 bf 53 3a 2a bf 4f ab 25 be 63 14 fe be
       -0.58182997 -0.66495246 -0.1617863 -0.4962493
0000c0 28 bc f3 bd 7b 93 aa 3d aa 66 e7 bd f9 89 cc bd
       -0.11901122 0.08328911 -0.112988785 -0.09987254
0000d0 bb 31 01 be 8d b7 b7 be 2a 3f 76 3e b1 5a 04 bf
       -0.12616627 -0.35882226 0.24047533 -0.51700884
0000e0 1f 8a 86 3d 6e 55 b2 be fa 3f 74 be 78 74 62 bd
       0.06569313 -0.34830803 -0.2385253 -0.055286855
0000f0 25 be ad 3c 64 81 8b be 75 98 ad bd e8 0f a9 bd
       0.021208832 -0.27247155 -0.084763445 -0.08254987
000100 fd 01 95 3d c9 3b 02 bf 2f fb a6 bd b8 74 cf 3b
       0.0727577 -0.50872475 -0.08153378 0.0063310526
000110 71 b3 a8 3c fe 40 70 3c f7 68 a7 3e 2c 21 62 be
       0.020593377 0.014663933 0.3269727 -0.22082967
000120 cd 47 78 bf 28 35 d6 be 07 eb db 3c cc 99 6b bf
       -0.9698456 -0.4183743 0.026845468 -0.9203155
000130 d7 ea 38 bf 39 79 1a bf b4 7a 31 be 27 59 b5 be
       -0.7223334 -0.6034122 -0.17331964 -0.3541958
000140 ba b5 07 bf bf a8 9a be b3 45 06 3e 26 d8 b7 be
       -0.5301167 -0.30206868 0.13112526 -0.35907096
000150 10 e9 aa bd fd d5 df be c3 b9 d9 be 2c 1e 6e be
       -0.083452344 -0.43717948 -0.42524537 -0.23253697
000160 e3 8d 82 be a9 97 7e be 20 f3 19 bf 52 1f 89 be
       -0.25498876 -0.24862541 -0.60136604 -0.26781708
000170 74 e5 8f 3e 5f b5 43 be ac 68 50 bf 5a bd ea be
       0.28104746 -0.19112156 -0.81409717 -0.4584759
000180 05 88 be 3e 58 e2 3a bf 55 be 13 bd 5b d5 8f bf
       0.3721315 -0.73001623 -0.036070187 -1.1236986
000190 c5 10 67 be 77 0b bd be c2 20 0f be 63 5b 91 be
       -0.22564991 -0.3692281 -0.1397734 -0.28390035
0001a0 22 02 91 be 82 c2 01 bf 1f 93 52 bf 0b a8 9f be
       -0.2832194 -0.5068742 -0.8225574 -0.31182894
0001b0 3c b3 80 3e 37 21 76 be 3a 37 8c be 6d 47 a3 be
       0.25136745 -0.24036108 -0.27385885 -0.3189043
0001c0 e4 c0 96 be d6 3e 06 3e 4f 24 08 be 44 1f e6 be
       -0.2944404 0.13109908 -0.132951 -0.4494573
0001d0 04 83 ff bd 55 43 09 3f 0c 3e fa bb 56 a0 9e bc
       -0.12476161 0.53618366 -0.007636791 -0.019363564
0001e0 3a 86 e7 be 82 ce 05 bf 54 9f 96 be 13 2d dd 3e
       -0.45219594 -0.5226823 -0.29418433 0.4319845
0001f0 1c 5e 66 be 8e d0 6e 3e ad e7 48 be 7b 1a ae bd
       -0.22496837 0.23321745 -0.19619627 -0.085011445

weight f4 [128, 128]
000000 aa a5 1c bf 36 0c 1e 3e 61 5e c7 3f 3d 3a 47 be
       -0.61190283 0.15434346 1.5575677 -0.1945581
000010 59 54 4a be 8d 3a 6b bf df 0a 41 bf 2e a9 40 bf
       -0.19758739 -0.91886216 -0.7540721 -0.7525815
000020 c3 82 85 bc c7 08 ad be a1 00 c9 3d 38 d3 8b 3f
       -0.016297704 -0.3379576 0.09814573 1.0923834
000030 07 12 e7 3e 30 4f 9e 3e b6 9f 4c be 5f bd cd 3b
       0.4513094 0.3091979 -0.199828 0.0062786783
000040 9d 21 3d bc 85 80 98 be bb e4 b6 3e 11 d6 0c bf
       -0.011543659 -0.29785553 0.35721382 -0.5501414
000050 81 e8 87 3f 32 e1 bd 3d 0f bd 45 bf dd 02 7b be
       1.061783 0.09271468 -0.77241606 -0.24512811
000060 ab 87 a0 3f da 63 32 bf ad ff 32 bc 1e b8 e2 3b
       1.2541403 -0.6968361 -0.010925216 0.006918921
000070 64 64 58 bf 08 2f 3f 3f 87 4f da 3e e0 2a 26 bf
       -0.84528184 0.7468114 0.426388 -0.6490917
000080 f0 94 a9 bb 12 67 26 3e 21 05 2e bf 0e a5 c5 3e
       -0.0051752254 0.16250256 -0.67976576 0.3860249
000090 2f 1c 9c bf 86 9c 19 bf c0 f3 0c 3f fb ce 85 be
       -1.2196101 -0.6000446 0.55059433 -0.26134476
0000a0 17 f9 55 3f ca ce 89 3e 10 ff 56 3e 65 db e3 be
       0.83583206 0.2691558 0.20995736 -0.44503322
0000b0 7a 9a b2 3e 8e c2 d5 3d 8b f8 92 be 05 b9 aa be
       0.3488348 0.10437499 -0.28705248 -0.33344284
0000c0 0d f9 8f bd d3 85 55 be 58 7a bc 3e d3 4a e9 bd
       -0.070299245 -0.20851831 0.3681209 -0.11391225
0000d0 be b1 01 3e 85 b3 36 bf ce c6 7c 3e 70 63 89 bf
       0.1266546 -0.71367675 0.24685213 -1.0733471
0000e0 2b 9b 34 bf bc 55 39 3c f7 00 3f be c3 e4 0a 3f
       -0.7054927 0.011311945 -0.18652712 0.5425531
0000f0 c0 f2 18 3e 71 e5 64 3c fe 16 3f be 36 51 f2 be
       0.14936352 0.013970719 -0.18661115 -0.47327584
000100 88 71 e4 3d 8d 6a ff 3e 2d cf 22 3f ed e8 87 3e
       0.11154467 0.4988598 0.63597375 0.26544896
000110 71 dd 81 3e 31 ff e8 3e 5a 5f 09 bf e4 d0 39 bf
       0.2536426 0.45507196 -0.5366112 -0.72584367
000120 b1 38 b9 be 35 b6 a3 bf 13 03 43 be 44 71 60 bd
       -0.36176065 -1.278998 -0.19044141 -0.05479552
000130 80 6f 05 3a 67 36 86 3e 50 9b 22 be c6 92 2e 3f
       0.0005090162 0.2621338 -0.1587956 0.6819271
000140 62 ff 89 bf 5f 09 45 be a5 df 83 b9 05 d0 97 be
       -1.0781062 -0.19241856 -0.00025152895 -0.29650894
000150 0f 5f 30 3c 0f 3f e5 3e 5e f4 03 bf 37 82 fa 3e
       0.010764851 0.44774672 -0.5154475 0.4892747
000160 96 d7 c8 3e 69 14 3d be 98 86 91 bd b1 06 f5 3d
       0.3922698 -0.18464817 -0.0710575 0.11964167
000170 ad 34 39 be cf 9a 87 3e ac 43 5e 3f 78 78 09 3f
       -0.180865 0.26485297 0.8682201 0.53699446
000180 c0 cf 8d bc 32 4c f5 bd 27 3e d2 be b3 b1 ba 3f
       -0.017310977 -0.11977424 -0.41063043 1.458548
000190 8c 91 24 3e bf aa 61 3f 8d b2 75 3e f7 00 d7 be
       0.16071147 0.8815116 0.23993893 -0.41992924
0001a0 43 9f e5 3e 33 17 b7 be 8f 35 9c be 44 04 01 be
       0.4484807 -0.35759887 -0.30509612 -0.12599283
0001b0 eb 42 ce 3e 3b 6d 9a c0 4b 9f 73 bf aa b7 85 be
       0.4028543 -4.825834 -0.95164937 -0.26116687
0001c0 0d 7e f1 be 39 68 20 3f d2 3b db 3c 6d b0 93 be
       -0.47166482 0.6265903 0.026761923 -0.2884554
0001d0 f0 ea 62 3f 98 79 ad 3e cb 75 f9 be 06 5c b4 bf
       0.88639736 0.3388183 -0.4872268 -1.4090583
0001e0 c6 55 98 3e 3b 6a aa 3d 54 29 06 be 35 e8 a0 3d
       0.2975294 0.08321043 -0.13101703 0.0785679
0001f0 e9 aa d7 3e c5 be 09 3f 19 f0 16 3f c2 fb 47 be
       0.42122582 0.53806716 0.5896011 -0.19529632
000200 03 49 3b bf b8 da 66 3e 2f 04 16 3f 7c 08 14 bd
       -0.7315828 0.22544372 0.58600134 -0.036140904
000210 d3 35 18 bd 20 b1 89 bf 58 c6 a4 3d ea 88 ac bf
       -0.037160706 -1.0757179 0.080456436 -1.3479283
000220 f9 98 45 3d 9d 19 28 3f ff 78 af 3e e9 02 ad bd
       0.04824159 0.6566408 0.34272 -0.08447821
000230 1b 79 0b 3d 8b 50 b7 3d 65 8a aa be 27 00 25 be
       0.034051042 0.08950909 -0.33308712 -0.1611334
000240 6d 53 51 bf f3 61 23 be 9b d9 d5 3e 3b bc 9d be
       -0.8176792 -0.15955333 0.41767582 -0.3080767
000250 15 78 c8 3e 00 e1 ac be cb 91 99 bf bc b5 5c be
       0.39154115 -0.3376541 -1.1997617 -0.21553701
000260 95 09 d5 3f 36 4a 27 3f 62 b0 d7 3e 05 51 32 3e
       1.6643549 0.6534761 0.42126757 0.17413719
000270 d0 a7 50 3e ab ff 13 3f 5e 00 e2 3e ad 52 64 bf
       0.20376515 0.57811993 0.44140905 -0.89188653
000280 57 6f 03 3f 54 c2 ed 3d fb d8 03 3c b9 e5 26 be
       0.51341766 0.11609331 0.008047338 -0.1629857
000290 96 55 b7 be af e6 b3 bd 6f be 3b 3d ed e4 5d 3e
       -0.35807484 -0.08784234 0.04583591 0.2166936
0002a0 b5 7b a3 be c8 a5 e4 bd 20 4e a3 bc a2 5a 7b bf
       -0.31930318 -0.11164433 -0.019934714 -0.9818517
0002b0 e7 ab 75 3e 9e 83 c7 3c 55 13 54 be 71 9a 97 3e
       0.23991357 0.024354752 -0.207105 0.29610017
0002c0 60 dd d7 3e 1b b0 ed 3e 49 d7 83 3d 12 0b eb 3d
       0.42161083 0.4642342 0.06437547 0.11476721
0002d0 1e 38 90 bf cd 7a ff 3e a6 81 10 3f 02 5f 7a bf
       -1.1267126 0.49898377 0.5644783 -0.9780122
0002e0 29 cd 94 be db 21 0c bf b4 32 ef 3e 5f 8b ef bd
       -0.29062775 -0.5473916 0.4671837 -0.11696505
0002f0 89 fa 33 bf cb f7 05 bd 90 b2 aa 3e b7 32 31 3e
       -0.7030416 -0.032707017 0.33339357 0.17304502
000300 c2 49 3a 3e 1f bf 86 3e 41 6c 96 be b1 cd ca 3d
       0.18192199 0.2631769 -0.29379466 0.09902514
000310 6a e9 15 be 23 2d 18 bf 3c dc 5e be 3c ae 88 be
       -0.14639822 -0.59443873 -0.217637 -0.2669543
000320 e7 c8 b2 3e b6 09 a1 3d a7 8d e6 bc 6f 8c 02 be
       0.349189 0.0786318 -0.028143717 -0.12748884
000330 10 c1 38 3e e8 36 0a be fa ac e5 3c 32 3d e6 be
       0.18042397 -0.13497508 0.028036583 -0.44968563
000340 90 56 2e bf 55 d6 d4 3e a1 d7 2e be 11 f7 3c bd
       -0.68100834 0.41569772 -0.17074443 -0.04613406
000350 f8 f5 d7 be 2d ed 28 bd 1b 8d f0 3d 6f 62 5d bf
       -0.42179847 -0.041241813 0.11745664 -0.8647832
000360 4c b4 07 3f cd 41 4d c0 fe 4c ba bc 1e ae e2 3d
       0.53009486 -3.2071412 -0.02274179 0.110683665
000370 06 1d 8c 3e 55 9e c4 bd 0e a8 1b 3c ef 0e ba bc
       0.27365893 -0.09600512 0.009500517 -0.022712199
000380 9c 24 55 be da af 36 3e 19 7f a0 3d a3 03 5e 3c
       -0.20814747 0.1784052 0.07836742 0.013550672
000390 60 11 ab be 6e 7d dd 3e 37 9e c5 3e df 4e 07 3e
       -0.33411694 0.43259758 0.3859727 0.1321368
0003a0 83 62 27 bf 65 80 9f 3e 40 f5 80 bd 68 2c d9 bc
       -0.6538469 0.31152645 -0.06296778 -0.026510432
0003b0 ff 8d aa 3c a6 7d 1c 3d 10 67 d1 be e7 1a 7c 3e
       0.020819662 0.038205765 -0.40898943 0.24619637
0003c0 c6 d3 49 bf 9d 90 e5 3e 91 50 af bc 7b 75 33 be
       -0.78838766 0.44836894 -0.021400722 -0.17525284
0003d0 ad a2 0a 3f 46 e5 2c 3f 6c 56 e9 bd 66 f9 01 3d
       0.54154474 0.67537344 -0.11393437 0.031731986
0003e0 62 f5 8f 3d 8f e5 7f be 53 95 3d bf dd 17 18 3c
       0.07029225 -0.24989913 -0.74055976 0.009283033
0003f0 26 0d 09 be c0 f7 aa be 33 77 24 3e 24 16 21 bd
       -0.13383922 -0.33392143 0.16061096 -0.039327756

bias f4 [128]
000000 54 3c 90 bd 52 3a 04 be 33 c8 b1 3e 39 b1 0b 3e
       -0.07042757 -0.12912872 0.34723052 0.13641824
000010 1a 1e b6 be e9 83 33 bf e9 f4 15 bf b2 df fe bc
       -0.3556984 -0.70123154 -0.5857683 -0.031112526
000020 56 ee 70 bd dc bc d7 3e a5 58 64 3d 11 9c 7a be
       -0.058821045 0.42136276 0.0557486 -0.24473597
000030 89 0c 8b 3e b2 c3 0d 3e 0a c7 23 be bd 76 ac be
       0.27158 0.13844183 -0.15993896 -0.3368434
000040 26 46 b1 3d 93 7d 74 3e 4e b7 31 bf c6 08 91 3d
       0.08655958 0.23876028 -0.69420326 0.070817515
000050 86 68 eb 3e 63 49 79 3e 4b 58 0d be 74 e9 08 be
       0.45978183 0.24344401 -0.13803212 -0.13370305
000060 6f f0 b1 3e 1c f0 1c bf b3 19 be 3e 48 dd 2e 3e
       0.3475375 -0.6130388 0.37128982 0.170766
000070 0d 73 8f be 84 0a 0f bd ac f4 63 be 83 35 35 3e
       -0.28017464 -0.034922138 -0.22261304 0.17696194
000080 5f a8 00 3f ec 23 8e be e0 fa 14 be 9e 27 c7 bd
       0.50256914 -0.2776178 -0.14548826 -0.09724353
000090 6c 6e 90 be 15 89 9e be 15 40 af bc 59 97 0c be
       -0.28209245 -0.3096396 -0.021392861 -0.1372961
0000a0 2b 3b ec 3d c9 3b 54 be 9e 05 ed bd e2 28 05 be
       0.11534723 -0.20725931 -0.11573337 -0.13003877
0000b0 7d 0f 83 bd 92 f5 fb 3d a0 de 7a 3e ad a8 36 bd
       -0.063994385 0.12302698 0.24498987 -0.044594456
0000c0 23 c0 ac 3e 6e 8d 44 be 7d 81 b3 bd 08 be 3b be
       0.3374034 -0.19194576 -0.08764932 -0.1833421
0000d0 09 55 ce be e4 37 0c be a5 b9 40 3e e4 7f 98 3e
       -0.40299252 -0.13693196 0.18820818 0.29785073
0000e0 5e 95 5c bc db 43 2f bc e9 f2 e1 bd bf 98 e7 bd
       -0.013463346 -0.01069733 -0.110326596 -0.11308431
0000f0 20 08 50 be 10 d0 cc 3e ef f4 73 be 18 ea 1d be
       -0.203156 0.4000249 -0.23823904 -0.15421331
000100 d0 5e 02 be 08 00 80 3e df 11 67 bd 5b 31 00 be
       -0.1273148 0.25000024 -0.056413528 -0.12518828
000110 fb df 9f 3c e4 09 0e 3c 5a 69 93 3d ba d7 21 be
       0.019515982 0.00866935 0.071978286 -0.1580495
000120 1c 92 c2 bc 48 6d e4 3d 34 cb ef bd 33 6f 86 bc
       -0.023751311 0.11153656 -0.1170868 -0.016410446
000130 59 6e bd bd a6 49 59 3e 10 8f bd 3e 60 18 bb be
       -0.09249563 0.21219501 0.3702321 -0.36542034
000140 0e b1 c5 3c c6 88 60 3e da 78 70 3d 74 3d 67 bd
       0.024132278 0.21927175 0.058709003 -0.05645509
000150 2d fe ec 3e 82 42 e2 bd c9 7d d3 bd 51 6a 9f 3e
       0.4628767 -0.110478416 -0.10326726 0.311358
000160 bf aa 23 bd c7 2b 93 be ee 4e 09 3f 2f f7 23 3e
       -0.039957758 -0.28744337 0.5363606 0.16012262
000170 38 27 fe 3d 67 68 2e 3f 6e 75 0d 3f 90 74 51 bd
       0.12409824 0.68128055 0.5525731 -0.051136553
000180 5d bf c0 be a5 fd 2c 3d 11 0a e6 bd 38 50 0f be
       -0.37646 0.04223408 -0.11232389 -0.13995445
000190 98 cf 7b bd 97 df 80 3e 65 fa ce 3e 9b 64 40 bd
       -0.061477274 0.25170586 0.4042541 -0.046970945
0001a0 33 00 9e 3e 8f f3 5c be 7b cf e5 3d 4b b0 7d be
       0.30859527 -0.21577285 0.112212144 -0.24774282
0001b0 c6 57 5c bd dd 85 03 be e6 09 b2 3e af b8 a2 3e
       -0.053794645 -0.12844034 0.34773177 0.31781527
0001c0 ac 75 4e 3d 23 e1 d4 bc ea 6b 72 3e 04 b0 a6 bc
       0.05040519 -0.02598626 0.23673978 -0.020347603
0001d0 a7 d0 13 3e ec 5b 5e 3d ca 3a 8a be af 29 8a 3e
       0.14435063 0.054286882 -0.26997977 0.26984927
0001e0 25 ec 2b 3f 31 ba 7f 3e d7 7d be 3e 70 ff 4b 3c
       0.671572 0.2497337 0.37205383 0.012451038
0001f0 a3 44 71 be 1a 8c 68 3d c2 bb 27 bf a7 3f 39 be
       -0.23561339 0.056774236 -0.6552087 -0.18090688

weight f4 [5, 128]
000000 10 53 79 bd ba 37 02 3d db 95 03 bd b3 e0 88 be
       -0.06087023 0.031791426 -0.032125335 -0.26733932
000010 c7 38 5c 3c f8 28 9b be e0 e7 c5 3e 9d 35 de be
       0.013441271 -0.30304694 0.3865347 -0.4340028
000020 89 e2 68 bd bc ce a4 3d 73 c5 e3 bc 50 ef 95 bd
       -0.056856666 0.08047244 -0.027804112 -0.07321036
000030 aa 5d 27 3e ca 15 6b be 96 33 ef 3d 7a 9d 1b 3d
       0.16344324 -0.2295753 0.11679761 0.03799198
000040 29 9f 96 be c0 d6 13 be a8 12 9f be 8c e4 e7 3c
       -0.29418305 -0.1443739 -0.3106892 0.028307222
000050 53 95 78 3e 04 f4 07 3c aa 0c 79 bd f2 54 67 bd
       0.24275713 0.008297924 -0.060803093 -0.056477495
000060 48 63 94 3d ea 2b 92 be 38 34 f0 3b 6a 7c 98 3d
       0.07245499 -0.2854913 0.0073304437 0.07445605
000070 08 c1 86 be 05 3f 57 bd f3 23 59 3d 38 f8 a4 3e
       -0.26319146 -0.052550334 0.0530128 0.32220626
000080 92 a0 95 3d 3e 68 4e bd d5 a8 11 3e c1 1f c7 3c
       0.07306017 -0.05039238 0.1422456 0.024307134
000090 b5 39 66 3d 1c 3f cf 3d 62 e4 75 bd bd f8 59 bd
       0.056207377 0.10119459 -0.060032256 -0.05321573
0000a0 ba 75 d0 bd e9 d0 91 be 2b 35 54 bd 27 8a 47 3e
       -0.101787046 -0.28479698 -0.051808517 0.19486295
0000b0 b7 94 61 bd f1 b2 0b bc 1c 88 82 be 51 0b 6f bd
       -0.055073466 -0.00852655 -0.25494468 -0.0583604
0000c0 33 a6 91 3c 77 80 8e bd 26 17 6b bd 09 5a 88 3d
       0.017779445 -0.069580965 -0.057395123 0.06657798
0000d0 60 a3 47 be ff 4c 87 3a 38 45 6f be 13 2c a0 3d
       -0.19495916 0.0010322629 -0.23366249 0.078209065
0000e0 22 d5 63 bd f4 e5 1e be ce f7 53 bd cf 24 0c 3c
       -0.05562318 -0.15517408 -0.051749997 0.008553698
0000f0 d6 6c 91 bc ec f9 93 bd 1a 5b e7 be 9d 6d 04 3d
       -0.017752092 -0.07225403 -0.45186692 0.032331098
000100 27 a9 4e be 5f b9 43 bd d5 ec 5b bd 95 81 70 bd
       -0.20181714 -0.047784206 -0.053692658 -0.05871733
000110 99 74 14 be 2b 21 5a bd 38 b8 4e 3e 15 88 e7 3c
       -0.14497603 -0.053254288 0.20187461 0.028263131
000120 73 1d 6b bd 73 3a 47 bc 7a 23 5f bd 46 ab 12 3e
       -0.05740113 -0.0121599315 -0.054477192 0.14323148
000130 3b e5 56 bd 86 c5 d4 bd 3b d1 0a be 98 55 06 be
       -0.052464705 -0.10389237 -0.13556378 -0.13118589
000140 3f 1e 01 3e d8 f3 51 be c2 25 a9 be 13 04 5b bd
       0.12609194 -0.20503175 -0.3303662 -0.053470682
000150 dd 2b a6 3d 5d 1d 55 bd 2c c0 66 be 08 7f 7e 3d
       0.08113835 -0.052029956 -0.22534245 0.062132865
000160 ed 12 7c bd 64 83 99 3e e0 33 32 be 49 13 d4 3d
       -0.061541487 0.29983056 -0.17402601 0.10355241
000170 e9 00 83 bd 1b 12 ae bd 4c d2 1c bd ba f2 67 bd
       -0.06396658 -0.08499547 -0.038286492 -0.056627966
000180 32 61 41 3e ee 21 c4 bc 33 b6 58 bd 05 02 3b bd
       0.18884733 -0.02394196 -0.052908134 -0.045656223
000190 c2 fc e6 bd d9 05 89 bd 96 dc 27 3d 76 81 65 bd
       -0.112786785 -0.066905685 0.04098185 -0.056031667
0001a0 76 b6 b7 bd a7 29 ae 3c 64 54 d8 be 05 87 90 be
       -0.089703485 0.021260096 -0.42251885 -0.28228012
0001b0 65 86 2d 3e ae 4e 50 bd 58 e0 95 be cb 49 f2 bd
       0.16945799 -0.050856285 -0.29272723 -0.11830481
0001c0 fd d6 8b 3e 59 78 88 bc 9c 99 36 3e aa 48 8a bd
       0.2731246 -0.016658949 0.17832035 -0.06752141
0001d0 07 17 68 bd 3e 8f 79 3d e7 7b 17 3c 23 00 b3 be
       -0.056662586 0.060927622 0.009245849 -0.34961042
0001e0 19 6a 95 3d 1d fc 3a 3e 55 59 df 3d 13 96 54 bf
       0.07295627 0.18260236 0.109057106 -0.83041495
0001f0 0e e1 06 bd 68 b3 cf 3d 56 e1 1e 3e d4 6d 88 bd
       -0.032929473 0.10141641 0.15515646 -0.06661573
000200 6b 5e f8 bd 15 eb 4c be b3 eb 59 be cc ce 63 3e
       -0.12127384 -0.20011552 -0.21281318 0.22246855
000210 12 b5 19 bd 27 e5 0d be 6b 02 ad 3d 8d 94 76 3e
       -0.037526198 -0.13856946 0.08447727 0.24080105
000220 8f 7b 4f 3d 49 d4 1c bd be 7b 1c 3e 46 35 bf bd
       0.050654944 -0.03828839 0.15281579 -0.09336333
000230 c1 a9 95 bd 02 09 f4 3c 20 19 63 be e9 67 a7 3e
       -0.073077686 0.029789452 -0.22177553 0.32696465
000240 97 98 95 3e 7e cf 9f 3c ac b5 1f 3e c1 e1 8d 3e
       0.2921798 0.01950812 0.15596646 0.277113
000250 48 07 4e 3e 5f 15 16 be f7 27 5d 3d 05 f0 32 3d
       0.20119965 -0.1465659 0.05399319 0.04368593
000260 ab a8 8b be 8a 80 63 be 46 7d 1d be 74 55 c9 bd
       -0.2727712 -0.22217003 -0.1537982 -0.09830752
000270 ea 42 e2 bd e8 ed 5e 3d 86 79 05 be 67 9b 26 be
       -0.11047919 0.054426104 -0.13034639 -0.16270219
000280 4c 9d 9f 3e cb 16 11 be ae ed ba bd e8 8f a9 be
       0.31174695 -0.14168851 -0.09127365 -0.33117604
000290 f7 98 89 3e f5 13 b3 be 88 76 67 3d 93 64 58 3d
       0.26874515 -0.34976164 0.056509525 0.05283029
0002a0 1c 83 30 3e 33 06 cf bd 60 88 69 3d 1c cd 78 be
       0.17237514 -0.10108604 0.057014823 -0.24296993
0002b0 24 6a 5c 3d e0 c7 20 3e 20 b6 91 3e e1 d6 91 be
       0.05381216 0.15701246 0.28459263 -0.28484252
0002c0 c1 41 d9 3e e8 ea 31 3c 03 d6 68 3d e5 62 1f be
       0.4243298 0.010859229 0.056844722 -0.15565069
0002d0 11 6d 0a be 06 ee 95 3d dc 19 4f be d5 e7 3c 3e
       -0.13518168 0.0732079 -0.20224708 0.18447812
0002e0 ae 1a 7e 3d 07 90 56 be b2 e0 73 3d b5 43 91 3e
       0.062037162 -0.2095338 0.059540458 0.2837197
0002f0 4f 17 92 bd f5 60 c7 bc 7c 10 9c be 9b 9d 81 3d
       -0.07133352 -0.024338225 -0.30481327 0.06328889
000300 71 81 b3 be ab 41 c9 3d af d3 70 3d d6 58 54 3d
       -0.35059693 0.09826978 0.058795627 0.051842533
000310 8b 32 4f be 90 8b 75 3d fa 34 60 be 9d ad fa 3d
       -0.20234124 0.05994755 -0.21895209 0.12240145
000320 19 e9 65 3d 10 e5 db be b3 70 53 3d 2a 2c 82 be
       0.056130502 -0.42948198 0.05162115 -0.2542432
000330 ea f6 86 3d 34 e6 47 3e 67 9f e4 3c 63 93 d8 3a
       0.06590064 0.1952141 0.02790804 0.0016523417
000340 a4 a7 e6 3d 1c f8 e8 bd eb d3 7d be 32 00 83 3d
       0.11262444 -0.11375448 -0.24787872 0.06396522
000350 9d f9 89 3d 93 65 65 3d 27 ab 68 3e 50 b1 30 bd
       0.06737063 0.05600507 0.2272154 -0.04313785
000360 6b 77 58 3d f8 c0 51 3d f9 bb 0e be 1f b9 75 be
       0.05284826 0.05120942 -0.13938893 -0.239964
000370 ea 87 7a 3d 46 78 ac 3e aa 7a 93 bd 50 98 7b 3d
       0.061164774 0.3368551 -0.07201131 0.061424553
000380 f2 65 3c 3e 9d 6e 49 3e df 93 6e 3d 36 c8 48 3d
       0.18398264 0.19671102 0.05824649 0.04901906
000390 0f c9 3b be 40 1e 3c bd 84 c0 d6 3d 6e 32 68 3d
       -0.18338417 -0.045927286 0.10485938 0.05668872
0003a0 92 4e 65 3c 85 41 51 bd a0 d4 69 3e be 02 ca 3e
       0.013995783 -0.051087875 0.22835016 0.39455217
0003b0 b7 9a 73 3e 48 14 7c 3d 22 55 94 be 3c 8e 47 3d
       0.23789488 0.06154278 -0.289712 0.04871963
0003c0 7c 48 27 be 04 93 20 3e 5f 95 f9 bd 94 76 00 bd
       -0.16336244 0.15681082 -0.121866934 -0.031363085
0003d0 53 fa 46 3b 1c 31 c6 b9 f3 92 52 be 35 1d 4b 3e
       0.0030361607 -0.00037802092 -0.20563869 0.1983536
0003e0 f7 53 96 be 22 79 58 be 8b 32 a8 3e 15 2a 95 be
       -0.29360935 -0.21139959 0.3285106 -0.2913367
0003f0 05 e0 cf be 9f d5 d5 be 8a 6c 84 3e fa 0c 3c 3e
       -0.406006 -0.41764542 0.2586406 0.18364325

bias f4 [5]
000000 4f f3 1d bf 0d 5d b8 3e b5 c9 14 bd 1d 1a ea bb
       -0.61699384 0.36008492 -0.036325175 -0.007144226
000010 f2 bb 8d bd
       -0.06920613

weight f4 [128, 14]
000000 5a 56 70 3e a0 b4 37 bc 80 20 aa bc 1e 78 13 3e
       0.2347044 -0.011212498 -0.02076745 0.1440129
000010 70 b2 51 3d 40 32 f6 3b 10 b2 69 3e 4a 07 ca bd
       0.051195562 0.0075133145 0.22821832 -0.098646715
000020 30 94 67 3d 80 27 ad 3d 00 55 dc 3d 49 bc 87 be
       0.056537807 0.084548 0.107584 -0.26510838
000030 3e 9b 8b bd 74 43 95 3d 20 35 77 bd 7f af 85 3e
       -0.068167195 0.07288256 -0.0603534 0.26110455
000040 26 17 83 be 8e 2c 8f bd a0 e1 3a 3d 94 e9 69 3e
       -0.25603598 -0.0699092 0.04562533 0.22843009
000050 e4 4b 5e 3e c0 17 90 3c da b0 30 be 22 da 40 3e
       0.21708637 0.01758945 -0.17254964 0.18833211
000060 fc 70 e3 bd 76 10 2a be 68 34 60 3e 00 ef de 3d
       -0.111055344 -0.16607842 0.21894991 0.108854294
000070 c0 77 ac bc 00 fd 75 bd 8c 77 ff 3d 2c 10 04 be
       -0.021053195 -0.060055733 0.12473974 -0.12896794
000080 57 c9 79 be cf b5 65 be bb 23 70 be 9a fb 89 bd
       -0.24393211 -0.22432636 -0.2345113 -0.06737442
000090 b0 0b 1f 3e 3c 00 82 3d 27 da 61 be 89 ee 81 3e
       0.15531802 0.06347701 -0.22055875 0.253773
0000a0 d8 7d 0d 3d c1 5b 61 be a2 4a c1 bd 2a 74 54 3e
       0.034543842 -0.22007658 -0.09438063 0.20747438
0000b0 d8 60 15 bd 04 3e 44 be d6 f7 1e 3e 36 b1 13 be
       -0.03646931 -0.19164282 0.1552423 -0.1442307
0000c0 66 fe a4 bd 7e 14 45 3e cc 23 8d 3d 10 62 07 be
       -0.08056335 0.19246098 0.06891593 -0.13221002
0000d0 40 4d 28 3d b4 9a 70 be b0 2b e6 bd a0 e2 62 3c
       0.041089296 -0.23496515 -0.112388015 0.013847977
0000e0 42 d8 37 3e e4 c0 40 3e c0 48 cb 3b 20 a8 25 3e
       0.1795359 0.18823582 0.006203741 0.16177416
0000f0 80 5a 71 bb d2 0b 2a be c0 d2 84 3d 44 cf 5f bd
       -0.0036827624 -0.16606072 0.0648551 -0.054641023
000100 60 b3 05 bc 16 07 7c 3e 80 42 32 3d 9a 32 08 be
       -0.008160442 0.24612078 0.04352045 -0.13300553
000110 a8 74 f6 3d ed 41 1f be 4a b7 53 3e 7c a1 b7 3d
       0.12033969 -0.15552492 0.20675388 0.089663476
000120 ae cc b3 bd 80 95 3a 3d 26 03 0c be f4 c6 8c 3d
       -0.08779274 0.04555273 -0.13673076 0.06873885
000130 bb 99 82 be d8 0b 66 3e d8 ee 7c 3d f0 ef 3a bd
       -0.25507912 0.22465456 0.061751217 -0.04563898
000140 0e 29 50 3e cd f1 28 be 98 f4 25 3d d4 40 3f bd
       0.20328161 -0.1649849 0.040516466 -0.046692684
000150 54 33 d3 3d 34 36 23 3e 3c f8 d9 bd c8 93 5e 3e
       0.103125244 0.15938646 -0.1064305 0.21736062
000160 4e 42 6e 3e 84 41 0a be b4 67 60 3e 38 d4 5b 3e
       0.2326748 -0.13501555 0.2191456 0.21467674
000170 cb 7f 82 be 06 52 70 3e 60 7f f9 3d ac 9a b0 3d
       -0.25488123 0.2346879 0.12182498 0.08623251
000180 4f a0 76 be a4 c3 16 be c8 7a 1e be c0 88 5e 3d
       -0.2408459 -0.14723068 -0.15476525 0.054329634
000190 b0 1d 30 3e 50 a5 38 3d 18 33 ae bd d0 1f bb 3c
       0.17198825 0.04507953 -0.08505839 0.022842318
0001a0 cc 95 7d be b2 fc 9e bd a0 3b c1 3c e6 e4 21 3e
       -0.24764174 -0.077630416 0.023588002 0.15809974
0001b0 b0 15 1d 3d 22 ba b6 bd 40 48 9e 3c 1e c2 0a be
       0.03835076 -0.08922221 0.01932156 -0.13550612
0001c0 f8 2f d0 3d ac 60 07 bd 6c d0 4c be e6 50 2f be
       0.10165399 -0.033051178 -0.20001382 -0.17120704
0001d0 e0 65 37 3c 20 9e 9e 3c 0a bf 12 be 3c 5d 12 3e
       0.0111937225 0.01936251 -0.14330688 0.14293379
0001e0 70 33 0a 3d 72 4b 19 be f4 1b 08 bd 98 be ae 3d
       0.03374046 -0.14970186 -0.033229783 0.085324466
0001f0 00 a6 64 ba 16 6d 61 3e 4e a5 94 bd 4b 63 88 be
       -0.00087222457 0.22014269 -0.07258092 -0.26638255
000200 3e 1a 7d 3e 32 01 5c be 88 5f 63 3e 10 55 99 bd
       0.24717042 -0.21484831 0.22204411 -0.074869275
000210 5a 85 3e 3e a0 5d e6 3d dc c0 1d 3e 22 4b 5f 3e
       0.18605557 0.11248326 0.15405601 0.21806005
000220 22 df 86 be a0 4a 2b bc 30 92 8e 3d c0 34 6f bc
       -0.26342112 -0.010454804 0.06961477 -0.014599979
000230 9a 90 54 3e 1b 4b 57 be b4 1a 02 be cc 4f 2b be
       0.20758286 -0.21024744 -0.12705499 -0.16729659
000240 fc 77 2f be 70 0c 0e bd 5c 4e da 3d b6 95 a3 bd
       -0.17135614 -0.03467983 0.10659477 -0.079875395
000250 00 d7 ff 3a 80 23 27 bb d8 5f b8 3d 1c 46 24 be
       0.0019519031 -0.0025503337 0.09002656 -0.1604237
000260 9f 0a 6c be 80 8b 77 3d 00 cc 0d 3e 34 e1 3b 3e
       -0.23050927 0.060435772 0.13847351 0.18347627
000270 b4 62 82 3d 0c a8 44 3e 5a c1 29 3e 88 2d eb bc
       0.063664824 0.1920473 0.16577664 -0.028708234
000280 4e 92 50 be f4 c2 e7 3d 50 7a 96 3d 02 61 33 be
       -0.20368311 0.11316481 0.07347548 -0.17517474
000290 3c c1 34 3e 87 07 3c be 00 06 89 3b 60 2a 71 bc
       0.17651838 -0.18362246 0.0041816235 -0.014719576
0002a0 15 ce 82 3e 5b ea 81 be 96 e8 6a be be d5 32 be
       0.25547853 -0.25374112 -0.22940287 -0.17464349
0002b0 69 b6 5a be a8 21 dd 3d 16 33 1f be 14 e0 55 3e
       -0.21358646 0.10797435 -0.15546831 0.2088626
0002c0 a4 41 d7 bd 28 f9 26 3e 38 ac 83 be 99 e4 06 be
       -0.10510567 0.16305983 -0.2571733 -0.1317314
0002d0 40 d9 2a be 08 2b fb 3d e8 f0 0c 3e e0 40 39 bd
       -0.16684437 0.12264067 0.13763773 -0.045227885
0002e0 6c 20 5a 3e 84 7e 88 3d fc b5 1b bd c0 f8 93 3d
       0.2130143 0.06664756 -0.03801535 0.0722518
0002f0 e6 b7 60 be 33 e2 74 be 72 40 77 3e 9c 78 88 be
       -0.21945152 -0.23914413 0.24145678 -0.26654518
000300 f2 c1 74 3e a8 75 0c 3d c8 c2 25 3e 00 3c f7 3b
       0.2390211 0.034291893 0.16187584 0.0075449944
000310 e4 5c 91 3d f8 95 49 3d 7c 5d 60 bd ca 0b 7d 3e
       0.070977956 0.049215287 -0.054776654 0.24711528
000320 be 07 1e 3e 24 ec e4 3d 54 37 bc 3d 45 22 88 3e
       0.15432641 0.11177853 0.091902405 0.26588646
000330 6d c5 86 3e d7 45 64 be a4 ee 1e 3e 1c 87 fa 3d
       0.263225 -0.22292267 0.15520722 0.12232801
000340 88 18 64 be e1 e4 56 be 7c c1 63 bd 04 bf 46 be
       -0.22274983 -0.20985748 -0.055604443 -0.19408804
000350 d0 68 04 bd b2 b0 18 3e 98 d1 c7 bc b6 62 1f 3e
       -0.03232652 0.14911154 -0.024391934 0.15564999
000360 1a 65 a7 bd 80 55 21 be 60 8d 3d bc a0 cc 4d 3e
       -0.081735805 -0.15755272 -0.011569351 0.2009759
000370 00 54 a1 bc d5 7a 87 be 98 5f 4e 3d c8 41 02 bd
       -0.019693375 -0.264609 0.050384134 -0.031801015
000380 7c 19 55 3e e0 8a fa bd e0 50 d1 bc 44 9e 8a bd
       0.20810503 -0.122335196 -0.02555126 -0.06768468
000390 75 b0 86 3e 50 73 60 3e c3 fd 86 3e 5e 02 13 be
       0.263065 0.21918988 0.2636548 -0.14356372
0003a0 34 f7 d6 3d 6e 53 72 3e e0 11 d3 3c 00 d5 da bb
       0.10496369 0.23664638 0.02576536 -0.0066782236
0003b0 4f 06 7c be 48 23 dd bc d0 8d 8b bd 18 3a c5 3d
       -0.24611782 -0.026994362 -0.06814158 0.09630221
0003c0 c2 4d e0 bd c6 60 4c be 70 f0 55 bd 10 10 c7 3d
       -0.10952331 -0.19958791 -0.052231252 0.097198606
0003d0 82 4f 84 be 78 d6 cc bc de 6e 04 3e cc 20 80 3d
       -0.2584191 -0.02500461 0.12932917 0.062562555
0003e0 e8 aa 32 3d 04 6f 3e be 00 bd 86 be a2 01 7b 3e
       0.04362002 -0.18597037 -0.2631607 0.24512342
0003f0 88 58 13 be 8c 37 8d 3d 70 b1 6f 3d ff 56 85 3e
       -0.1438924 0.0689536 0.058518827 0.26042935

bias f4 [128]
000000 dc 67 db 3d 2c 06 49 be 54 b4 7f be 40 3b 49 3c
       0.10713169 -0.1963126 -0.24971133 0.012282193
000010 fe 61 a6 bd 73 5d 7b be d6 ee 7a 3e 68 7d 04 be
       -0.08124159 -0.24547367 0.24505171 -0.12938464
000020 7c 68 42 be 7c c3 d4 3d 53 4d 04 be 68 ef 88 bd
       -0.1898517 0.10388848 -0.12920122 -0.06686288
000030 0c 3d 24 3e 80 84 7c 3b 4e d0 73 3e 6c 18 28 3e
       0.16038913 0.0038531125 0.2380993 0.16415566
000040 56 3a 2d 3e 20 72 a7 3c 58 8a 75 bd a8 9b f8 3d
       0.16916785 0.020440161 -0.059946388 0.12139064
000050 bc 8e 8b bd 1a ec 2b 3e 9e 91 83 be f0 f1 a8 3d
       -0.06814334 0.16789284 -0.25697035 0.08249271
000060 af 66 17 be 3b f5 53 be 5b ba 64 be 5e 77 3b be
       -0.14785264 -0.20699017 -0.22336714 -0.18307254
000070 ac c3 31 be 9e 9d c8 bd 5c ca 07 be d6 da 54 3e
       -0.17359799 -0.09795688 -0.13260788 0.20786604
000080 c6 94 53 3e e4 aa 19 bd f8 cd 3c be 58 3a bc 3d
       0.20662221 -0.03751649 -0.18437946 0.09190816
000090 6c ca 27 bd 32 de 7b 3e c8 80 56 3d 0a 61 79 3e
       -0.04096453 0.2459648 0.05236891 0.24353424
0000a0 f0 fd 92 3c c8 86 6d 3e 55 fc 6b be ac a3 9f 3d
       0.017943352 0.23195946 -0.23045476 0.0779489
0000b0 b0 30 a3 bc be 32 c5 bd 94 51 e6 3d 42 ba e3 bd
       -0.019920677 -0.09628819 0.112460285 -0.1111951
0000c0 60 f0 64 3c 18 9b 2a 3e 88 90 24 3e 80 ec a4 3c
       0.0139733255 0.16660726 0.1607076 0.020132303
0000d0 48 5c b2 bd 80 f2 f3 3d a0 a5 27 3e 4d db 66 be
       -0.087090075 0.119114876 0.16371775 -0.22544594
0000e0 1c f5 35 3e 90 7c 3a 3d 26 51 4f 3e 24 43 e1 3d
       0.17769283 0.04552895 0.202458 0.10999134
0000f0 de de 55 3e f0 6c 19 be 1c 55 ac 3d 5a 50 2f be
       0.20885798 -0.14982963 0.08414671 -0.17120495
000100 14 9b 88 3d 8a 8d 6d 3e 20 f4 31 be 44 20 55 3e
       0.06670204 0.23198524 -0.17378283 0.2081309
000110 48 b3 9a 3d a0 68 1e bc bf 9f 5e be 48 51 c7 3d
       0.075537264 -0.009668499 -0.21740626 0.097323
000120 48 eb 5e 3d e8 7d 44 3d 60 a7 f7 3c 68 ea 5b bd
       0.0544236 0.047971636 0.030231178 -0.053690344
000130 b0 6b 26 be 6f 8d 0a be 1f bb 87 be 0c 28 bc 3d
       -0.16252017 -0.13530515 -0.2650995 0.09187326
000140 39 5b 3f be 5c 1b a4 bd dc 73 fb bd 77 a6 1c be
       -0.18687142 -0.08013031 -0.12277958 -0.15297876
000150 5b 40 48 be 18 25 5e 3e 00 db 27 bd 18 31 65 3e
       -0.195558 0.21693838 -0.04098034 0.22382009
000160 58 2f 1f be ba de 1d 3e 70 93 ee bd 4a 62 fd bd
       -0.15545404 0.15416995 -0.11649215 -0.12372263
000170 72 05 c1 bd c6 cd 64 3e 0e 09 4f 3e 98 94 ae bd
       -0.09424867 0.22344121 0.20218298 -0.08524436
000180 2a ea 0a 3e 68 8a 6b 3d 99 e2 84 3e 10 45 79 3d
       0.13565889 0.05750504 0.2595413 0.06085688
000190 80 21 5c 3c 5c b5 9b bd d8 fe d5 bd 20 4d d8 3d
       0.013435721 -0.07602951 -0.10448998 0.105615854
0001a0 e6 cf 7f 3e 98 73 3f be 0e f9 a4 bd 3c 63 c4 3d
       0.2498165 -0.1869644 -0.08055316 0.0958924
0001b0 02 b1 36 3e 6f d5 84 be 6a f2 85 be 59 e1 85 be
       0.1784096 -0.25944087 -0.2616151 -0.2614849
0001c0 8c 5f 8d bd 20 46 63 bc d8 c5 22 be e0 39 10 bd
       -0.0690299 -0.0138717 -0.15895784 -0.035211444
0001d0 74 19 2f 3e a0 24 2e 3e 60 c8 eb 3d c0 96 3b bc
       0.17099553 0.17006159 0.11512828 -0.011449516
0001e0 8c d1 cd bd 2c 9e eb 3d 68 32 1a 3d 67 9b 81 3e
       -0.100497335 0.11504778 0.037645727 0.25313875
0001f0 8c ae 32 be 24 4b ae 3d 41 21 81 3e 98 0b 45 bd
       -0.17449397 0.08510426 0.25220683 -0.04810676

weight f4 [128, 128]
000000 10 cf 01 3c 0e 0c dd bc 19 6d 87 3d 72 d1 52 3d
       0.007922903 -0.026983287 0.066126056 0.051469274
000010 df 85 91 bd 42 8e 87 bd 62 b0 67 3d 66 fb 13 3d
       -0.07105612 -0.066189304 0.056564696 0.036128424
000020 40 77 dd 3c cd 52 47 bd 59 bf a6 3d 58 12 33 bc
       0.027034402 -0.04866295 0.081419654 -0.010929666
000030 3a 0c 43 3d 00 40 64 37 be 96 0d 3d de 5e 4c 3d
       0.047619082 1.360476e-05 0.034567587 0.04989516
000040 a8 e7 cf 3c 5e 58 73 3d cd 10 a2 3d 16 29 fb bc
       0.025379017 0.059410445 0.07913361 -0.03065924
000050 e1 67 a8 3d 83 9d 41 bd 21 dc 6a bd 32 38 6e 3d
       0.08222938 -0.047269356 -0.057338838 0.05815906
000060 f0 0e 8f bb 5e 2b 6b bd 53 87 ab 3d 5e 05 07 bd
       -0.0043657944 -0.057414405 0.083754204 -0.032964103
000070 98 fd ae 3c 5b 7f 61 bd 57 af 9e 3d 48 0e 4d bd
       0.021361157 -0.055053096 0.07748287 -0.050062448
000080 0a af 5d 3d 62 a2 48 3d a0 87 25 3b 70 f0 a8 bb
       0.05412201 0.048982985 0.002525784 -0.0051556155
000090 20 7c d2 3c 98 9d 2a 3c 78 21 41 bd fc 14 d3 3c
       0.025693953 0.01041355 -0.04715106 0.025766842
0000a0 de 68 93 bd 14 34 ed 3c 98 91 11 bc cc 61 90 bc
       -0.07197736 0.028955497 -0.00888481 -0.017624758
0000b0 0d 15 b3 bd c2 68 53 bd e3 a2 92 3d 76 55 62 3d
       -0.087442495 -0.051613577 0.071599744 0.055257283
0000c0 17 37 95 3d f6 f1 af bd a1 ac 92 3d f8 7c a1 3c
       0.07285898 -0.08591072 0.071618326 0.01971291
0000d0 10 69 c2 bb 83 af a9 3d f9 9c 0c bd 96 f8 9e bd
       -0.0059329346 0.08285429 -0.03432939 -0.07762258
0000e0 1b 0d 4c bd 38 3e 6b 3c ce 5c 55 3d e0 a6 b9 3c
       -0.049817186 0.014358096 0.05209046 0.02266258
0000f0 c6 12 a7 bd 38 3a b1 bc 9e f0 54 bd a8 78 3a 3c
       -0.081578776 -0.021634206 -0.051987283 0.011381306
000100 eb af 5a bd e0 6e 8d bd 4c 03 82 bc 97 e0 8c 3d
       -0.053390425 -0.06905913 -0.015870713 0.068787746
000110 32 08 8c bd 90 c4 28 bc 08 8d 95 bc 78 cd 07 bc
       -0.06837501 -0.01030077 -0.018255726 -0.008288734
000120 3c 58 9f bd 64 5d 96 3c 65 93 b1 3d 00 3d 4e ba
       -0.07780501 0.018355079 0.086706914 -0.0007867366
000130 a0 e9 38 3c 57 19 ac 3d 30 e5 92 bd 9e cd 1d 3d
       0.011286169 0.08403271 -0.0717262 0.03852617
000140 04 6a 8c 3c 4d de 3f bd e0 79 86 bd 33 a5 b4 3d
       0.017140396 -0.046842862 -0.065662146 0.08820572
000150 4c 6f 9b bd d2 64 7a 3d b2 69 12 bd e1 55 96 3d
       -0.075895876 0.061131306 -0.03574533 0.07340599
000160 69 9e 8c 3d fc 06 ba 3c 6e 4b 23 3d 90 f7 9f 3c
       0.06866152 0.022708409 0.039866857 0.019527227
000170 e9 0b b0 3d b6 64 94 bd e8 b8 ac 3c 6e 8a 42 3d
       0.08596022 -0.072457716 0.021084264 0.047495298
000180 e4 93 95 bc ed af 8f 3d 03 2c b4 3d ad 19 8a bd
       -0.018258996 0.07015977 0.08797457 -0.067431785
000190 b8 19 bf 3c 64 cb b8 3c 70 90 9e 3c c9 fd a6 3d
       0.023327693 0.022557922 0.019355983 0.081538744
0001a0 d0 9b 53 3c c0 a4 f9 3c 98 e0 79 bc 15 dd 97 3d
       0.012915567 0.030474067 -0.015251301 0.07415215
0001b0 a4 ad 69 bd 60 ac ee bb f0 0a d0 bb 96 98 3e 3d
       -0.057050362 -0.0072837323 -0.00634896 0.046532236
0001c0 95 d6 81 bd a2 cc f6 bc 7a 38 80 bd 5c f5 c2 3c
       -0.063397564 -0.030126873 -0.06260772 0.023798637
0001d0 c5 17 54 bd 67 16 a5 3d 00 a6 a3 3c 1e e6 09 bd
       -0.05178048 0.080609135 0.019976616 -0.033666722
0001e0 38 65 0c bc ec d3 bb bc 34 4b 71 bd 91 ca a0 3d
       -0.008569054 -0.0229282 -0.05890961 0.078511365
0001f0 8d 4d 81 3d fa 0e 38 3d 2d 6d 88 bd ab 0c 99 3d
       0.0631362 0.044936158 -0.06661449 0.07473119
000200 f0 43 1b bc 01 a0 94 3d 4e 9b 3e bd b0 c0 0d bc
       -0.009476647 0.07257081 -0.04653483 -0.008651897
000210 ce 99 9e bd d8 f1 bb bc 50 3f c8 bc 9b 45 61 bd
       -0.0774418 -0.022942469 -0.024444252 -0.05499802
000220 ca 43 68 3d e6 60 7d 3d bc 91 c0 3c d5 47 91 3d
       0.056705274 0.061859988 0.023506992 0.07093779
000230 b8 09 dc bc 40 24 5f bc 48 25 f2 3c 19 9c 8a 3d
       -0.026860103 -0.0136194825 0.029558793 0.067680545
000240 c7 6f a5 bd 00 71 c8 39 18 26 e9 3c 28 32 ce bc
       -0.080779605 0.00038231164 0.028460547 -0.0251704
000250 d7 3c ab bd a0 85 2f bc 0b e7 96 3d 80 cb 6d 3c
       -0.08361214 -0.010713011 0.07368287 0.01451385
000260 67 51 2d bd e3 db 92 3d 78 21 db 3c c3 59 15 bd
       -0.04231396 0.07170846 0.026749358 -0.036462557
000270 94 25 9e 3c e5 0a 88 3d a4 04 a5 bc fe 2e 40 3d
       0.019305028 0.06642703 -0.020143814 0.046919815
000280 86 31 75 3d f1 d1 64 bd 5e fd 1f 3d e8 5b 11 3d
       0.059861682 -0.05586428 0.03905999 0.03548804
000290 27 fb ac bd 72 cf 6d 3d d3 fc a2 bd 20 ba fa 3b
       -0.08446341 0.058059163 -0.07958379 0.0076515824
0002a0 14 ba d7 3c 21 ea 05 bd 69 e1 92 3d 91 b5 12 bd
       0.026333846 -0.032693986 0.071719 -0.035817686
0002b0 68 e5 f9 bc 10 cb 5e 3c 43 3b 05 bd c0 96 1d 3c
       -0.030504897 0.013598219 -0.03252722 0.009618461
0002c0 6d d0 a5 bd b0 04 29 3c 4e 8e 77 3d 06 9d 77 3d
       -0.08096395 0.010316059 0.060438447 0.060452484
0002d0 8c 5e fd bc 18 7b be bc 74 0a 82 bd cc cf 87 3c
       -0.030928873 -0.023252055 -0.0634965 0.016578577
0002e0 9c a6 88 bd 6e 88 b1 bd 98 81 38 3c a0 50 1b bb
       -0.06672403 -0.086686 0.011261366 -0.002369918
0002f0 3a 99 55 3d 8c ee 8e bc e7 08 8c 3d f6 91 5d 3d
       0.05214808 -0.017447732 0.068376355 0.054094277
000300 d4 db ee 3c c4 3e 8e bd d4 68 09 bd 82 3f 11 3d
       0.029157557 -0.06945565 -0.033547238 0.035460956
000310 40 52 ed 3b ad 3d ab 3d 80 46 48 bb 24 e2 84 bc
       0.007242471 0.08361373 -0.00305596 -0.016221114
000320 e4 6d ad bc 6b da 26 bd 80 98 75 bc 45 71 b3 3d
       -0.021170564 -0.040735643 -0.014989972 0.08761839
000330 0c da 17 bd 2c 27 87 bd 9c a6 f1 bc 68 3f 5c 3c
       -0.03707318 -0.06599268 -0.02949839 0.013442852
000340 17 44 ac 3d 38 6c 51 bc 83 8c 8b 3d 80 69 57 bc
       0.084114246 -0.012782149 0.0681391 -0.013147712
000350 da 2c 05 3d 41 66 35 bd df 5f ac bd 64 f5 a0 bc
       0.032513477 -0.04428697 -0.084167235 -0.019648261
000360 f8 eb 7a 3c 3e d7 89 bd 30 bb 83 3b ea c1 68 3d
       0.015315048 -0.06730507 0.004020117 0.056825556
000370 a4 46 f0 bc e0 82 7e bd 70 d5 d5 3b 4d 44 9a bd
       -0.02933056 -0.06213653 0.006525688 -0.075325586
000380 c8 33 4a 3c e6 cc 06 bd 9e c4 22 3d 40 8c 05 3c
       0.012341447 -0.03291025 0.03973829 0.008151114
000390 f7 27 56 bd 30 90 25 3c 0d 5e b3 bd 4e 28 0b bd
       -0.052284207 0.010105178 -0.08758173 -0.033973984
0003a0 a0 7a ed bb 98 c0 a7 bd e0 7f ae bd ce 8d ac bd
       -0.007247284 -0.08191031 -0.08520484 -0.084254846
0003b0 0d 79 92 3d 38 be cc bc 66 00 a5 bd e8 f5 58 3c
       0.07151995 -0.024993047 -0.080567166 0.013242222
0003c0 64 e4 92 bd 6a d5 64 3d 40 0f ce 3b 6e f0 2a 3d
       -0.07172468 0.05586759 0.006288439 0.041733198
0003d0 70 09 f9 3b 30 a3 e8 bc 40 4f 25 3b 40 b2 c9 3b
       0.007600002 -0.028398126 0.0025224239 0.0061552823
0003e0 22 0a 05 3d dc 04 c3 3c 03 4b a9 3d 30 a7 bd bb
       0.032480367 0.023806028 0.082662605 -0.0057877526
0003f0 52 46 29 3d 6a da 83 bd fa 3c 73 3d f4 cf b0 bc
       0.04132683 -0.064381436 0.059384324 -0.021583535

bias f4 [128]
000000 68 0f 1b bd 4c d1 dd 3c 84 d8 b3 bd f6 53 3e 3d
       -0.03785649 0.02707734 -0.087815315 0.04646679
000010 5e 57 39 3d 8d 13 27 bd 01 0b 1e bd 40 77 d0 bc
       0.045249335 -0.04079013 -0.038584713 -0.025447488
000020 84 8f a2 3c a2 a3 58 bd 59 15 50 bd 11 73 ae bd
       0.019843824 -0.052890427 -0.05080161 -0.08518041
000030 ff 46 a9 3d 00 08 36 3a a6 08 78 3d 35 a7 84 bd
       0.082654946 0.0006943941 0.060555123 -0.06477205
000040 b1 0e 8b 3d 0a e3 20 3d b1 d2 ab 3d 20 64 99 bb
       0.067899115 0.03927902 0.083897956 -0.0046811253
000050 7a 4e ad bd 07 ce 6f bd a2 1c 66 3d f0 6a 9f bc
       -0.08462234 -0.058546092 0.05617965 -0.019460171
000060 d4 c1 f9 3c da e0 81 bd ee 10 70 3d 4f 96 b2 3d
       0.030487932 -0.06341715 0.058609895 0.08720075
000070 72 3e 41 3d 00 a5 83 3c 4a c8 2c 3d 5f 8d ad 3d
       0.047178693 0.016069889 0.042183198 0.0847423
000080 37 b7 89 3d bc d1 d4 bc 70 c6 c1 3c 1c fa 9a bc
       0.067243986 -0.025978915 0.023654193 -0.01891809
000090 d4 c5 80 bd 57 03 af bd 98 db 6b bd f0 39 3c bc
       -0.06287733 -0.08545559 -0.057582468 -0.011488423
0000a0 17 f7 15 bd 68 81 e7 3c 42 e5 5c 3d 34 e2 90 bd
       -0.036612596 0.028259948 0.053929575 -0.07074395
0000b0 f0 4d 3b bc d3 a5 aa bd 0e 77 99 bd 28 cd ef 3c
       -0.011432156 -0.0833241 -0.07493411 0.02927263
0000c0 e3 82 3a bd df 48 68 bd 60 42 51 3b 00 58 cd 3c
       -0.04553498 -0.05671012 0.0031930432 0.025066376
0000d0 1a 59 7f 3d f3 fd 96 3d f6 c6 12 3d 9c 06 81 3c
       0.062340833 0.07372656 0.035834275 0.015750222
0000e0 e8 9d 35 3c 59 ff 1b bd f8 59 f1 3c 1d 71 a1 3d
       0.011085011 -0.038085315 0.029461846 0.07882903
0000f0 37 b4 ac 3d bc 28 99 bc 22 02 61 bd 5b 29 8f 3d
       0.08432811 -0.018696181 -0.054933675 0.0699031
000100 f2 b6 e3 bc 5e 54 26 bd 62 09 2e bd 40 11 95 bd
       -0.027797196 -0.040607803 -0.042489417 -0.07278681
000110 12 6e 08 bd 10 38 cd 3c 49 0f 87 3d 32 0a 9f bd
       -0.033308096 0.025051147 0.06594712 -0.077656165
000120 a8 db 2d bc 71 5a 2b bd f0 48 73 3c 70 e1 0f 3d
       -0.010611452 -0.0418343 0.014848933 0.035127103
000130 c6 38 2f 3d ce 23 3c bd 59 fc aa 3d 76 12 71 3d
       0.042778753 -0.045932584 0.08348913 0.058855496
000140 60 fa 78 bb 68 01 28 bc 52 ac 20 3d ac cf e3 3c
       -0.0037991032 -0.0102542415 0.039226837 0.027808987
000150 fa 30 19 3d 80 a1 4c bb 86 45 32 3d c5 bd 20 bd
       0.037400223 -0.0031224191 0.043523334 -0.03924348
000160 8c 10 c3 3c 64 ac ea 3c e0 b3 c9 3c 00 e1 6a 3a
       0.023811601 0.028646655 0.024621904 0.0008959919
000170 17 2e 83 3d d0 e0 a9 3c 5e 20 1b 3d 57 c0 36 bd
       0.06405275 0.020737082 0.037872665 -0.044617023
000180 c0 a1 d9 3a 44 c1 00 3d a8 cc 15 3d 4c dc d9 bc
       0.0016603991 0.031434312 0.03657213 -0.026594304
000190 8c 21 af bc 54 a0 b3 3c fc 9c a2 3c f1 10 6b bd
       -0.021378301 0.021927036 0.019850247 -0.057389203
0001a0 e4 50 9e 3c 52 ba 5b 3d 60 36 07 3c 9e fe 54 bd
       0.019325681 0.053644486 0.00825271 -0.052000634
0001b0 a3 0a 95 3d 3e f4 20 3d 89 01 a9 3d 00 78 da b9
       0.072774194 0.039295428 0.08252246 -0.00041669607
0001c0 64 c2 2e bd 1d ac 9d bd 64 ad 12 bd db 6d 70 bd
       -0.042665854 -0.07698844 -0.03580989 -0.058698516
0001d0 9a fb b4 bd 70 6b 00 bc 33 ca 9e 3d 5d 64 9e bd
       -0.08837052 -0.007838115 0.0775341 -0.077339865
0001e0 b6 85 a8 bd f6 d7 4b bd fc e6 b8 bc 9a 2d 76 3d
       -0.08228628 -0.049766503 -0.02257108 0.060102083
0001f0 a8 1f 5f 3c 50 0d 43 bc c8 bc e7 3c 38 d6 d1 bc
       0.013618387 -0.011905029 0.02828826 -0.025614843
