maddpg/expert_agent/expert_spread_n3/agents_best.ckpt (torch_old, 555002 bytes, 38 tensors)

weight f4 [128, 14]
0	0x3e1bce63	0.15215449
1	0xbce6de3d	-0.028182143
2	0x3d3d380b	0.046196025
3	0x3de6bdd0	0.112666726
4	0x3e9be23c	0.3044604
5	0xbe5f0bd8	-0.21781862
6	0xbdce737c	-0.10080621
7	0x3d2c5334	0.042071536
8	0x3e20736b	0.15669028
9	0x3eac33d0	0.3363328
10	0x3f7f4d85	0.9972766
11	0x3f7a52b1	0.9778243
12	0xc00dd052	-2.2158399
13	0xbff3051a	-1.8985932
14	0x3ea10068	0.31445622
15	0xbe8fe28e	-0.28102535
16	0xbe8e7351	-0.27822354
17	0x3e647061	0.22308494
18	0x3ef30a23	0.4746867
19	0xbeaa2051	-0.3322778
20	0xc0077362	-2.1164174
21	0x3ff1820e	1.8867815
22	0x3ee4b915	0.44672456
23	0xbef6e388	-0.48220468
24	0xbf027fb2	-0.509761
25	0x3eaf4951	0.34235623
26	0xbefd70be	-0.49500078
27	0x3ecf9d16	0.40549535
28	0xbc24dace	-0.010061933
29	0xbe377d57	-0.17918907
30	0x3e0eef40	0.13958454
31	0x3e6603b7	0.22462355
32	0xbc59868e	-0.013276709
33	0x3a2ed2ce	0.00066689856
34	0xbf215791	-0.6302424
35	0x3d349e2a	0.04409615
36	0x3ff9b9cb	1.9509825
37	0x3f982d65	1.1888853
38	0xbf27f922	-0.6561452
39	0xbedbc91c	-0.42926872
40	0xbf03da4c	-0.5150497
41	0xbecb9f21	-0.39769843
42	0xbd4f2da3	-0.050580632
43	0x3e931066	0.2872345
44	0x3d1ff0bb	0.039047938
45	0x3eb3eae9	0.3514016
46	0xbf604dc7	-0.8761868
47	0x3f234954	0.63783765
48	0x3fb5502a	1.4165089
49	0xbf4b7687	-0.79477733
50	0xbe4eb6da	-0.2018694
51	0xbea48a01	-0.3213654
52	0x3e66d759	0.22543086
53	0xbf0f142b	-0.5589015
54	0x3e09f558	0.13472497
55	0xbec18382	-0.37795645
56	0x3e000332	0.12501219
57	0xbe2b5b99	-0.1673416
58	0xbbd38212	-0.0064547146
59	0xbc98f6a2	-0.018672291
60	0xbea87e36	-0.3290879
61	0xbf2e35ce	-0.6805085
62	0xbe2f9642	-0.17147163
63	0x4005fdbd	2.093612
64	0x3d0bfe1f	0.034177896
65	0xbf2d6f8b	-0.67748326
66	0xbe702729	-0.23452438
67	0xbe6231ba	-0.22089282
68	0xbe97ccc8	-0.29648423
69	0xbe6405d5	-0.2226785
70	0x3e469e7e	0.19396397
71	0xbe3399a9	-0.17539085
72	0x3f0e3c59	0.55560833
73	0xbec397b8	-0.3820169
74	0x3ef1f590	0.47257662
75	0x3e654b1c	0.22391933
76	0xba653790	-0.0008743936
77	0xbe9307fa	-0.28717023
78	0x3e161a6e	0.1465852
79	0x3d66488c	0.05622153
80	0xbfa62c44	-1.2982259
81	0xbf8afa61	-1.085766
82	0xbf9212ca	-1.1411984
83	0xbf558999	-0.8341308
84	0x3e195a3d	0.1497583
85	0x3ea4fac7	0.32222578
86	0x3d9868c2	0.07441856
87	0x3e05df91	0.13073565
88	0xbe6b9ef2	-0.23009852
89	0xbf4cd732	-0.8001586
90	0x3fd1737d	1.6363369
91	0x3fa6f32c	1.304296
92	0xbf6ccd7d	-0.9250105
93	0xbe9cc4d7	-0.30618927
94	0xbf021fff	-0.5083007
95	0xbf339661	-0.70151335
96	0xbeadbbb2	-0.33932263
97	0xbf1b8e64	-0.60764146
98	0x3f49e708	0.7886815
99	0x3eb2ce31	0.34922937
100	0xbe0a80d5	-0.13525708
101	0x3c1f2bd8	0.009715043
102	0xbfa449db	-1.2835039
103	0xbed7f1f5	-0.42176786
104	0xbd2a7dd5	-0.04162391
105	0x3e22e81d	0.15908857
106	0xbdfdca81	-0.1239214
107	0xbe28f4e1	-0.16499664
108	0xbf69aa59	-0.91275555
109	0xbebca16d	-0.36841908
110	0xbf8e4db9	-1.1117469
111	0xbe8e3340	-0.27773476
112	0x3d98d62d	0.07462726
113	0xbd6bb6ce	-0.057547383
114	0x3da98ea2	0.08279158
115	0x3d7b3ce4	0.061337367
116	0x3db1b18a	0.08676441
117	0x3d2c6a45	0.042093534
118	0x3dc4de7a	0.096127465
119	0x3de56cfc	0.11202428
120	0xbe2191e0	-0.15778303
121	0x3e1b8f64	0.15191418
122	0x3f6f67e6	0.9351791
123	0xc0051779	-2.0795577
124	0xbf29a084	-0.6626055
125	0x400742b8	2.1134472
126	0xbe90156b	-0.2814134
127	0xbee1b9a9	-0.4408696
128	0x3ed3c1c2	0.41358763
129	0x3e3bc942	0.18338493
130	0xbf027268	-0.5095582
131	0xbdb7dff9	-0.08978266
132	0xbea92dcc	-0.33042753
133	0xbe786b65	-0.24259718
134	0x400c3738	2.1908703
135	0x4009f64c	2.1556578
136	0x3eab2370	0.33425474
137	0x3ec96664	0.3933593
138	0x3ee5bdff	0.44871518
139	0x3e9f69e1	0.31135467
140	0x3ed42d4e	0.41440815
141	0xbb9d3bda	-0.0047983946
142	0x3e404904	0.18777853
143	0x3e03eb4e	0.1288273
144	0xbbe2466e	-0.0069053685
145	0x3fa8d578	1.3190145
146	0xbfb47949	-1.4099513
147	0xbf8fbb4f	-1.1229037
148	0x3f50777e	0.8143233
149	0x3d214aeb	0.039378088
150	0xbf222343	-0.63335055
151	0xbd99c219	-0.07507724
152	0xbf26f9eb	-0.65225095
153	0xbdfa0c39	-0.122093625
154	0x3e840eef	0.25792643
155	0xbd29372a	-0.041312374
156	0x3cf9323c	0.030419461
157	0xbc448dcc	-0.011996698
158	0x3f09fd02	0.53901684
159	0x3f434947	0.7628369
160	0xbeb08e2e	-0.34483474
161	0xc0176c62	-2.3659902
162	0xbe38447b	-0.17994873
163	0x3eff7983	0.49897394
164	0xbe1147e4	-0.1418758
165	0x3ecda77f	0.40166852
166	0xbe7ef4de	-0.24898097
167	0x3eb1302f	0.34607074
168	0x3dbe36ca	0.09287794
169	0x3df8bdd3	0.12145581
170	0x3ead0f96	0.33800954
171	0xbe2cc712	-0.16872814
172	0x3ebbd9bf	0.36689565
173	0xbfaae0cb	-1.3349851
174	0x3f3677ec	0.71276736
175	0x3f004768	0.5010896
176	0x3e496d86	0.19670686
177	0x3ec37156	0.38172406
178	0xbf112c42	-0.5670816
179	0xbe6951f7	-0.22785173
180	0xbf1c3e0d	-0.6103218
181	0xbe68dff4	-0.22741681
182	0xbbc386b1	-0.005966984
183	0x3e143cea	0.14476362
184	0xbdc40809	-0.09571845
185	0xbe046607	-0.12929545
186	0xbf47e3de	-0.7808207
187	0xbf9b8dd7	-1.2152661
188	0x3ef2ce22	0.47422892
189	0x3f0abd13	0.54194754
190	0x3ec86ad5	0.39144006
191	0x3f0b7333	0.54472655
192	0xbf136d37	-0.57588524
193	0xbf8d3200	-1.1030884
194	0xbf03fdb8	-0.5155902
195	0xbf6fe09c	-0.937021
196	0x3e79114f	0.24323009
197	0xbe1dd97a	-0.15414992
198	0x3c4f3f33	0.012649345
199	0x3d72644b	0.059177678
200	0xbe3514c8	-0.17683709
201	0x3d35ffe3	0.044433486
202	0x3cc5d7a7	0.024150683
203	0x3ddb7b44	0.107168704
204	0x3db77393	0.08957591
205	0x3cf64d8b	0.030066272
206	0xc03717c6	-2.860826
207	0x3d41b42f	0.047290977
208	0x3f8740dc	1.0566669
209	0x3cc01fd4	0.023452677
210	0xbde8a839	-0.11360211
211	0xbe02b2f2	-0.12763575
212	0x3ea716e8	0.32634664
213	0x3b1826ee	0.0023216563
214	0x3fbe4270	1.4864025
215	0xbfd40145	-1.6562887
216	0xbfa09312	-1.2544882
217	0x3c8f9046	0.01752485
218	0x3e716edf	0.2357745
219	0x3f84397a	1.033004
220	0x3d6f70ca	0.058457173
221	0x3ec1ee13	0.3787695
222	0x3d8f44e7	0.06995564
223	0x3eb9e162	0.36304766
224	0xbe08a2bb	-0.13343327
225	0xbd0e4b43	-0.034739744
226	0x3f48d5cc	0.7845123
227	0xbdeb5b6f	-0.11492049
228	0xbf4efa6b	-0.8085086
229	0xbf8866f2	-1.0656416
230	0xbf0abc13	-0.5419323
231	0xbc117f54	-0.008880455
232	0x3b0ae439	0.002119316
233	0xbe94bd48	-0.2905066
234	0x3f782092	0.969247
235	0x3ed7cbe9	0.4214776
236	0x3f469f1d	0.7758654
237	0x3e864fa0	0.26232624
238	0xbc672b99	-0.014109516
239	0xbebc9415	-0.36831728
240	0x3c14c529	0.00908021
241	0x3e8df2c1	0.2772427
242	0x3de80b68	0.113303006
243	0xbe5e04de	-0.21681544
244	0xbe66394b	-0.22482793
245	0x4032d8ef	2.7944906
246	0x3d702b04	0.058634773
247	0xbe176229	-0.14783539
248	0xbcedbc83	-0.029020553
249	0x3e86388b	0.26215014
250	0xbe18a1af	-0.14905427
251	0x3ea69421	0.32534888
252	0xbe0df8de	-0.13864467
253	0x3da1ae4b	0.07894572
254	0x3ed5fce8	0.41794515
255	0xbcfe48fa	-0.031040657

bias f4 [128]
0	0xbda1de20	-0.07903695
1	0xbee5bc86	-0.44870394
2	0xbec1c4f7	-0.37845585
3	0xbfab5461	-1.3385125
4	0xbe845f7d	-0.25854102
5	0x3e8a1117	0.26966164
6	0xbee56fef	-0.4481196
7	0xbea8aeed	-0.32945958
8	0xbe84f6d9	-0.2596958
9	0xbe8e29a4	-0.27766144
10	0xbc739e0c	-0.014869224
11	0xbfa92bd9	-1.3216506
12	0x3e4fecf3	0.20305233
13	0xbef1b52d	-0.4720854
14	0xbedafdca	-0.4277175
15	0xbf9b8ff3	-1.2153305
16	0xbd18bda3	-0.037290227
17	0xbe75c255	-0.23999913
18	0xbea5338f	-0.322659
19	0xbf363166	-0.71169126
20	0xbe3f6dbf	-0.18694209
21	0xbf41e6f3	-0.75743026
22	0x3e5f6c90	0.21818757
23	0xbf1cd824	-0.61267304
24	0xbf1db457	-0.616033
25	0xbf9e2263	-1.2354244
26	0xbe974b32	-0.29549557
27	0xbedfb184	-0.4369012
28	0xbe95e150	-0.29273462
29	0xbf15387c	-0.58289313
30	0xbf21ab17	-0.6315169
31	0xbe48a588	-0.19594395
32	0xbf8572f0	-1.0425701
33	0x3e9c87b2	0.30572277
34	0xbe64b7d4	-0.2233575
35	0xbd873ca5	-0.06603364
36	0xbec506cc	-0.38481748
37	0xbea3a7eb	-0.3196405
38	0xbf45d142	-0.7727243
39	0x3e1e60d9	0.15466632
40	0xbf3dc3d9	-0.74126965
41	0xbf3ee8f8	-0.7457423
42	0x3e056b22	0.13029149
43	0x3e8e40b5	0.27783743
44	0xbff08758	-1.8791304
45	0xbd4ce23c	-0.05002044
46	0xbea4e028	-0.32202268
47	0xbf14d835	-0.58142406
48	0xbf22995b	-0.6351525
49	0xbeb47a44	-0.3524953
50	0xbc5a45e2	-0.013322325
51	0x3dda99db	0.10673877
52	0xbf8c5923	-1.0964702
53	0xbf89fc76	-1.078017
54	0xbf793a9d	-0.9735506
55	0xbef9d42f	-0.48794696
56	0xbf304dbc	-0.68868613
57	0xbec4a4ba	-0.38406926
58	0xbcb75b7a	-0.022382487
59	0xbf0a5e41	-0.5405007
60	0x3e5501e0	0.20801497
61	0xbf6fe777	-0.9371256
62	0x3e8d2b46	0.27572078
63	0xbf1bd8a4	-0.6087744
64	0xbef2ad68	-0.47397923
65	0xbe7a0748	-0.2441684
66	0xbe76d42b	-0.24104373
67	0xbf8e52ab	-1.1118978
68	0xbf431d3a	-0.7621647
69	0xbfa7bb27	-1.3103989
70	0xbfad05ed	-1.3517433
71	0xbeefdfbe	-0.4685039
72	0xbed89c21	-0.42306617
73	0x3e095023	0.13409476
74	0xbe60f7b5	-0.21969493
75	0xbe7e0565	-0.24806745
76	0xbd1116ad	-0.035422016
77	0xbf0a5c86	-0.5404743
78	0xbe9e1720	-0.30877018
79	0xbe8f44c8	-0.27982163
80	0x3f11bee3	0.56931895
81	0xbf24af5b	-0.6433007
82	0xbe860dda	-0.26182443
83	0xbcee7227	-0.029107166
84	0xbec5f5e4	-0.38664162
85	0x3e81ab07	0.25325796
86	0xbeb98586	-0.36234683
87	0xbe27f9b2	-0.16403845
88	0xbdfb8c89	-0.12282664
89	0xbec0c3a1	-0.37649253
90	0xbf33e102	-0.7026521
91	0xbec8d6a5	-0.3922626
92	0xbedd64c7	-0.4324095
93	0xbf227a58	-0.6346793
94	0xbf4cdeb2	-0.80027306
95	0xbf0da9fc	-0.553375
96	0xbf4af235	-0.7927583
97	0xbe49ecb7	-0.19719206
98	0xbe85af61	-0.26110366
99	0xbf285e48	-0.6576886
100	0xc08aab00	-4.333374
101	0xbea872f1	-0.32900193
102	0x3ec0b77b	0.37639984
103	0xbf1e30eb	-0.6179339
104	0xbf7baa88	-0.98307085
105	0xbdd96ac3	-0.10616066
106	0xbf300dae	-0.68770874
107	0xbe7d2c3d	-0.24723907
108	0x3e78966e	0.24276134
109	0xbeb2768a	-0.34856063
110	0xbf0bd877	-0.54627174
111	0xbe534367	-0.2063118
112	0xbf3b2e2c	-0.7311733
113	0xbe3cd83a	-0.18441859
114	0xbf3f6bfd	-0.7477415
115	0x3e4d63c3	0.20057587
116	0xbebaa191	-0.3645139
117	0xbefcb9fb	-0.49360642
118	0x3e75aaf5	0.23990996
119	0xbe707ed2	-0.23485878
120	0xbe0c3149	-0.13690676
121	0xbe7061ad	-0.2347476
122	0xbdec364c	-0.11533794
123	0xbe8cb902	-0.274849
124	0xbf1816c5	-0.59409744
125	0xbeaf4755	-0.3423411
126	0xbea64cf6	-0.32480592
127	0xbf581f8d	-0.8442314

weight f4 [128, 128]
0	0xc1395a26	-11.584509
1	0x3e312394	0.17298728
2	0xbf61461d	-0.8799761
3	0x3f4988e7	0.7872452
4	0x3d9e7717	0.07737558
5	0xc01022ef	-2.2521322
6	0xbf8b6370	-1.0889721
7	0xc057c67e	-3.37149
8	0x3ee9593c	0.45575893
9	0x3eee10d3	0.4649721
10	0xbecdad0d	-0.4017109
11	0xbcc70b65	-0.024297426
12	0x3ea9afd1	0.3314195
13	0xc00e9ba1	-2.2282488
14	0xbf01063e	-0.5040015
15	0x3eff619c	0.49879158
16	0x3f5c841a	0.8613907
17	0xbe494755	-0.19656117
18	0xbc48066d	-0.012208563
19	0x3f87cf6d	1.0610176
20	0x3fad5836	1.3542545
21	0xbed6d9a3	-0.4196292
22	0x3e588d74	0.2114771
23	0x3e20e7ff	0.157135
24	0xbddf6efd	-0.10909841
25	0x3f142bbb	0.5787923
26	0xbdef9e23	-0.11700084
27	0xbf26e233	-0.651889
28	0xbbb3b82a	-0.0054846006
29	0xbe9db38e	-0.30801052
30	0x3f7af0a8	0.9802346
31	0x3f9794ab	1.1842245
32	0x3ecba5c2	0.397749
33	0xbf27f4af	-0.6560773
34	0xc03cbcc2	-2.9490209
35	0x3f5089b2	0.81460106
36	0x3f644bf8	0.8917842
37	0x3e9734d4	0.29532492
38	0x3f48c132	0.7841979
39	0x3f45ad3f	0.7721748
40	0x3d90547b	0.07047363
41	0x3e685a26	0.22690639
42	0x3ef55e1d	0.47923365
43	0x3cc9c12b	0.024628242
44	0xbf3f6b1e	-0.7477282
45	0xbea10b8d	-0.31454125
46	0x3eb3f1ac	0.35145319
47	0x3f1b277d	0.6060713
48	0x3f63501d	0.8879412
49	0xbdc3e76e	-0.09565626
50	0x3ea29464	0.31753838
51	0xbe4303f5	-0.19044478
52	0xbf56d0f7	-0.83912605
53	0xbdb94dd5	-0.090480484
54	0x3efb91cd	0.49134675
55	0x3d73843e	0.059452288
56	0xbf305758	-0.68883276
57	0xbe4b9269	-0.1988007
58	0xbe5df574	-0.21675664
59	0xbe8973e0	-0.26846218
60	0x3ef14f2b	0.47130713
61	0xbe75f37c	-0.24018663
62	0x3f9e8f78	1.2387533
63	0xbe4025cd	-0.1876442
64	0xbe843461	-0.25821212
65	0xbfc78315	-1.5586878
66	0xc0379fe5	-2.8691342
67	0xbf98355e	-1.1891286
68	0x3fb11c10	1.3836689
69	0x3f32edc2	0.6989404
70	0x3eb998f5	0.3624951
71	0xbcab558c	-0.020914815
72	0x3d22df87	0.039763954
73	0x3f40680c	0.7515876
74	0xbec8fd39	-0.39255694
75	0xc066f42c	-3.608653
76	0x3edce9d9	0.43147162
77	0x3ec31966	0.38105315
78	0xbf41050a	-0.75398314
79	0xbf19511b	-0.5988938
80	0x3f659096	0.89673746
81	0x3e9f14ec	0.3107065
82	0x3f5785d4	0.8418858
83	0x3ee9ca66	0.4566223
84	0x3f9c256f	1.2198924
85	0x3f3ef959	0.74599224
86	0xbfe77fc8	-1.8085871
87	0x3e1c8a44	0.15287119
88	0x3ecabd68	0.3959763
89	0x3f5e5a7e	0.8685683
90	0xbf206500	-0.62654114
91	0xbef11891	-0.47089055
92	0xbe3b93ce	-0.18318102
93	0x3ea9d3d3	0.33169422
94	0xbf2a928c	-0.6662986
95	0xbfad7736	-1.3552005
96	0x3dedaf25	0.11605672
97	0x3e4e1afd	0.20127483
98	0xbf5e3ee7	-0.8681473
99	0xbf380138	-0.7187686
100	0xc0072e4c	-2.1122007
101	0xbeb77eb9	-0.3583887
102	0xbec941b8	-0.39307952
103	0x3df122c4	0.11774209
104	0x3de0e48d	0.109810926
105	0x3f1647f6	0.58703554
106	0x3ee16fcf	0.44030616
107	0xbe189a48	-0.14902604
108	0xbe21b7af	-0.15792726
109	0x3eacd9bf	0.33759877
110	0xbe9bc99f	-0.30427262
111	0xbbbf6556	-0.0058409376
112	0x3f5d920c	0.86550975
113	0x3f1f7575	0.622886
114	0xbdd32e8c	-0.103116125
115	0xbf85ace0	-1.0443382
116	0x3f1097e9	0.56481797
117	0xbf3ed278	-0.745399
118	0x3d43547e	0.047688
119	0xbf53adac	-0.8268688
120	0xbfd472ac	-1.6597495
121	0x3f12bc73	0.573188
122	0xbeb8afbb	-0.36071572
123	0xbf080460	-0.53131676
124	0xbdfaf3f7	-0.12253564
125	0xbe2a561a	-0.16634408
126	0x3ec01b77	0.37520954
127	0x3f858bb7	1.0433263
128	0xc0668aae	-3.6022143
129	0xbeb7d73a	-0.35906392
130	0xbe246e8e	-0.16057798
131	0x3ceb6e7b	0.028739205
132	0xbe981cdb	-0.29709515
133	0xbfd08245	-1.6289755
134	0xbd640e3a	-0.05567763
135	0xc010d3be	-2.2629237
136	0xbfa1bea7	-1.2636307
137	0xbeacb45d	-0.33731356
138	0x3f58be74	0.8466561
139	0xbf5f7a2f	-0.8729581
140	0x3f76f7d9	0.96471936
141	0xc004a80f	-2.0727575
142	0xbf7e2508	-0.99275255
143	0x3eaf362e	0.34221023
144	0x3f54ac51	0.83075434
145	0x3e81bf6e	0.25341362
146	0x3d7e7b05	0.06212904
147	0xbea8878f	-0.32915923
148	0x3f41d2f7	0.7571253
149	0xbfb07e96	-1.3788631
150	0xbf66c59b	-0.9014527
151	0xbfc651af	-1.5493678
152	0xbe2ac5c7	-0.16677009
153	0xbf2262f1	-0.6343222
154	0xbe109325	-0.14118631
155	0xbd685b3b	-0.05672763
156	0xbfe9714d	-1.8237702
157	0x3fa0d2bb	1.256431
158	0xbfbb5a2a	-1.4636891
159	0x3e2f4b72	0.17118624
160	0x3ead36d6	0.338309
161	0x3f0753b8	0.5286212
162	0xc0a2f4f7	-5.092403
163	0x3dfd3d64	0.12365225
164	0xbedb6de2	-0.4285727
165	0xbecb0a08	-0.3965609
166	0xbf3b0e5a	-0.73068774
167	0xbde4ac66	-0.11165695
168	0xc00394de	-2.0559611
169	0x3f73a08b	0.95166844
170	0x3da5d7bf	0.08097791
171	0x3ef19b94	0.4718901
172	0xc02589fc	-2.586547
173	0x3e1f8bec	0.1558072
174	0x3fb22c7f	1.3919829
175	0xbe4ffedf	-0.2031207
176	0xbf79f1e9	-0.9763475
177	0x3fd836e7	1.6891755
178	0xbfafbbbf	-1.372917
179	0xbe9cbeb2	-0.3061424
180	0x3fd4f6da	1.6637833
181	0x3f3a1f0c	0.72703624
182	0xbf36299d	-0.71157247
183	0x3ea3ad89	0.31968334
184	0x3f92449e	1.142719
185	0x3f57b952	0.8426715
186	0x3f1f3b95	0.6220029
187	0x3f4b7459	0.7947441
188	0xbec07e97	-0.3759658
189	0xbf530ffc	-0.82446265
190	0xbf0a5ae7	-0.54044956
191	0x4009272c	2.1430159
192	0xc0139d45	-2.306474
193	0xbe12a0d9	-0.14319171
194	0xbfe44e3a	-1.7836373
195	0x3fa7775c	1.30833
196	0xbf865e8c	-1.0497603
197	0x3fe7cc24	1.8109174
198	0xbec8c83a	-0.3921526
199	0x3fb4ea8c	1.4134078
200	0xbfcadd17	-1.5848721
201	0xbd09a7b2	-0.033607192
202	0x3cb91f8e	0.022598054
203	0x401d94b6	2.4622016
204	0xc0433b67	-3.0505006
205	0x3e3c0bc9	0.1836387
206	0x3e4e8e31	0.20171429
207	0x3f906665	1.1281248
208	0xbee24355	-0.44191995
209	0xbe14be51	-0.14525725
210	0xbe8da172	-0.27662235
211	0xbfe8e3a6	-1.8194473
212	0x3edf4b65	0.4361221
213	0xbe9f6b37	-0.31136486
214	0x3f9a51fd	1.2056271
215	0xbed4752f	-0.41495654
216	0xbe2a3283	-0.16620831
217	0xbe399749	-0.18124117
218	0xbdae6b40	-0.0851655
219	0xbd863b04	-0.06554225
220	0xbf38b6ce	-0.7215394
221	0x3f08556b	0.5325534
222	0x40526f40	3.2880402
223	0xbe41e1e3	-0.18933825
224	0xbfb29150	-1.3950596
225	0xbfbb1fb5	-1.4619051
226	0x40055300	2.083191
227	0xbff2b38a	-1.8961041
228	0xbf97b576	-1.1852252
229	0xc004f941	-2.0777133
230	0xbe9e2836	-0.30890054
231	0xbf89263c	-1.0714793
232	0xbe803982	-0.25043875
233	0xbf399039	-0.7248569
234	0xbfa36ab9	-1.2766944
235	0xbec9dbfe	-0.39425653
236	0xc05eb39d	-3.4797127
237	0x3f021fe6	0.50829923
238	0x3f81d13d	1.014198
239	0xbf2f6177	-0.68508095
240	0xbef94587	-0.48685858
241	0x3f38cf85	0.7219165
242	0xc039742b	-2.8977153
243	0xbd319022	-0.043350346
244	0x3f802d3b	1.0013803
245	0xbfd6ae7a	-1.6771996
246	0x3f3a2dc4	0.7272608
247	0xbfb1630b	-1.385835
248	0xc0911928	-4.534321
249	0x3ec86fed	0.39147893
250	0x3e8eb942	0.27875715
251	0x3f84fe13	1.0390037
252	0x3f251c53	0.64496344
253	0xbec8323b	-0.39100823
254	0x3f42f0f8	0.7614894
255	0x3f8e9ce2	1.1141627

bias f4 [128]
0	0x3d3f53fb	0.04671095
1	0x3f6ba803	0.9205324
2	0xbe10d960	-0.14145422
3	0x3eb4f704	0.35344708
4	0xbd452a48	-0.048136026
5	0xbcf0bac4	-0.029385932
6	0xbe7e64c8	-0.24843132
7	0x3f6b5888	0.9193196
8	0xbee7fe9b	-0.45311436
9	0x3f87e91a	1.0618012
10	0xbeb76197	-0.35816643
11	0xbf0cd9f2	-0.5502006
12	0x3eb69eb2	0.3566795
13	0xbe34377e	-0.17599294
14	0xbe3614f4	-0.1778143
15	0x3daf7feb	0.0856932
16	0xbf00d797	-0.50328964
17	0xbf3a1bb3	-0.72698516
18	0xbf0e0a4c	-0.5548446
19	0xbede46db	-0.43413433
20	0x3e28f19f	0.16498421
21	0xbf803ee5	-1.0019194
22	0xbdfa8c3e	-0.1223378
23	0x3d53eab7	0.051737513
24	0xbef4e49d	-0.47830668
25	0x3ffdd784	1.9831395
26	0xbf0944e1	-0.53620726
27	0xbf1e2bfe	-0.61785877
28	0xbcc938af	-0.024563162
29	0xbea49eac	-0.32152307
30	0xbf33ef8d	-0.702874
31	0xbdc7694e	-0.09736882
32	0xbe5183bb	-0.20460407
33	0xbf9618dc	-1.1726336
34	0xbe93c476	-0.28860825
35	0xbebf81e8	-0.37403798
36	0xbf014bba	-0.50506175
37	0xbe0de8e0	-0.13858366
38	0xbdd8215e	-0.10553239
39	0xbe2e7567	-0.17036973
40	0xbd9539b6	-0.07286398
41	0xbf12b67d	-0.57309705
42	0xbc8f1663	-0.01746673
43	0xbea0378d	-0.31292382
44	0xbdbcfa15	-0.09227387
45	0xbe06f750	-0.1318028
46	0xbe1ac6ff	-0.15114973
47	0x3e20dadd	0.1570849
48	0xbdc329fd	-0.09529493
49	0xbec2cd97	-0.38047478
50	0xbd98ae79	-0.07455153
51	0x3eadd41a	0.33950883
52	0xbe73117b	-0.23737137
53	0xbf16a6e7	-0.5884842
54	0x3e5c5aa1	0.21518947
55	0xbf0311ce	-0.5119904
56	0x3f2c0dec	0.67208743
57	0xbe48756f	-0.19576047
58	0xbda29c99	-0.07940025
59	0xbe2e3d0e	-0.17015478
60	0xbf32ee98	-0.69895315
61	0x3be03807	0.0068426165
62	0x3fdf4a88	1.744462
63	0xbde688d6	-0.11256568
64	0x3f50b844	0.8153117
65	0xbe20fe5a	-0.15722027
66	0xbf783f5e	-0.9697169
67	0xbd959731	-0.07304228
68	0x3e341995	0.17587884
69	0xbcf84181	-0.030304672
70	0x3f86ecd4	1.0541024
71	0xbe3fa2b3	-0.18714409
72	0x3e0a104d	0.13482781
73	0xbee6cefa	-0.45079786
74	0x3e0b18a7	0.13583623
75	0xbe56a795	-0.20962365
76	0xbe49bd44	-0.19701105
77	0xbecf0cfb	-0.4043959
78	0xbead2c23	-0.33822736
79	0xbe801e5a	-0.25023156
80	0xbf6c7d04	-0.9237826
81	0xbdb01b84	-0.08598998
82	0x3e5d9dc1	0.2164221
83	0xbe8ef61f	-0.2792215
84	0xbec371b5	-0.3817269
85	0xbf0615a7	-0.5237679
86	0x3ebb3a8e	0.3656811
87	0x3f11e9c4	0.56997323
88	0x3dfadf73	0.12249651
89	0xbf041f62	-0.51610386
90	0x3f244a56	0.6417593
91	0x3efb59a1	0.4909182
92	0x3eeb2f0b	0.45934328
93	0xbf42afb8	-0.76049376
94	0xbeb7e925	-0.35920063
95	0xbe46bee5	-0.19408758
96	0xbdb2a366	-0.08722572
97	0xbe910a5c	-0.28328216
98	0xbed526e6	-0.4163124
99	0x3d2a72d1	0.041613404
100	0xbfc142ba	-1.5098488
101	0xbe62b7e4	-0.22140461
102	0x3e877ff5	0.2646481
103	0xbda14531	-0.07874525
104	0x3f7002ba	0.9375416
105	0xbe6f68b6	-0.23379788
106	0xbee3f564	-0.44523156
107	0x3e8bd81f	0.27313325
108	0xbe096520	-0.13417482
109	0xbea758c8	-0.32684922
110	0xbefe61f0	-0.49684095
111	0x3eda1c3a	0.4259966
112	0x3f36603d	0.712406
113	0xbe247ecd	-0.16063996
114	0xbeb28a66	-0.34871215
115	0xbdcab377	-0.098975115
116	0x3f07bbc6	0.53020895
117	0xbf41e133	-0.7573425
118	0xbd3faedb	-0.046797615
119	0xbf11a04a	-0.56885207
120	0x3f3f1dfa	0.74655116
121	0xbefa3aac	-0.48872888
122	0xbf30159b	-0.6878297
123	0xbf608d92	-0.8771602
124	0x3f23f9dc	0.6405313
125	0xbec2b10e	-0.38025707
126	0xc006b107	-2.104555
127	0x3ed1a863	0.4094878

weight f4 [5, 128]
0	0xbd6e4a70	-0.058176458
1	0x3d9aeb3a	0.07564397
2	0xbd505b39	-0.050868247
3	0xbba15302	-0.0049232254
4	0xbd5e0ac3	-0.054209482
5	0x3ce592a9	0.028024035
6	0xbaed4f67	-0.0018105329
7	0xbe1c40eb	-0.15259139
8	0xbdf459e1	-0.119312055
9	0xbbe5a466	-0.007008123
10	0x3e7e5c12	0.2483981
11	0xbe158297	-0.14600597
12	0x3c14925b	0.009068097
13	0x3d7a7295	0.06114443
14	0xbe85f16a	-0.26160747
15	0x3b78b38a	0.003794881
16	0x3ae65397	0.0017572519
17	0xbe18666e	-0.14882824
18	0xbd6744f9	-0.05646226
19	0x3c7bd19e	0.015369801
20	0xbddf9414	-0.109169155
21	0xbe65e98d	-0.22452374
22	0xbe3fb4cc	-0.18721312
23	0x3d605397	0.054767217
24	0x3d47ce93	0.04878099
25	0x3bdc2709	0.0067185205
26	0x3e680893	0.22659521
27	0x3d4002d0	0.046877682
28	0x3d86468b	0.06556424
29	0x3df67570	0.12034118
30	0xbced948e	-0.0290015
31	0xbd10f2b1	-0.0353877
32	0xbe9a4314	-0.30129302
33	0xbda98bc0	-0.08278608
34	0x3dbbf396	0.0917732
35	0xbe7b35f1	-0.24532296
36	0xbdd4f038	-0.103973806
37	0xbd47db1c	-0.048792943
38	0x3d874040	0.066040516
39	0xbe0523a5	-0.13001879
40	0x3cb1db2d	0.021710956
41	0xbeb95f4b	-0.36205515
42	0xbdc32362	-0.09528233
43	0xbce01bd6	-0.027357023
44	0xbe2fc78c	-0.17165965
45	0x3d961ce6	0.07329731
46	0xbbf79417	-0.0075554955
47	0xbd14ba6d	-0.036310602
48	0x3cc93ace	0.024564173
49	0x3dca9b60	0.09892917
50	0xbbe9a79b	-0.007130576
51	0x3c525a6a	0.012838939
52	0x3d2ef5d6	0.042714916
53	0xbc0e59e6	-0.008688426
54	0xbdbe36f0	-0.09287822
55	0x3df27ca7	0.11840182
56	0x3ccebfbc	0.02523791
57	0xbcab1d3a	-0.02088796
58	0x3de33bdd	0.110954024
59	0xbe109fe0	-0.14123487
60	0x3eca6759	0.39531973
61	0xbda049ca	-0.07826574
62	0xbec169e0	-0.3777609
63	0x3d9281bc	0.07153651
64	0xbd9dd231	-0.077061065
65	0x3d3b737e	0.04576444
66	0xbd545f9e	-0.051849
67	0x3cd5c240	0.026093602
68	0xbe36e159	-0.17859401
69	0xbe03f1cf	-0.12885211
70	0xbe5f33f7	-0.21797167
71	0xbd810de1	-0.06301475
72	0xbe197690	-0.14986634
73	0x3d54c03b	0.051941138
74	0xbe44d181	-0.19220544
75	0xbdbeb780	-0.093123436
76	0xbc2cf58c	-0.01055659
77	0xbc3f221b	-0.011665846
78	0x3e622347	0.2208377
79	0xbe95e71f	-0.29277894
80	0xbc48a838	-0.012247138
81	0xbd81b1dd	-0.06332753
82	0x3c82ba01	0.015957834
83	0x3db971e6	0.090549275
84	0xbd9d4008	-0.076782286
85	0x3e15ed80	0.1464138
86	0xbd989811	-0.07450879
87	0xbe4ab40f	-0.1979525
88	0x3cb904b0	0.022585243
89	0xbead46d7	-0.3384311
90	0xbebec2c3	-0.37257966
91	0xbe05785f	-0.13034199
92	0x3dce539d	0.10074542
93	0xbe3e5352	-0.18586472
94	0xbede185d	-0.43377963
95	0xbc5f1b1f	-0.013617306
96	0x3ba814c8	0.0051294304
97	0xbee66d37	-0.450052
98	0xbe04d9c7	-0.129737
99	0xbda7b581	-0.08188916
100	0xbd103304	-0.035204902
101	0xbdca786a	-0.098862484
102	0xbc955e16	-0.01823334
103	0x3e04d947	0.1297351
104	0xbd3f03e2	-0.046634562
105	0x3e11df3c	0.14245313
106	0xbd2a6a35	-0.041605193
107	0x3d972489	0.073800154
108	0xbd8a112e	-0.06741558
109	0xbde8f970	-0.113757014
110	0xbc20959b	-0.009801294
111	0xbc2c602d	-0.010520977
112	0x3e0c20e1	0.13684417
113	0x3dce44a6	0.100716874
114	0x3d318b39	0.043345664
115	0x3bed9ced	0.007251373
116	0xbbbc6cb9	-0.0057502654
117	0xbdc98071	-0.098389514
118	0xbeb7e98d	-0.35920373
119	0x3db2456b	0.08704647
120	0xbdf3ed30	-0.11910474
121	0x3f0bebb6	0.5465654
122	0x3dfe3916	0.12413232
123	0x3cc31c05	0.023817072
124	0xbdc11401	-0.094276436
125	0xbe04375c	-0.12911743
126	0x3e4efbc2	0.20213225
127	0xbe96210d	-0.2932209
128	0xbe1ed7d6	-0.15512022
129	0x3ee18299	0.4404495
130	0x3c533181	0.012890221
131	0x3e0836a9	0.13302101
132	0x3da0d189	0.07852466
133	0x3db05c73	0.08611383
134	0x3ddf9637	0.10917323
135	0xbe7cc258	-0.24683511
136	0x3e832466	0.25613707
137	0x3e08c383	0.13355832
138	0x3e633084	0.22186476
139	0xbe45c5b6	-0.19313702
140	0xbe18a6e1	-0.14907409
141	0x3b8dc25b	0.0043261475
142	0x3e2d5ead	0.16930647
143	0x3dec69f5	0.11543647
144	0xbe812e89	-0.25230816
145	0x3ec3ec63	0.38266286
146	0xbe22bdcf	-0.15892719
147	0x3deafbaa	0.11473782
148	0x3e200529	0.15626968
149	0x3dd3d643	0.103436016
150	0x3e9ebccb	0.31003413
151	0x3dfd8652	0.12379135
152	0x3e75a432	0.23988417
153	0xbeb879f2	-0.36030537
154	0xbefcc5c2	-0.49369627
155	0x3e8204d4	0.2539431
156	0xbdeda401	-0.11603547
157	0x3e782dd8	0.24236238
158	0xbc82d6f4	-0.015971638
159	0xbe5086cb	-0.2036392
160	0x3ec4cd01	0.38437656
161	0xbe913638	-0.28361678
162	0xbe4049ec	-0.18778199
163	0xbd045cad	-0.032314945
164	0x3e8d4e3d	0.27598754
165	0xbc38244e	-0.011239124
166	0x3ecaffeb	0.39648375
167	0x3e257324	0.16157204
168	0xbd8ec082	-0.06970312
169	0xbde0d2f4	-0.10977736
170	0x3eb7d26a	0.3590272
171	0xbd7beb69	-0.0615038
172	0x3e07ae7d	0.13250156
173	0xbd552ddb	-0.052045684
174	0x3d3448ea	0.04401485
175	0xbea58e58	-0.32335162
176	0xbd0bbce8	-0.034115702
177	0xbe7513d1	-0.2393334
178	0xbd90fc35	-0.07079355
179	0xbea91809	-0.3302615
180	0xbd72a033	-0.05923481
181	0x3e54a7ef	0.20767187
182	0xbe5185a2	-0.20461133
183	0x3e79290b	0.24332063
184	0x3e4dac91	0.2008536
185	0xbd52dade	-0.05147826
186	0xbde1cb26	-0.110250756
187	0xbeb57e80	-0.35448074
188	0x3eb40c84	0.351658
189	0xbeac9c4e	-0.33713
190	0x3eeef610	0.46672106
191	0xbd576e77	-0.05259558
192	0xbe04eb7f	-0.1298046
193	0x3cbcd87f	0.023052452
194	0xbe29a975	-0.16568549
195	0x3dde0a0d	0.10841761
196	0x3c937bfd	0.018003458
197	0x3edd9914	0.43280852
198	0x3f2b6951	0.66957575
199	0xbd48fc1b	-0.04906855
200	0xbe659097	-0.22418438
201	0xbe904fb1	-0.281858
202	0xbe7332ae	-0.23749802
203	0xbe0fcea9	-0.14043678
204	0x3e3eb1d8	0.1862253
205	0x3e8fff50	0.28124475
206	0x3e6cd10b	0.23126619
207	0x3d6e6c53	0.058208775
208	0x3e1e16de	0.1543841
209	0x3d2c48b2	0.042061515
210	0x3eb3a10e	0.35083812
211	0x3d9c6b35	0.076376356
212	0x3e9ad398	0.30239558
213	0xbd87ccf0	-0.066308856
214	0xbd32c5fe	-0.04364585
215	0x3e977d23	0.2958766
216	0x3e2d81cf	0.1694405
217	0x3ed0a8f1	0.40753892
218	0xbde773b3	-0.11301365
219	0x3ccdae37	0.025107486
220	0x3e84184b	0.25799784
221	0x3e558489	0.2085134
222	0x3ebd3773	0.36956367
223	0x3e85a179	0.26099756
224	0xbb9a7cfc	-0.0047146063
225	0xbddd5398	-0.1080696
226	0xbe4a3d9d	-0.19750066
227	0xbe587b0d	-0.2114069
228	0xbda643aa	-0.08118375
229	0xbe2df015	-0.16986115
230	0x3e9d3fb8	0.30712676
231	0x3d5e7463	0.054310214
232	0xbe416416	-0.18885836
233	0x3e90ff50	0.28319788
234	0x3e1569d7	0.14591156
235	0xbebdff2f	-0.37108752
236	0xbc12c5e0	-0.00895831
237	0xbe375391	-0.17902972
238	0xbdb6a5ff	-0.0891838
239	0xbeb90216	-0.36134404
240	0xbecf1f02	-0.40453345
241	0xbe189ab4	-0.14902765
242	0xbe440ab6	-0.19144711
243	0xbf108190	-0.56447697
244	0x3e84628c	0.25856435
245	0x3bb8a2ff	0.005634665
246	0x3ec1dc68	0.3786347
247	0x3bd9ac1f	0.006642833
248	0x3ea9e120	0.3317957
249	0x3e450750	0.19241071
250	0xbedf8485	-0.43655792
251	0x3e82a2f5	0.2551495
252	0x3e386b19	0.18009605
253	0x3cbaae92	0.02278832
254	0x3e8f3f2e	0.2797789
255	0xbec41edc	-0.38304794

bias f4 [5]
0	0x3e3e8a9d	0.18607564
1	0x3e7501e2	0.239265
2	0xbe26c319	-0.16285361
3	0xbec19831	-0.37811425
4	0xbe110ed7	-0.14165817

weight f4 [128, 14]
0	0x3dbc862c	0.09205279
1	0xbdd6853a	-0.1047463
2	0xbd9c85a4	-0.076426774
3	0xbe63e864	-0.22256619
4	0xbe05d2e0	-0.13068724
5	0xbd897052	-0.067108765
6	0x3da3c6cc	0.07996902
7	0x3e872669	0.26396492
8	0x3e4c76b0	0.1996715
9	0x3e3f8c82	0.18705943
10	0xbd861ec8	-0.0654884
11	0xbe1ff1b8	-0.15619552
12	0xbe76a7de	-0.24087474
13	0x3d956488	0.072945654
14	0xbdbaec02	-0.09127046
15	0xbdff08a6	-0.124528214
16	0x3e80c885	0.25152984
17	0xbe877318	-0.26454997
18	0xbe3a9de8	-0.18224299
19	0x3ca0d170	0.019631118
20	0x3ca42d20	0.020041049
21	0xbe7835a2	-0.2423921
22	0xbddb3922	-0.107042566
23	0xbd02eed4	-0.031966045
24	0x3e49c67c	0.19704622
25	0x3de052bc	0.1095328
26	0xbde4bfdc	-0.11169407
27	0x3e6fc976	0.23416695
28	0xbe87f397	-0.26553032
29	0xbe80b3c7	-0.2513716
30	0xbe1dea8c	-0.15421504
31	0x3e3e7154	0.18597919
32	0xbe4e3ddc	-0.20140785
33	0xbe02299d	-0.12711187
34	0xbdcff876	-0.10154812
35	0xbc989570	-0.018625945
36	0xbe1e7170	-0.1547296
37	0x3c75a8e0	0.014993876
38	0xbdfb459e	-0.12269138
39	0xbdc98310	-0.09839451
40	0x3d841010	0.06448376
41	0xbdaf204a	-0.085510805
42	0xbe161868	-0.14657748
43	0xbe5ef0d8	-0.21771562
44	0x3da6bde0	0.081416845
45	0x3e032092	0.12805393
46	0xbe6d139c	-0.23152012
47	0xbe5be0c4	-0.2147246
48	0xbcb26e90	-0.021781236
49	0xbcc21968	-0.023693755
50	0x3e1ae70c	0.151272
51	0xbd927f3c	-0.07153174
52	0xbdfb8690	-0.12281525
53	0xbdfdab0e	-0.12386142
54	0xbce20aa8	-0.027592972
55	0xbd91de64	-0.07122496
56	0xbdb61e80	-0.08892536
57	0xbe46e180	-0.19421959
58	0x3c8ea350	0.017411858
59	0x3dada040	0.08477831
60	0x3b5af280	0.0033408701
61	0xbd20ff88	-0.039306194
62	0x3e49d392	0.19709614
63	0x3db58ac8	0.08864361
64	0x3d721dc0	0.059110403
65	0x3e0761b6	0.13220868
66	0x3d80d6a4	0.062909395
67	0x3e13322c	0.14374608
68	0x3e17ef04	0.14837271
69	0xbe26e520	-0.16298342
70	0x3e27f352	0.16401413
71	0xbd50c7cc	-0.05097179
72	0xbe57e593	-0.2108367
73	0xbdfa6198	-0.12225646
74	0xbe40e2f4	-0.18836576
75	0x3e23dfbc	0.16003317
76	0x3dcd8404	0.100349456
77	0x3e193e34	0.14965135
78	0x3c29b2e0	0.0103575885
79	0xbd351608	-0.044210464
80	0xbda34af2	-0.07973279
81	0xbe80c571	-0.25150636
82	0xbd56914c	-0.05238466
83	0x3e238c86	0.15971574
84	0xbdced5a6	-0.10099344
85	0x3e2076aa	0.15670267
86	0x3e76781a	0.24069253
87	0xbe6c7433	-0.23091201
88	0xbc25f640	-0.010129511
89	0x3d7f7bd0	0.062373936
90	0xbda697dc	-0.081344336
91	0xbe597776	-0.21236977
92	0xbe53bcb0	-0.20677447
93	0x3e713846	0.23556623
94	0x3d9ab1c4	0.07553437
95	0x3e87eb53	0.26546726
96	0xbe658030	-0.22412181
97	0xbc759f00	-0.014991522
98	0xbcf94650	-0.030429035
99	0xbdce16b8	-0.10062927
100	0xbdd5aa8a	-0.10432918
101	0x3e4cb552	0.19991043
102	0x3e130c64	0.14360195
103	0x3d2f4e48	0.042799264
104	0xbcef3508	-0.029200092
105	0x3e173f0c	0.14770144
106	0x3de63778	0.112410486
107	0xbe808da0	-0.2510805
108	0xbd04e084	-0.032440677
109	0x3e659602	0.22420505
110	0xbd61e87c	-0.055153355
111	0x3e43cd8c	0.19121379
112	0xbe887eae	-0.2665915
113	0xbe14a00e	-0.14514181
114	0xbe15dfb9	-0.14636125
115	0x3e133f8a	0.14379707
116	0xbe73d788	-0.23812687
117	0x3da73164	0.081637174
118	0xbe28ccb6	-0.16484341
119	0xbdb96f42	-0.09054424
120	0x3e46acc2	0.1940184
121	0xbe1c1c80	-0.15245247
122	0xbdb6a9ae	-0.089190826
123	0xbca90f68	-0.02063723
124	0xbe3b6620	-0.18300676
125	0x3e589c38	0.21153343
126	0xbe25b670	-0.16182876
127	0xbd88146e	-0.06644522
128	0xbe819864	-0.25311577
129	0x3d0cf740	0.034415483
130	0xbde06a18	-0.10957736
131	0x3e4075f6	0.18794999
132	0xbe6dd80c	-0.23226947
133	0xbe29621c	-0.16541332
134	0xbd646584	-0.055760875
135	0x3d725b10	0.059168875
136	0x3e266218	0.16248357
137	0xbd96da58	-0.073658645
138	0xbe3ca2ee	-0.18421528
139	0xbe452f00	-0.1925621
140	0xbcb8d928	-0.022564486
141	0xbd12ca3c	-0.035837397
142	0x3d04c630	0.03241557
143	0xbdc3fb26	-0.09569387
144	0xbd029cec	-0.031887934
145	0xbdb0dd64	-0.08635977
146	0xbde669ca	-0.112506464
147	0xbdf6753e	-0.12034081
148	0x3e13fa08	0.14450848
149	0x3d34a928	0.044106632
150	0x3e0f63e8	0.14002955
151	0xbdeeab42	-0.116537586
152	0xbdb9b1c6	-0.09067111
153	0xbe48e7a2	-0.19619611
154	0xbe6820e9	-0.22668804
155	0x3dfd1560	0.123575926
156	0x3e0d129e	0.13776633
157	0x3e756286	0.23963365
158	0x3e1c9610	0.1529162
159	0xbdf398c4	-0.11894372
160	0xbd3ff540	-0.046864748
161	0xbe5a6e40	-0.2133112
162	0x3e0a2fde	0.13494822
163	0x3e0bfd66	0.13670883
164	0xbd51a44c	-0.051182076
165	0xbe2fcc96	-0.17167887
166	0xbe7857f2	-0.24252298
167	0xbe81566c	-0.25261247
168	0x3daddbe0	0.084892035
169	0x3db404e8	0.08789998
170	0x3de90a08	0.113788664
171	0x3db59dac	0.08867964
172	0x3dbaa290	0.091130376
173	0x3e41228a	0.18860832
174	0x3dde76d8	0.108625114
175	0xbdceb9fc	-0.100940675
176	0xbd3cca5c	-0.046091422
177	0xbe716a9a	-0.23575822
178	0x3e8114cb	0.25211176
179	0x3df5a514	0.11994377
180	0xbe47dbc8	-0.19517434
181	0x3e0b8a10	0.13626885
182	0x3dcd033c	0.100103825
183	0x3d32f9c0	0.04369521
184	0xbc666da0	-0.014064223
185	0x3e41c7ba	0.18923846
186	0xbdaf6144	-0.08563474
187	0xbda1a4b2	-0.07892741
188	0x3e6ef9a2	0.23337415
189	0xbd7e4188	-0.062074214
190	0xbdadd00a	-0.08486946
191	0x3d87f480	0.066384315
192	0xbe826a4b	-0.2547172
193	0x3e0b342e	0.13594124
194	0x3e010702	0.1260033
195	0x3da6b118	0.08139247
196	0xbe424a7e	-0.18973729
197	0x3e6fca4a	0.23417011
198	0x3bfc9500	0.007708192
199	0xbc9f1e08	-0.0194235
200	0xbe240878	-0.16018856
201	0xbdd1abfa	-0.1023788
202	0x3e0db868	0.13839877
203	0xbe4ce70e	-0.20010015
204	0xbd831f54	-0.0640246
205	0xbe570193	-0.20996694
206	0xbe78c40b	-0.24293534
207	0xbb81af00	-0.003957629
208	0xbd1ee9b4	-0.038797095
209	0xbe152aa7	-0.14567052
210	0xbdd7b32a	-0.1053222
211	0xbe6844ea	-0.22682539
212	0x3d72c830	0.059272945
213	0xbe64c17d	-0.22339435
214	0x3c5d0c60	0.01349172
215	0xbd9a9b1e	-0.075491175
216	0xbe4f30c8	-0.20233452
217	0x3e5ac988	0.2136594
218	0x3d9fc3e0	0.07801032
219	0x3e58a712	0.21157482
220	0x3e1b9dd2	0.15196922
221	0xbe1832b2	-0.14863089
222	0x3e254dac	0.1614291
223	0xbdee8d54	-0.1164805
224	0x3c22a180	0.0099262
225	0x3d4aaa90	0.049479067
226	0x3d1b0728	0.03784862
227	0xbd211310	-0.03932482
228	0x3dec6d44	0.11544278
229	0x3e18b7d6	0.14913878
230	0xbc846350	-0.016160637
231	0xbd1b8fdc	-0.037978992
232	0x3d899b4c	0.06719074
233	0xbd612bc4	-0.05497338
234	0xbcdadb40	-0.026715875
235	0xbe21ad9a	-0.1578888
236	0x3e2cce24	0.16875511
237	0xbb7aa880	-0.0038247406
238	0x3e813a07	0.25239584
239	0x3ce07270	0.027398318
240	0xbe2d269d	-0.16909261
241	0xbcde6d28	-0.02715166
242	0xbe2d01f4	-0.16895276
243	0xbe05806a	-0.13037267
244	0xbb77d800	-0.0037817955
245	0x3e78dad2	0.24302223
246	0xbe5ae0f9	-0.21374883
247	0xbd1f8058	-0.038940758
248	0x3d9405b0	0.07227647
249	0x3e128b9e	0.14311072
250	0xbdd2dbd6	-0.10295837
251	0xbe5bb945	-0.21457393
252	0x3d9899a8	0.074511826
253	0xbe1deaa0	-0.15421534
254	0xbe74cf2e	-0.23907158
255	0x3e150120	0.1455121

bias f4 [128]
0	0xbdefcba2	-0.11708762
1	0xbe394f8c	-0.18096751
2	0x3e1f3194	0.15546256
3	0xbe226d8c	-0.15862101
4	0x3c8c7d80	0.017149687
5	0xbe8417f2	-0.2579952
6	0xbe05f448	-0.13081467
7	0xbdd82c76	-0.10555355
8	0x3e7c5566	0.24641952
9	0x3d4e0788	0.05030015
10	0xbd0a08d8	-0.03369984
11	0x3d5a8228	0.053346783
12	0x3e218088	0.15771687
13	0xbd3eb9fc	-0.046564087
14	0xbe6b9ac4	-0.23008257
15	0xbd15ea68	-0.0366005
16	0xbe21a742	-0.1578646
17	0xbda9203c	-0.08258101
18	0xbe8192df	-0.25307366
19	0xbe01b6d3	-0.12667398
20	0x3e48eae0	0.19620848
21	0xbe633157	-0.2218679
22	0xbe55b9b2	-0.20871618
23	0x3e3b66fc	0.18301004
24	0xbdd1aaa8	-0.10237628
25	0xbe2ce218	-0.16883123
26	0x3e199346	0.14997587
27	0x3d1e0788	0.0385814
28	0xbe201ca7	-0.1563593
29	0x3e4cc6f2	0.19997767
30	0x3d93dd38	0.072199285
31	0x3da9d39c	0.082923144
32	0x3d16ddc0	0.03683257
33	0xbe4bc30c	-0.19898623
34	0x3dc2567c	0.09489152
35	0x3dfc4f84	0.12319854
36	0xbdd09896	-0.101853535
37	0x3e81d9dd	0.2536153
38	0xbdd0aab0	-0.10188806
39	0xbd4d2a7c	-0.050089344
40	0x3e04ebda	0.12980595
41	0xbe44c3ae	-0.19215271
42	0x3e62c768	0.2214638
43	0x3e0e50f0	0.13898063
44	0xbdc7b12e	-0.09750591
45	0xbe14482c	-0.14480656
46	0x3e571744	0.21004969
47	0xbc03b120	-0.008037835
48	0x3e11d2fa	0.14240637
49	0x3d8618f8	0.06547731
50	0xbe55794d	-0.20847054
51	0x3e6e2856	0.23257574
52	0x3b83d100	0.0040227175
53	0x3dbe2090	0.092835546
54	0xbe42add5	-0.19011624
55	0x3e087ea4	0.1332956
56	0x3dcd4b6c	0.10024151
57	0x3c20c000	0.009811401
58	0x3e3aad2c	0.18230122
59	0x3e6ec8ae	0.2331874
60	0xbd8c7cc2	-0.06859733
61	0x3e1d1162	0.15338662
62	0x3dc278b0	0.094956756
63	0xbd925b8a	-0.07146366
64	0xbde99830	-0.114059806
65	0x3e40c5e6	0.18825492
66	0xbc8f40c8	-0.017486945
67	0x3de1d040	0.11026049
68	0xbde2d354	-0.11075464
69	0xbded93e0	-0.116004705
70	0x3dbd175c	0.09232971
71	0x3c585cc0	0.013205707
72	0xbd2a1f20	-0.04153359
73	0x3c0b0ae0	0.0084864795
74	0x3e746da2	0.23869947
75	0x3d561b20	0.052271962
76	0x3d6e86d8	0.058234066
77	0xbdb52d34	-0.088465124
78	0xbe46fa9f	-0.19431542
79	0x3e4090f0	0.1880529
80	0x3d110d50	0.035413086
81	0x3de86a70	0.11348426
82	0xbe72354f	-0.23653148
83	0x3e24e91a	0.16104546
84	0x3e6e0200	0.2324295
85	0x3e2c6240	0.16834354
86	0xbe052169	-0.13001026
87	0x3e7b2d6e	0.24529049
88	0xbe3c0dd6	-0.18364653
89	0xbe555450	-0.20832944
90	0x3dc24a78	0.0948686
91	0x3e0ed49e	0.13948295
92	0x3df91e24	0.12163952
93	0x3e707a96	0.23484263
94	0x3cf9c790	0.030490667
95	0xbe7fca92	-0.24979618
96	0x3e599616	0.2124866
97	0x3dd5f5b0	0.10447252
98	0xbe871c82	-0.26388937
99	0xbd964768	-0.073378384
100	0x3cbd28c0	0.02309072
101	0x3df0b948	0.117540896
102	0xbdf4ff76	-0.11962788
103	0x3e72a482	0.23695567
104	0xbdca5314	-0.09879127
105	0x3be533c0	0.0069946945
106	0xbe6f014b	-0.23340337
107	0xbdc5c2f6	-0.096563265
108	0xbe38610c	-0.1800577
109	0x3d4e60a8	0.050385147
110	0xbc9442f8	-0.01809834
111	0xbc1ff840	-0.009763777
112	0xbe82ab35	-0.25521246
113	0xbe4cafce	-0.19988939
114	0x3e86f6bb	0.26360115
115	0x3d42ce70	0.047560155
116	0x3da787a4	0.08180168
117	0xbe52905a	-0.20562878
118	0xbe515e57	-0.20446144
119	0xbe1c0e20	-0.15239763
120	0xbe76c19e	-0.24097297
121	0x3d5c5b38	0.05379793
122	0x3cef8cc0	0.02924192
123	0xbe2a5c3c	-0.16636747
124	0x3cf4e0a0	0.029892266
125	0xbd3290f8	-0.043595284
126	0x3e19df78	0.15026653
127	0x3e31584a	0.17318836

weight f4 [128, 128]
0	0x3da10687	0.07862573
1	0xbd9bc7b3	-0.07606449
2	0xbd0a534a	-0.033770837
3	0x3b584c40	0.0033004433
4	0xbda39403	-0.07987215
5	0xbd24a694	-0.040197924
6	0xbd4142de	-0.04718291
7	0xbcdaf296	-0.026727002
8	0x3cd48798	0.025943562
9	0x3d5ed3e6	0.0544013
10	0xbd9e47be	-0.077285275
11	0x3c5b4360	0.013382763
12	0x3d95613b	0.07293936
13	0x3d766dfa	0.060163476
14	0xbd64310d	-0.05571084
15	0x3da9e18f	0.08294975
16	0xbd9bb57b	-0.07602974
17	0xbc762290	-0.015022889
18	0x3d24b966	0.040215872
19	0x3d032b14	0.032023504
20	0x3d7132aa	0.058886208
21	0xbc3fb678	-0.011701219
22	0xbda8cb88	-0.082419455
23	0xbd827a86	-0.06371026
24	0xbd1b0c77	-0.037853684
25	0xbd82d599	-0.06388397
26	0x3d39923e	0.045305483
27	0x3d3eb596	0.046559893
28	0xbd72980c	-0.059227034
29	0x3c8ad720	0.016948283
30	0x3da4df2f	0.080503814
31	0x3c70aa88	0.014689095
32	0x3d5f0f3a	0.05445788
33	0x3d85bf57	0.06530636
34	0xbd22aa04	-0.03971292
35	0xbd982e94	-0.07430759
36	0x3d83ca7d	0.06435106
37	0xbd1d74a2	-0.038441308
38	0xbbe68430	-0.007034801
39	0xbb16d660	-0.002301596
40	0xbb967b70	-0.0045923516
41	0xbb23e200	-0.0025006533
42	0x3c01f958	0.007932983
43	0x3db444f9	0.08802218
44	0xbd550ae1	-0.052012328
45	0xbb03a340	-0.0020086318
46	0xbd29e47e	-0.041477673
47	0xbd850b08	-0.06496245
48	0x3d63f836	0.055656634
49	0xbd721044	-0.059097543
50	0xbd8a5f41	-0.067564495
51	0xbd89370e	-0.06699954
52	0x3cfd947c	0.030954592
53	0x3d15011e	0.03637802
54	0xbd4af2b7	-0.049547877
55	0xbca67334	-0.020318605
56	0x3b8adb20	0.0042375475
57	0xba8bcf40	-0.0010666624
58	0xbda76caa	-0.08175023
59	0xbd5e9c82	-0.054348476
60	0xbbb668b0	-0.005566679
61	0xbd44b912	-0.04802806
62	0x3c6b3fd0	0.014358476
63	0xbd9e94cc	-0.077432245
64	0xbb15eb20	-0.002287574
65	0xbdb3a3b6	-0.0877146
66	0xbd87bb24	-0.06627491
67	0xbdb1aec4	-0.08675912
68	0x3d1bc4ca	0.03802947
69	0xbc98666c	-0.018603526
70	0x3da243bb	0.07923075
71	0x3d76fa4e	0.060297303
72	0xbd398b94	-0.045299128
73	0x3d78f30a	0.060778655
74	0xbcdaa5b0	-0.026690334
75	0x3db13c81	0.08654118
76	0xbc3beec8	-0.011470504
77	0xbc82b79c	-0.015956692
78	0x3dae620b	0.08514794
79	0x3d1184d6	0.035527073
80	0x3bb052e0	0.005380973
81	0x3cd28294	0.02569703
82	0xbd44a6c1	-0.04801059
83	0x3d998789	0.074965544
84	0x3cc034e4	0.02346272
85	0x3ca21f74	0.019790389
86	0x3da56ebb	0.08077761
87	0xbd4961f3	-0.049165677
88	0x3cc9eb88	0.024648443
89	0xbcbb4358	-0.02285926
90	0xbd326574	-0.043553784
91	0x3d8bc821	0.06825281
92	0x3d48fe66	0.04907074
93	0x3d8781ff	0.06616592
94	0x3da149fb	0.07875439
95	0x3d997a1d	0.074939944
96	0x3dac6233	0.084171675
97	0x3cd28124	0.025696345
98	0x3ccf2b94	0.025289334
99	0xbcf548de	-0.029941972
100	0x3d927c23	0.071525835
101	0x3d9c817f	0.07641887
102	0x3c0e3d68	0.008681633
103	0xbd088b3d	-0.033335913
104	0xbd6e14fb	-0.058125477
105	0xbd0ecd1c	-0.034863576
106	0xbdb36734	-0.08759919
107	0xbc0e9740	-0.008703053
108	0xbd870c74	-0.06594172
109	0xba55bd80	-0.0008153543
110	0x3d80eb41	0.06294871
111	0x3da37abf	0.07982396
112	0xbad17940	-0.001598157
113	0xbd3d6f32	-0.046248622
114	0xbd89ca08	-0.067279875
115	0xbd4f42e8	-0.050600916
116	0xbd403ae3	-0.04693116
117	0x39554600	0.0002033934
118	0x3d86969f	0.065716974
119	0xbc3aebf0	-0.011408791
120	0x3d6b47f2	0.05744166
121	0x3d43c342	0.047793634
122	0xbd30c051	-0.043152157
123	0xbcad4074	-0.021148898
124	0xbcc4350c	-0.023951076
125	0x3d9f2961	0.07771564
126	0xbd7ce616	-0.061742865
127	0xbd8d9f24	-0.06915119
128	0xbd8278f2	-0.06370725
129	0xbcddf878	-0.027096018
130	0x3d7a44ce	0.061100774
131	0xbd575f59	-0.052581165
132	0xbd7149b3	-0.058908176
133	0x3d806411	0.06269086
134	0xbc316870	-0.0108281225
135	0x3c861810	0.016368896
136	0x3c667198	0.014065169
137	0xbc1959e0	-0.009359807
138	0x3da85cc5	0.082208194
139	0xbd70d01c	-0.05879222
140	0xbd89a8d4	-0.067216545
141	0xbd82a7c8	-0.06379658
142	0xbd8523b2	-0.06500949
143	0xbd46efe8	-0.048568636
144	0xbd2e654c	-0.042577073
145	0x3db1766d	0.08665166
146	0x3d5779fa	0.05260656
147	0x3d68005e	0.056640975
148	0xbbacfad0	-0.0052789226
149	0x3cbf8f74	0.023383833
150	0xbdaef4c3	-0.08542778
151	0xbcb44ba4	-0.022008725
152	0x3d99aa85	0.07503227
153	0x3cc7cf1c	0.02439075
154	0x3d26af4e	0.040694527
155	0xbd86aba9	-0.0657571
156	0xbd9d8a76	-0.07692425
157	0xbd8216ca	-0.06352003
158	0xbd62c054	-0.0553592
159	0xbd508460	-0.050907493
160	0x3d21896e	0.039437704
161	0xb8817800	-6.173551e-05
162	0xbd88a7d6	-0.06672637
163	0xbd13eb1d	-0.036112893
164	0x3c3b8b80	0.011446834
165	0xbccc91dc	-0.024971895
166	0xbb09db20	-0.002103515
167	0xbd25ac0e	-0.040447287
168	0x3d34cae6	0.04413881
169	0xbd97bfe3	-0.07409646
170	0xbceb80b8	-0.028747901
171	0xbd20e92b	-0.039284866
172	0x3d3ac882	0.045601375
173	0x3db07775	0.086165346
174	0x3da51147	0.08059936
175	0x3c97e828	0.018543318
176	0xbdb0ea7a	-0.08638473
177	0x3cd5e1b0	0.026108593
178	0x3d87a875	0.066239275
179	0x3d23d73a	0.040000178
180	0xbd9d381d	-0.076767184
181	0x3caeba40	0.021329045
182	0x3d940a87	0.072285704
183	0xbda9befb	-0.0828838
184	0x3bc0ffc0	0.005889863
185	0x3cb54e34	0.022132017
186	0xbd48afaf	-0.04899567
187	0x3d8302df	0.06397032
188	0x3d96ddc3	0.073665164
189	0x3c1fb7b0	0.009748384
190	0xbd9d7305	-0.07687954
191	0x3d594baa	0.053050674
192	0x3d9e9b51	0.07744468
193	0xbd08826c	-0.033327505
194	0x3a3fe880	0.0007320717
195	0xbda48c54	-0.08034578
196	0xbd1c1317	-0.038104143
197	0x3d974103	0.07385447
198	0xbd873a23	-0.066028856
199	0xbd60e018	-0.054901212
200	0xbd0f741f	-0.03502285
201	0xbd6b2928	-0.057412297
202	0x3d5d468e	0.054022364
203	0x3d95b3f5	0.07309715
204	0xbd65526f	-0.055986818
205	0x3daa875f	0.08326601
206	0xbb3f1d40	-0.0029161721
207	0x3d32784e	0.043571763
208	0x3c1d6ce0	0.009608477
209	0xbb40bca0	-0.0029409304
210	0x3d3cf832	0.046135135
211	0x3daf6f71	0.08566178
212	0xbd9d4636	-0.07679407
213	0x3da88043	0.08227589
214	0x3c83ede4	0.016104646
215	0xbc81729c	-0.01580172
216	0x3d150748	0.036383897
217	0x3d4e3272	0.050341077
218	0x3d94ac5f	0.0725944
219	0xbc77d970	-0.015127525
220	0x3d9e81d1	0.07739604
221	0x3d147706	0.036246322
222	0xbda47d6a	-0.08031733
223	0x3ce1d8bc	0.027569167
224	0xbca1600c	-0.019699119
225	0x3d936c15	0.071983494
226	0xbd3e11a7	-0.046403553
227	0x3d76c416	0.060245596
228	0x3d1d315a	0.038377143
229	0x3cb79994	0.022412099
230	0x3d84eba3	0.06490257
231	0x3d5905ea	0.052984156
232	0xbda41190	-0.08011162
233	0xbc8b9658	-0.017039463
234	0x3bcce8e0	0.006253347
235	0x3d95ec09	0.07320411
236	0x3d23957e	0.03993749
237	0x3cc45088	0.023964182
238	0x3ba17d30	0.0049282536
239	0xbdb183d7	-0.086677246
240	0x3d976ca1	0.07393766
241	0x3cb1ce80	0.021704912
242	0x3d15a976	0.036538564
243	0xbcd6654c	-0.026171349
244	0x3d36e88a	0.04465536
245	0x3d133256	0.035936676
246	0x3d348e32	0.04408092
247	0x3d462e3e	0.048383944
248	0x3da13e1d	0.07873175
249	0x3d841a73	0.06450357
250	0xbd5963cd	-0.053073693
251	0x3d0d2e38	0.034467906
252	0x3d31e46a	0.043430723
253	0xbbefb140	-0.007314831
254	0xbd81ed27	-0.06344061
255	0x3d0bd82a	0.034141697

bias f4 [128]
0	0xbd447145	-0.047959585
1	0xbd9d9b8a	-0.07695682
2	0x3cb8acfc	0.022543423
3	0xbd797f82	-0.060912617
4	0xbcc7cb34	-0.024388887
5	0x3d66831e	0.056277387
6	0xbcfa67a0	-0.03056699
7	0x3d94c37b	0.072638474
8	0xbd05fb87	-0.03271058
9	0xbd3cd771	-0.0461039
10	0xbd22b6c9	-0.0397251
11	0xbc727910	-0.014799371
12	0x3d31ff32	0.043456264
13	0xbcbd7524	-0.023127146
14	0x3d7d085a	0.061775543
15	0x3c8736e4	0.016505666
16	0x3d752d62	0.059857734
17	0xbd33cb45	-0.043895025
18	0x3d72076e	0.059089117
19	0xbdab0112	-0.083498135
20	0xbd20aaf4	-0.039225534
21	0x3bf502f0	0.007477157
22	0xbda51691	-0.08060945
23	0xbd0891e4	-0.033342257
24	0xbceba046	-0.028762948
25	0xbd90029c	-0.07031748
26	0xbc72b5d0	-0.014813855
27	0x3cb3df4c	0.021957062
28	0xbd67320d	-0.056444217
29	0xbce2c9c6	-0.027684104
30	0x3d1c42a2	0.038149484
31	0x3c9cf27c	0.019158594
32	0x3d824f7d	0.063628174
33	0x3da0184f	0.078171365
34	0x3cfc1a34	0.030774213
35	0x3d8cc23f	0.06872987
36	0xbcb94654	-0.022616543
37	0xbd4a6b3a	-0.049418665
38	0xbd9c1408	-0.07621008
39	0x3d3ce4e2	0.046116717
40	0x3d77f9ee	0.060541086
41	0x3d9a4467	0.07532578
42	0x3d3bba4a	0.045831956
43	0xbd5b8b9c	-0.05359994
44	0xbda0899c	-0.07838747
45	0x3ccaa408	0.02473642
46	0xbda0162f	-0.07816731
47	0x3d0dfa5e	0.034662597
48	0x3a6c8000	0.0009021759
49	0xbda4301c	-0.08016989
50	0x3d56e9b6	0.052468978
51	0x3d49ae26	0.049238347
52	0xbd5b7fda	-0.053588726
53	0xbcb509d0	-0.022099406
54	0x3d87513f	0.06607293
55	0x3d0e6216	0.03476151
56	0xbd4a1465	-0.049335856
57	0x3d93653d	0.07197044
58	0x3d135b70	0.035975873
59	0x3daa4f41	0.08315898
60	0x3dab8087	0.08374124
61	0xbd703f24	-0.058653966
62	0xbd2e1cda	-0.042507984
63	0xbd135e6c	-0.03597872
64	0x3da03f59	0.078245826
65	0x3bd633a0	0.006536916
66	0x3d13ce04	0.036085144
67	0x3d1b0856	0.037849747
68	0x3d7095fa	0.05873678
69	0xbd9e81d4	-0.077396065
70	0xbd7ee3bc	-0.062228903
71	0xbd33e991	-0.04392392
72	0x3d471706	0.04860594
73	0x3d77e5f2	0.060522027
74	0x3d3a9bbe	0.045558684
75	0x3d63ad7e	0.055585377
76	0xbdaa5a5b	-0.08318015
77	0xbd61760b	-0.055044215
78	0xbd5d7079	-0.05406234
79	0x3cb2b240	0.021813512
80	0x3d5f0dea	0.05445663
81	0xbd3745b7	-0.04474422
82	0xbc9438b8	-0.018093452
83	0x3d85d8c3	0.06535485
84	0x3cbcb670	0.023036212
85	0x3b1c6b80	0.0023867786
86	0x3d3589d6	0.044320904
87	0xbcb73034	-0.022361852
88	0xbd611fd8	-0.05496201
89	0xbd835d8d	-0.06414328
90	0xbca6da88	-0.020367876
91	0xbcabece8	-0.02098699
92	0x3bd17600	0.0063922405
93	0x3c273a78	0.010206811
94	0xbba772c0	-0.005110115
95	0xbcbd7e0c	-0.023131393
96	0xbd731e17	-0.059354868
97	0x3daefa7b	0.08543869
98	0x3d01a6e8	0.031653315
99	0xbd8f3118	-0.06991786
100	0x3d1a202a	0.03762833
101	0xbd7768f2	-0.060402818
102	0x3ca5a88c	0.020221971
103	0x3d953f81	0.07287503
104	0x3db3c46b	0.08777698
105	0xbcac0188	-0.020996824
106	0x3d5e975a	0.05434356
107	0xbcb5eb0c	-0.022206806
108	0x3ceecfe8	0.029151872
109	0x3d8fe48f	0.07026016
110	0x3d954c4b	0.07289942
111	0x3db368ad	0.087602
112	0x3da182f7	0.07886308
113	0xbd8e1b4e	-0.06938802
114	0xbce9b0e0	-0.028526723
115	0xbd147215	-0.03624161
116	0xbd9731cc	-0.07382545
117	0x3d4c0a7e	0.049814694
118	0x3cfe14b8	0.031015739
119	0x3c6d2f38	0.01447659
120	0x3ce68e98	0.028144166
121	0x3d353436	0.044239245
122	0x3ca03bbc	0.019559734
123	0x3cd3ea74	0.025868632
124	0x3d8bfba5	0.06835107
125	0xbc0620a0	-0.008186489
126	0xbc7c29a0	-0.015390784
127	0x3c1e4798	0.009660624
