maddpg/trained_ckpt/advisor_simple_spread_n3/agents.ckpt (torch_old, 554866 bytes, 38 tensors)

weight f4 [128, 14]
0	0xbc3b39dc	-0.011427369
1	0xbf156908	-0.5836339
2	0x3e3a6cf1	0.1820562
3	0xbf03b746	-0.5145153
4	0xbdb5f176	-0.08883946
5	0xbe63ed1a	-0.22258416
6	0xbdd08b94	-0.101828724
7	0xbeab0b14	-0.3340689
8	0xbcd007ff	-0.025394438
9	0xbe797b75	-0.24363501
10	0x3dc58078	0.09643644
11	0x3daa8078	0.08325285
12	0x3d08211e	0.033234708
13	0x3df6600f	0.120300405
14	0x3e41f859	0.18942393
15	0xbdae766c	-0.08518681
16	0xbdc1d5cf	-0.09464609
17	0xbdcc0f95	-0.099639095
18	0xbe91db49	-0.28487614
19	0x3f011bc2	0.5043298
20	0xbe9002ff	-0.28127286
21	0xbefdf342	-0.49599653
22	0xbec805ef	-0.39067027
23	0x3f199a83	0.6000139
24	0xbe090275	-0.13379844
25	0x3e84153c	0.2579745
26	0xbe49d8cb	-0.19711606
27	0x3ea39cc7	0.3195555
28	0x3e9e3d06	0.30905932
29	0x3e185522	0.14876226
30	0xbe962767	-0.29326937
31	0xbe68e807	-0.22744761
32	0xbe73760a	-0.23775497
33	0xbd5b1b15	-0.053492624
34	0x3ccf9cb6	0.02534328
35	0x3cdd8682	0.027041677
36	0xbe34fd87	-0.17674838
37	0xbe634cd2	-0.22197273
38	0xbef2e0fa	-0.47437268
39	0xbea8b50e	-0.32950634
40	0xbefcaf86	-0.49352664
41	0xbead07f1	-0.3379512
42	0xbd7eb770	-0.06218666
43	0xbde4aed3	-0.111661576
44	0x3de19f7b	0.110167466
45	0xbe042a28	-0.12906706
46	0x3f6a1785	0.9144214
47	0xbf067025	-0.5251487
48	0xbeea6895	-0.45782915
49	0x3e2a0a41	0.16605474
50	0x3cd2ec48	0.025747433
51	0x3e35b50c	0.17744845
52	0xbcfc0a56	-0.030766647
53	0x3ee8d8ef	0.45478007
54	0xbe4a96bc	-0.19784063
55	0x3edda0d2	0.4328676
56	0x3c32d87d	0.010915873
57	0x3cebb234	0.028771497
58	0x3d7ee965	0.0622343
59	0xbc9d4194	-0.01919631
60	0x3f0c67c0	0.5484581
61	0xbf32d2f3	-0.6985313
62	0xbc3384e4	-0.010956977
63	0x3ed28f53	0.41124973
64	0xbef28635	-0.47368017
65	0x3e959768	0.29217076
66	0x3e87da99	0.26533964
67	0xbebfce3b	-0.3746203
68	0x3e870ca0	0.2637682
69	0xbeb8f60f	-0.36125228
70	0xbd7adc4f	-0.06124526
71	0x3e0c480a	0.13699356
72	0xbe0ddb00	-0.13853073
73	0xbd992f35	-0.07479707
74	0x3d29b2cb	0.041430276
75	0xbd3b03e9	-0.045658026
76	0x3d969f5e	0.07354616
77	0xbcefd9cd	-0.02927866
78	0x3d064060	0.032776237
79	0x3db2eed6	0.087369606
80	0x3ec7951c	0.3898095
81	0xbf8cc417	-1.0997342
82	0xbe20cdf9	-0.15703572
83	0xbe810b45	-0.2520391
84	0x3caf4cfd	0.021399016
85	0x3d02b418	0.031910032
86	0x3e45b9fe	0.19309232
87	0xbe081a5e	-0.13291308
88	0xbc5d4af1	-0.013506637
89	0xbd72c644	-0.059271112
90	0x3e07244f	0.13197444
91	0xbe253091	-0.16131808
92	0xbd63ee33	-0.055647086
93	0x3e5d264c	0.2159664
94	0x3f6af47d	0.9177931
95	0xbe8f6f90	-0.28014803
96	0xbf66b8c6	-0.9012569
97	0xbe6f9e6a	-0.23400274
98	0x3dd440ef	0.103639476
99	0x3d3053c8	0.04304865
100	0xbbf170e7	-0.0073681953
101	0xbaa4cd2b	-0.0012573352
102	0xbf9cf5f3	-1.2262558
103	0xbef3022d	-0.47462597
104	0xbab145ac	-0.0013524792
105	0xbd1cbe35	-0.038267333
106	0xbd37b389	-0.044848952
107	0xb9a1a6f0	-0.0003083269
108	0xbc2a3f2c	-0.010391038
109	0x3c579d8f	0.0131601235
110	0xbbcd236c	-0.006260326
111	0x3ca7a78b	0.020465633
112	0xbcfffa54	-0.031247295
113	0x3dd31035	0.103058256
114	0xbd70472b	-0.05866162
115	0xbd9c6909	-0.07637221
116	0x3e6eaebf	0.23308848
117	0x3fb35f27	1.4013413
118	0xba5d1632	-0.00084337883
119	0x3d86678f	0.06562721
120	0xbbf5229d	-0.007480933
121	0x3d596bdc	0.05308138
122	0x3ba322fc	0.0049785357
123	0xbcc6e312	-0.024278197
124	0xbca402d2	-0.020020876
125	0xbd3fc5c7	-0.046819475
126	0xbdd12f2b	-0.10214075
127	0xbdfc2f9c	-0.12313768
128	0xbe09567b	-0.13411896
129	0xbe708cba	-0.23491183
130	0x3e6f2bbc	0.23356527
131	0x3ea7a286	0.32741183
132	0xbe94d64a	-0.2906974
133	0xbf9af37f	-1.2105559
134	0x3e0de4c3	0.13856797
135	0x3ee3de04	0.44505322
136	0x3e78ed96	0.24309382
137	0x3dedb0fe	0.11606024
138	0x3ea9fdb1	0.33201364
139	0xbcb93596	-0.02260856
140	0xbda66963	-0.0812557
141	0xbb5ebe8e	-0.003398809
142	0xbd28b00d	-0.04118352
143	0x3e0eac10	0.13932824
144	0xbe818df4	-0.25303614
145	0x3ec333c8	0.38125443
146	0xbe1b055a	-0.1513876
147	0x3e25a3dd	0.1617579
148	0x3f26f716	0.65220773
149	0xbf37f5bd	-0.7185934
150	0x3eb444e1	0.352088
151	0xbe57af26	-0.21062908
152	0xbee6ebab	-0.45101675
153	0x3eb82273	0.35963783
154	0x3dee2e04	0.116298705
155	0xbe113af5	-0.14182647
156	0xbe763203	-0.24042515
157	0x3e5f2874	0.21792775
158	0x3ef19124	0.47181046
159	0xbe04fa3a	-0.12986079
160	0xbfa92e57	-1.3217267
161	0x3f9b3a02	1.2127078
162	0x3d3a8075	0.045532662
163	0xbeda5a2c	-0.4264692
164	0xbd0b3d7c	-0.033994183
165	0xbc570225	-0.01312307
166	0x3ccbb2b4	0.024865486
167	0x3d461008	0.048355132
168	0xbdaab359	-0.08334989
169	0x3d05d289	0.032671485
170	0x3d8b8926	0.06813268
171	0xbc0230d7	-0.007946215
172	0xbd7b28eb	-0.06131832
173	0x3d03f3c8	0.03221491
174	0xbd27a63c	-0.040930018
175	0x3ca92b4f	0.020650534
176	0xbff0632c	-1.8780265
177	0x3fb29694	1.3952203
178	0x3d2b2f30	0.04179305
179	0xbbe8e64b	-0.007107531
180	0x3d5f9845	0.054588575
181	0xbcb955e6	-0.022623967
182	0xbeed42ad	-0.46339932
183	0xbe8f977a	-0.28045255
184	0xbe3a8dee	-0.18218204
185	0xbd28cf62	-0.0412134
186	0x3e9d9c91	0.30783513
187	0x3de8fd1c	0.11376402
188	0x3e45acde	0.19304225
189	0x3e0a7c66	0.13524017
190	0x3df6e1c1	0.12054778
191	0x3e7e0a80	0.24808693
192	0x3ed5c390	0.41750765
193	0x3e38827c	0.18018526
194	0x3f242e4b	0.6413314
195	0x3ec8e48c	0.39236867
196	0x3d281d3b	0.0410435
197	0xbd2b8c48	-0.04188183
198	0x3d9d2d29	0.07674629
199	0x3e3b7531	0.18306424
200	0xbd95f4bd	-0.07322071
201	0xbeb67149	-0.35633305
202	0xbe0c90aa	-0.1372706
203	0xbe649025	-0.22320612
204	0x3e15f951	0.14645888
205	0x3eda59f6	0.4264676
206	0x3c56e204	0.01311541
207	0xbe1ba368	-0.15199053
208	0xbcb5f672	-0.02221224
209	0xbdaa351d	-0.08310912
210	0xbe047ca0	-0.12938166
211	0xbe6c950a	-0.23103729
212	0x3d1eb799	0.03874931
213	0x3e464100	0.19360733
214	0x3e0ff69f	0.14058922
215	0xbe9be504	-0.30448163
216	0x3df872af	0.12131249
217	0xbe2e997b	-0.17050736
218	0xbe5d5cf4	-0.2161749
219	0x3ff3c39b	1.9044069
220	0x3e04a313	0.12952833
221	0x3dbbdb68	0.09172708
222	0x3de668f0	0.11250484
223	0x3e8d329f	0.27577683
224	0xbe2ae44c	-0.16688651
225	0x3e8a980b	0.27069125
226	0x39aecbbc	0.0003333966
227	0x3be8219e	0.0070840856
228	0x3f550b59	0.8322044
229	0xbf94ea1e	-1.1633947
230	0xbe4c8992	-0.19974354
231	0x3e4ea182	0.20178798
232	0xbe367b53	-0.17820482
233	0x3e7e31e6	0.24823722
234	0x3e67853a	0.22609416
235	0xbe73ef40	-0.23821735
236	0x3e52507c	0.20538515
237	0xbe5c76ef	-0.21529745
238	0x3e2096f8	0.1568259
239	0x3e9a4e73	0.30137977
240	0xbc9a0171	-0.018799515
241	0x3ca69b0d	0.020337606
242	0xbf2bc5dd	-0.6709879
243	0xbf865702	-1.0495303
244	0x3d2ec3ce	0.042667203
245	0x3e0c40d6	0.13696608
246	0x3db8442d	0.089973785
247	0x3e141c85	0.14464004
248	0xbdac136f	-0.08402144
249	0xbe0cc4ea	-0.13746992
250	0xbda457d3	-0.08024564
251	0xbe2d7969	-0.16940846
252	0xbd7e8699	-0.06214008
253	0xbe6785d3	-0.22609644
254	0xbd910568	-0.07081109
255	0xbc490a2b	-0.012270491

bias f4 [128]
0	0x3e858cf1	0.26084092
1	0xbe87d870	-0.26532316
2	0x3e5e2cca	0.21696773
3	0xbe944937	-0.28962108
4	0x3cff6080	0.031173944
5	0xbe9b1865	-0.3029205
6	0xbdb24215	-0.087040104
7	0xbe3162a8	-0.1732279
8	0x3e13ca6c	0.14432687
9	0xbe57ad1e	-0.21062133
10	0x3df43d87	0.11925798
11	0xbe9442fd	-0.28957358
12	0x3d8a05bd	0.06739376
13	0xbea4b3d2	-0.32168442
14	0x3ee1039c	0.43948066
15	0xbceb2fb4	-0.02870927
16	0x3e4e1b4e	0.20127603
17	0xbe8c1289	-0.2735789
18	0xbe7975ec	-0.2436139
19	0xbe525c3d	-0.20542999
20	0xbe4b1314	-0.19831496
21	0xbea9f580	-0.33195114
22	0xbf83b78e	-1.0290391
23	0xbd0ec8b1	-0.034859363
24	0xbec6e001	-0.38842776
25	0xbf03470f	-0.512803
26	0x3e1d2d48	0.15349305
27	0x3e3e4923	0.18582587
28	0xbf023835	-0.50867015
29	0xbe95e1d5	-0.2927386
30	0x3e872488	0.2639506
31	0x3edb630e	0.4284901
32	0xbe2e87e9	-0.17044033
33	0x3e8bb782	0.27288443
34	0x3e9ba64e	0.30400318
35	0x3e8c6d2f	0.2742705
36	0x3e3bcc84	0.18339735
37	0x3e6e00be	0.2324247
38	0x3e3b3a44	0.18283945
39	0xbe4b734b	-0.198682
40	0xbc71cb35	-0.014757921
41	0x3e96f918	0.29486918
42	0xbdf2701b	-0.11837789
43	0x3e5776e4	0.21041447
44	0x3e0f8b03	0.14017873
45	0xbe3a6fbe	-0.18206689
46	0x3e73fc00	0.23826599
47	0xbebcc53f	-0.36869237
48	0xbe7f0965	-0.24905927
49	0xbeb275c3	-0.3485547
50	0xbc9ec404	-0.019380577
51	0x3ea3ee66	0.3201782
52	0x3e50da37	0.20395742
53	0x3e82cb7e	0.25545877
54	0xbe80499e	-0.25056165
55	0x3ebac601	0.3647919
56	0x3d9d7b1e	0.07689498
57	0xbd9795db	-0.074016295
58	0x3e27f977	0.16403757
59	0xbdf3d704	-0.11906245
60	0xbe0a6aa8	-0.13517249
61	0x3e9bda60	0.30440044
62	0x3e971409	0.29507473
63	0xbe9fa19d	-0.3117799
64	0xbe36782a	-0.17819276
65	0x3e2e8d96	0.17046198
66	0xbed3e5ee	-0.4138636
67	0xbc03553f	-0.00801593
68	0xbebef076	-0.37292832
69	0x3de1d033	0.11026039
70	0xbe996da2	-0.29966456
71	0xbe187bba	-0.14890948
72	0x3e935c3d	0.2878131
73	0x3e5eac93	0.2174552
74	0x3e05cf36	0.13067326
75	0x3e08a522	0.13344243
76	0xbe05f206	-0.13080606
77	0x3dbd17d3	0.0923306
78	0xbd955e25	-0.07293347
79	0x3de5eb5f	0.11226534
80	0x3d7131d7	0.05888542
81	0xbdc767a4	-0.09736565
82	0xbdbe77a9	-0.09300167
83	0xbd961259	-0.07327718
84	0x3dbaf6f2	0.09129132
85	0x3b96bcdf	0.004600152
86	0x3d286798	0.04111442
87	0xbd8df83e	-0.06932114
88	0x3e35a77e	0.17739674
89	0xbe08a00e	-0.13342306
90	0x3d2d69d6	0.04233726
91	0xbe17e1b9	-0.148322
92	0x3e0894c6	0.13338003
93	0x3d96409f	0.07336544
94	0x3e157eb3	0.14599113
95	0x3e15e788	0.14639103
96	0xbd9a65b0	-0.075389266
97	0x3ebb7782	0.36614615
98	0xbe39e606	-0.18154153
99	0x3d87ff9d	0.06640551
100	0xbe2330e1	-0.15936615
101	0xbcf16e50	-0.029471546
102	0xbe78a8c9	-0.24283136
103	0x3e81dc3d	0.2536334
104	0xbe4c8f2e	-0.19976494
105	0xbd66553d	-0.056233633
106	0x3e5a51c0	0.21320248
107	0x3e8830bc	0.2659968
108	0xbe495cac	-0.19664258
109	0xbd97f27b	-0.07419296
110	0xbe013788	-0.1261884
111	0x3c77abab	0.015116612
112	0x3e8cbc28	0.27487302
113	0x3d9e74d8	0.0773713
114	0xbecc89bf	-0.39948842
115	0x3e862269	0.26198128
116	0x3d878e1a	0.066189006
117	0x3e130691	0.14357974
118	0x3e7e2d15	0.24821885
119	0x3e1d13fe	0.15339658
120	0xbeb8647d	-0.36014166
121	0x3e5f6997	0.21817623
122	0xbe8e39ca	-0.27778465
123	0x3eafbb10	0.34322405
124	0x3e6d31a3	0.23163466
125	0xbdcf01f5	-0.10107795
126	0xbf2f065b	-0.6836907
127	0xbe97a71c	-0.29619682

weight f4 [128, 128]
0	0xbc2f9284	-0.010716084
1	0xbf095054	-0.53638196
2	0x3e092648	0.1339351
3	0xbeae3b38	-0.34029555
4	0x3da6fc8e	0.0815364
5	0x3e746cbd	0.23869605
6	0xbe677a82	-0.22605327
7	0xbeeabc75	-0.45846906
8	0x3dee3f71	0.11633194
9	0x3e9ea491	0.3098493
10	0xbeaed916	-0.34149998
11	0xbe86fe23	-0.26365766
12	0x3ea483f1	0.32131913
13	0x3de1285c	0.10994026
14	0x3c7dd022	0.015491517
15	0x3ece4938	0.40290236
16	0xbd8f304d	-0.069916345
17	0xbe7e0ae8	-0.24808848
18	0x3e72b067	0.23700105
19	0x3e0d3025	0.13787897
20	0xbed1e528	-0.40995145
21	0xbe86816a	-0.2627061
22	0x3ebaa0af	0.36450717
23	0xbedb0530	-0.42777395
24	0x3e5693b0	0.20954776
25	0xbd37116c	-0.04469435
26	0x3dc9872c	0.09840235
27	0x3e7a23a3	0.24427657
28	0xbd7ae0f2	-0.06124968
29	0xbf4e26d8	-0.8052802
30	0xbe2ae984	-0.16690642
31	0xbda51df0	-0.08062351
32	0xbebd0b8f	-0.3692288
33	0x3ebf02a6	0.37306708
34	0xbe7c8119	-0.24658622
35	0x3dce7d85	0.10082535
36	0x3ed838dc	0.4223088
37	0x3e2f85ee	0.17140934
38	0x3cb6e279	0.022324787
39	0xbb97b9a6	-0.0046302853
40	0x3d5bf2b5	0.05369826
41	0x3ef0622c	0.469499
42	0x3d54854c	0.051884934
43	0xbfc7e52b	-1.5616812
44	0x3ef8c598	0.48588252
45	0x3e35ca6c	0.17752999
46	0x3ece2a2c	0.4026655
47	0x3e1d7c1e	0.15379378
48	0x3e961f70	0.2932086
49	0x3ea9b973	0.331493
50	0x3e3f02d5	0.18653424
51	0xbdde91de	-0.10867666
52	0xbe616622	-0.22011617
53	0xbfa253ee	-1.2681863
54	0x3e442e4d	0.19158287
55	0x3eae48be	0.34039873
56	0x3e1ff0f8	0.15619266
57	0x3e165196	0.1467956
58	0x3e17c62f	0.14821695
59	0xbf11f10b	-0.5700843
60	0xbe9544e6	-0.29154128
61	0x3f325048	0.6965375
62	0x3e8207b2	0.25396496
63	0xbda8a899	-0.082352825
64	0x3f35758a	0.70882475
65	0xbccbed15	-0.024893323
66	0x3e2d2a92	0.1691077
67	0xbdeb683b	-0.1149449
68	0xbe1e0740	-0.15432453
69	0x3d4c7717	0.04991826
70	0x3e53e3b3	0.20692329
71	0x3d84029c	0.0644581
72	0x3ee0f4ef	0.4393687
73	0xc01f7f18	-2.4921322
74	0x3e1c1448	0.15242112
75	0x3dc423bd	0.09577129
76	0xbee3df2e	-0.4450621
77	0x3f039b79	0.5140911
78	0xbeda3a4d	-0.42622605
79	0x3e964e44	0.29356587
80	0xbded3feb	-0.11584457
81	0x3f35ebe1	0.7106305
82	0xbf39f577	-0.72640175
83	0xbebfd332	-0.37465817
84	0xbde21d7f	-0.11040782
85	0x3e5bd574	0.21468145
86	0xbf4a6ac1	-0.79069144
87	0x3f2bfcfd	0.67182904
88	0x3e9e4d65	0.30918422
89	0x3f3e54ab	0.74347943
90	0xbd94582e	-0.072433814
91	0x3d4c5e95	0.049894888
92	0xbe047139	-0.12933816
93	0xbc0ecd13	-0.008715886
94	0x3f0909aa	0.5353037
95	0xbe997591	-0.2997251
96	0x3e30fc47	0.17283736
97	0xbf238343	-0.63872164
98	0xbe297069	-0.16546787
99	0xbd4b54d4	-0.049641445
100	0xbe66df67	-0.22546159
101	0x3eca0ba4	0.39462006
102	0xbf2bfa59	-0.67178875
103	0xbd32f007	-0.04368594
104	0xbea810f1	-0.32825425
105	0xbdcf2ac4	-0.10115579
106	0xbc925cb9	-0.01786648
107	0x3efccd61	0.49375442
108	0x3e92a7b8	0.28643584
109	0xbe3c175c	-0.18368286
110	0xbe7e5943	-0.24838738
111	0x3dd53a05	0.10411457
112	0xbf0cb59b	-0.5496461
113	0x3efc898a	0.49323684
114	0x3e145f05	0.14489372
115	0x3e184056	0.14868292
116	0x3ed19228	0.4093182
117	0xbeba31d0	-0.3636613
118	0xbe3fd3a9	-0.18733086
119	0x3e2b21da	0.16712132
120	0xbddbf5cb	-0.10740241
121	0x3e8b6ec0	0.27232933
122	0xbecbe21f	-0.39820954
123	0x3e408f40	0.18804646
124	0x3dd5a07b	0.10431
125	0xbea5ab62	-0.32357317
126	0x3e871841	0.26385692
127	0xbeed652a	-0.46366245
128	0x3eb89a76	0.36055344
129	0x3d2aa0e4	0.041657344
130	0x3eaf89f1	0.34284928
131	0x3e1ebeea	0.15502515
132	0x3e077f11	0.13232066
133	0x3eecae50	0.4622674
134	0xbeff3da7	-0.49851725
135	0x3dd070d9	0.10177774
136	0x3e62605d	0.22107072
137	0x3df6fff5	0.12060539
138	0x3ddd1e77	0.10796826
139	0x3de934ea	0.11387046
140	0xbe5266f9	-0.20547093
141	0x3eb3de0b	0.35130343
142	0xbe06776f	-0.13131498
143	0x3d3b7890	0.045769274
144	0x3e279d5f	0.16368626
145	0x3de124a7	0.10993319
146	0x3ece7325	0.40322223
147	0xbe886cfd	-0.2664565
148	0x3dd07237	0.10178035
149	0xbdaa5497	-0.083169155
150	0x3ea974e5	0.33096996
151	0xbecda441	-0.40164378
152	0xbe10326b	-0.14081733
153	0x3e8ea60d	0.27861062
154	0xbdeb76d2	-0.114972726
155	0xbcfb7379	-0.03069471
156	0xbed108af	-0.40826938
157	0xbfba1c36	-1.4539859
158	0x3e31d682	0.17366984
159	0x3dbdce41	0.092678554
160	0x3d4fe9a0	0.05075991
161	0x3da41b4c	0.08013019
162	0x3e5390dc	0.20660728
163	0xbcdddc0b	-0.027082464
164	0x3e4b0d71	0.19829346
165	0x3e8e0671	0.2773929
166	0x3d4b1a52	0.049585648
167	0xbea64001	-0.32470706
168	0x3ee28590	0.44242525
169	0x3d25d017	0.040481653
170	0x3d8f9805	0.07011417
171	0xbc128c25	-0.008944546
172	0xbea92119	-0.33033064
173	0x3da18f16	0.078886196
174	0x3c5ce623	0.013482603
175	0xbe19af87	-0.15008365
176	0x3f0959ca	0.5365263
177	0x3eed26b1	0.46318582
178	0x3f50ecf7	0.8161158
179	0x3c4d0141	0.012512506
180	0x3db7366f	0.08945929
181	0x3e877d79	0.26462916
182	0x3e6940f1	0.2277868
183	0xbdf30dbc	-0.11867854
184	0xbe99c176	-0.3003041
185	0xbd9e6996	-0.07734983
186	0x3e56179e	0.20907447
187	0xbe2cd858	-0.16879404
188	0x3e53432e	0.20631096
189	0x3eabf137	0.3358247
190	0xbd5ca06c	-0.053863928
191	0x3e867259	0.26259115
192	0xbdc84240	-0.09778261
193	0xbe06977e	-0.13143727
194	0xbd3e8bba	-0.046519972
195	0x3d79535e	0.06087052
196	0x3e27182c	0.16317815
197	0x3e342288	0.17591298
198	0xbdc888f0	-0.09791744
199	0x3e0f56e4	0.1399799
200	0x3e2b830b	0.16749208
201	0xbddb6f1e	-0.10714553
202	0xbe1007bc	-0.1406545
203	0x3dc1374c	0.09434375
204	0x3ef2a63c	0.47392452
205	0x3d95ab3b	0.0730805
206	0xbdf656b8	-0.12028259
207	0x3e402e23	0.187676
208	0xbebdf086	-0.37097567
209	0xbda9ec1f	-0.0829699
210	0xbea6e80b	-0.3259891
211	0xbc2814ff	-0.010258912
212	0xbefdbe0f	-0.49559066
213	0xbe6c5e29	-0.23082794
214	0xbe3f8f4a	-0.18707004
215	0xbf31e522	-0.69490254
216	0x3ea50951	0.3223367
217	0xbe83c261	-0.25734237
218	0x3e69925e	0.22809741
219	0xbcb07cf3	-0.021543955
220	0xbcdf8fdb	-0.027290275
221	0x3c55b45e	0.013043491
222	0xbd596a5b	-0.053079944
223	0x3ec2f89f	0.38080308
224	0x3f0fff73	0.5624916
225	0x3e873d6e	0.26414055
226	0xbe55f337	-0.2089356
227	0x3e36f000	0.1786499
228	0x3e302493	0.17201452
229	0xbcad7b72	-0.021177027
230	0xbee6de0b	-0.4509128
231	0x3be59448	0.007006202
232	0xbeb6fc07	-0.35739157
233	0xbd881a2a	-0.066456154
234	0x3e022644	0.1270991
235	0x3da51d45	0.08062223
236	0x3dd12b00	0.1021328
237	0x3e4446ad	0.19167586
238	0x3e6e6ea4	0.23284394
239	0x3d9d3f8f	0.076781385
240	0xbe06b342	-0.13154319
241	0xbc07dc3b	-0.008292253
242	0xbd9b23ec	-0.07575211
243	0x3df1b2cd	0.11801682
244	0x3e2ac57a	0.16676894
245	0x3dd87296	0.105687305
246	0x3eea77ce	0.4579453
247	0xbdd33b4d	-0.10314045
248	0x3d6a701a	0.057235815
249	0x3ec9b0a2	0.39392573
250	0xbf392310	-0.72319126
251	0xbe641b38	-0.22276008
252	0x3e321f6f	0.17394803
253	0x3e78b504	0.24287802
254	0x3ee308ef	0.44342753
255	0xbf4056ab	-0.75132245

bias f4 [128]
0	0x3dad0007	0.08447271
1	0x3dd9ec96	0.10640828
2	0x3dcad39b	0.09903642
3	0x3dbdb703	0.09263422
4	0xbcc82995	-0.02443389
5	0x3df3daf4	0.11906996
6	0x3dfb0bad	0.12258086
7	0x3eb17082	0.3465615
8	0xbd272a39	-0.04081175
9	0x3e595e31	0.21227337
10	0xbd936a6e	-0.07198034
11	0xbdc0bb0f	-0.094106786
12	0xbe07dffc	-0.13269037
13	0x3e910d24	0.28330338
14	0xbbb98336	-0.0056613935
15	0xbdb491bb	-0.088168584
16	0x3e67bbc9	0.22630228
17	0xbd87d8c7	-0.06633144
18	0x3d782bce	0.06058865
19	0x3d856ab4	0.06514493
20	0xbe641538	-0.2227372
21	0x3dc3c8b5	0.09559766
22	0xbd5be6ff	-0.053687092
23	0x3dc17627	0.09446364
24	0x3decad00	0.11556435
25	0x3e141eb5	0.14464839
26	0xbdbddf18	-0.092710674
27	0x3e979c79	0.29611567
28	0x3d2c33f2	0.042041726
29	0xbe247744	-0.16061121
30	0x3d5c16f7	0.05373284
31	0x3e6dc23b	0.23218624
32	0xbe082bad	-0.13297911
33	0x3cf7c715	0.030246297
34	0xbd59691f	-0.053078767
35	0xbe2eaa9d	-0.17057271
36	0xbbb933c2	-0.005651922
37	0x3e5c42a0	0.2150979
38	0x3b60333b	0.0034210223
39	0x3cf7e69a	0.030261327
40	0x3de6fc91	0.11278642
41	0xbe18606b	-0.1488053
42	0xbe519768	-0.20467913
43	0x3da86240	0.08221865
44	0x3e3bdcc4	0.18345934
45	0x3dc742ae	0.09729515
46	0x3e2073e4	0.15669209
47	0xbe7269fe	-0.23673245
48	0x3ccbf366	0.024896335
49	0xbcf21d43	-0.029554969
50	0x3df4973a	0.11942907
51	0x3e6cb706	0.23116693
52	0xbdce3fb5	-0.10070745
53	0xbdb435f7	-0.087993555
54	0xbd8e6b47	-0.06954055
55	0x3d811c8f	0.06304275
56	0x3e33a550	0.1754353
57	0xbdc1e6ea	-0.094678715
58	0xbd0bd9f9	-0.03414342
59	0x3e4e4d8e	0.20146772
60	0xbd82d5bf	-0.06388425
61	0x3e7fa056	0.24963507
62	0x3ccc1b10	0.024915248
63	0x3e616b5c	0.2201361
64	0xbd80f5aa	-0.06296857
65	0x3e12c77f	0.14333914
66	0x3dd66c18	0.10469836
67	0x3e31ea97	0.17374645
68	0x3d585441	0.052814726
69	0x3e024814	0.12722808
70	0x3e6c6f0e	0.23089239
71	0xbe561f6b	-0.20910423
72	0xbda629a4	-0.08113411
73	0x3d03e973	0.032205056
74	0x3bf599ba	0.0074951323
75	0x3d83e6dd	0.06440518
76	0x3de97316	0.11398904
77	0x3e86a22b	0.262956
78	0x3db0d60b	0.086345755
79	0x3cf1d803	0.029521948
80	0xbda3f221	-0.08005167
81	0xbdfbcd0c	-0.12294969
82	0xbcea4c4b	-0.028600832
83	0x3dde30e2	0.108491674
84	0xbd9db06e	-0.07699667
85	0x3d1d5e2a	0.03841988
86	0xbda96827	-0.082718186
87	0x3d582161	0.052766208
88	0xbdc014e1	-0.09378982
89	0x3dc4d54f	0.09610998
90	0x3d2306ec	0.039801523
91	0x3df8f00d	0.12155161
92	0xbe669bcf	-0.22520374
93	0xbda89243	-0.08231022
94	0xbe4276ee	-0.1899068
95	0x3d36a822	0.044593938
96	0xbde1e45b	-0.110298835
97	0xbde7f52c	-0.1132606
98	0x3cb870a0	0.022514641
99	0x3e95ef39	0.29284075
100	0x3dc10a65	0.09425811
101	0x3dcfa891	0.10139573
102	0xbe3b532c	-0.18293446
103	0x3dd11f68	0.102110684
104	0x3cab4d47	0.020910872
105	0x3cb5b05f	0.022178827
106	0xbde6dcd5	-0.11272589
107	0x3d824651	0.06361068
108	0xbe943302	-0.28945166
109	0xbda06342	-0.07831432
110	0x3a8b464d	0.001062581
111	0xbd545f1b	-0.051848512
112	0x3ed8a713	0.42314968
113	0x3e1eb05a	0.1549696
114	0x3beea896	0.0072832806
115	0x3e5524e0	0.20814848
116	0x3e6b05e9	0.22951473
117	0x3bb62694	0.005558798
118	0x3e98e9a8	0.29865766
119	0x3d8ac704	0.067762405
120	0x3e009adb	0.12559073
121	0x3e161626	0.14656886
122	0xbe11e05b	-0.14245741
123	0x3ccf2aa3	0.025288885
124	0x3d30224c	0.043001458
125	0x3e1fef4d	0.1561863
126	0x3dca927b	0.0989122
127	0x3d7347a9	0.059394512

weight f4 [5, 128]
0	0xbe58039f	-0.21095131
1	0xbd430e26	-0.047620915
2	0xbe2feccc	-0.17180175
3	0xbcbc1617	-0.022959752
4	0xbd3b99fb	-0.045801144
5	0xbc85dcc8	-0.016340628
6	0x3dbfbecf	0.09362566
7	0x3cc915df	0.024546562
8	0xbeb1839e	-0.34670728
9	0xbdcfba93	-0.10143008
10	0xbe4f2d23	-0.20232062
11	0xbcb48a24	-0.022038527
12	0x3c184d57	0.009295783
13	0x3efd5322	0.49477488
14	0xbe44e967	-0.19229661
15	0x3e1513d5	0.14558347
16	0x3e41e17d	0.18933673
17	0x3f3e81aa	0.744166
18	0x3db9ed70	0.09078491
19	0x3cd4ab03	0.025960451
20	0xbe5216eb	-0.20516555
21	0xbec10a63	-0.37703237
22	0xbe0378ec	-0.12839097
23	0x3e1829b2	0.14859655
24	0x3df1e5c6	0.11811404
25	0xbbde7153	-0.0067884116
26	0xbdecf32e	-0.1156982
27	0x3d1841f3	0.03717227
28	0xbdb8ce7c	-0.09023759
29	0x3e69fb26	0.22849712
30	0xbdd7a26f	-0.105290286
31	0xbed33cd3	-0.41257343
32	0xbd3d5eed	-0.046233106
33	0xbe8c6ef2	-0.27428395
34	0x3d1a75f1	0.037710134
35	0xbeb94e03	-0.3619233
36	0xbd86e631	-0.06586874
37	0x3e2ed26a	0.17072454
38	0x3cb99eda	0.022658754
39	0xbe631075	-0.22174247
40	0xbd8359ce	-0.06413613
41	0x3de1181b	0.10990926
42	0x3b8f095c	0.0043651294
43	0xbd739362	-0.059466727
44	0xbdac4051	-0.08410705
45	0x3dada029	0.08477814
46	0x3e41bc38	0.18919456
47	0xbb8be90a	-0.004269724
48	0xbf13dfee	-0.57763565
49	0x3e393a00	0.18088531
50	0x3e9df8a4	0.3085376
51	0xbda1e562	-0.079050794
52	0xbc8560f6	-0.016281586
53	0x3de74ae0	0.11293578
54	0x3cfbbda7	0.030730082
55	0x3d499cb6	0.049221717
56	0x3defa79d	0.117018916
57	0xbcf67a9d	-0.030087763
58	0x3db1e9d0	0.08687174
59	0x3e63bbee	0.22239658
60	0x3e85a32a	0.26101047
61	0xbdc97da2	-0.09838416
62	0xbf021027	-0.50805897
63	0xbe654d85	-0.22392853
64	0xbd00c118	-0.03143415
65	0xba9dcbf8	-0.0012038937
66	0xbe7b39ef	-0.24533819
67	0xbd364131	-0.044495765
68	0xbf0a180a	-0.5394293
69	0xbecc737a	-0.39931852
70	0xbca4c9df	-0.02011579
71	0x3e3a2108	0.18176663
72	0x3e30d987	0.1727048
73	0x3e14163c	0.14461607
74	0x3e67eca0	0.22648859
75	0x3de5717b	0.11203285
76	0xbd2bb440	-0.041919947
77	0xbeb7768b	-0.3583263
78	0xbc7ce48f	-0.015435352
79	0xbe14b89e	-0.14523551
80	0xbd91851b	-0.07105466
81	0xbe626e94	-0.22112495
82	0xbeb2b7b7	-0.34905788
83	0x3dce975e	0.10087465
84	0xbcc3e83a	-0.023914445
85	0xbe10681d	-0.14102216
86	0xbcd7f047	-0.02635969
87	0xbcca8807	-0.024723066
88	0x3c19e97d	0.009394047
89	0xbdce175d	-0.1006305
90	0x3d2c575f	0.04207551
91	0xbebad0be	-0.36487383
92	0x3dea75aa	0.11448224
93	0xbd331d1d	-0.043728936
94	0xbd992e11	-0.074794896
95	0x3dd4e9cb	0.10396155
96	0x3e4fd0a1	0.2029443
97	0xbd1fd922	-0.039025433
98	0x3dbf0717	0.09327524
99	0xbe7f8d47	-0.24956237
100	0x3e8a608c	0.27026784
101	0x3d8beb1e	0.068319544
102	0xbd5637f5	-0.05229946
103	0x3d55ab8a	0.052165546
104	0xbcf3be9f	-0.029753981
105	0xbd47b9a5	-0.04876103
106	0xbcea3e7c	-0.028594248
107	0x3d20b436	0.039234363
108	0xbef7fd53	-0.4843546
109	0xbe46bee9	-0.19408764
110	0xbdd25672	-0.102703944
111	0xbcbf427b	-0.02334713
112	0x3da1b78e	0.078963384
113	0xbd994dff	-0.0748558
114	0x3d48369c	0.048880205
115	0xbe9ea618	-0.30986094
116	0xbcee9b9f	-0.02912694
117	0xbe9c18b8	-0.3048761
118	0x3e3aaada	0.18229237
119	0xbe7bcd39	-0.24590005
120	0xbd63b4f3	-0.05559249
121	0x3d94dbff	0.072685234
122	0xbd07ee45	-0.033186216
123	0x3c0fee13	0.008784789
124	0xbd18cae2	-0.03730286
125	0x3e9bcaa0	0.30428028
126	0xbe9d6ce0	-0.30747128
127	0xbd23ad31	-0.03996009
128	0xbeed72ce	-0.46376652
129	0x3eb75470	0.35806608
130	0x3d7ec790	0.062202036
131	0xbd7e719f	-0.062120076
132	0xbc27111d	-0.010196951
133	0x3f1ae419	0.605043
134	0x3ecd25fa	0.40068036
135	0xbe891ce1	-0.26779845
136	0x3cfd14a1	0.030893626
137	0xbdabc25b	-0.0838668
138	0x3dab1202	0.08353044
139	0x3cfa02fb	0.030519
140	0x3b9c3a59	0.004767698
141	0x3e463986	0.19357881
142	0x3e94d771	0.2907062
143	0xbeb3828a	-0.3506053
144	0x3e43a881	0.19107248
145	0xbdcfa4fa	-0.10138889
146	0xbdc2f02d	-0.09518466
147	0xbd9877c3	-0.07444718
148	0x3e883de7	0.26609728
149	0xbd92fc45	-0.07177023
150	0xbe1a04cd	-0.15040894
151	0xbe95ab1c	-0.2923211
152	0x3eedab3d	0.46419707
153	0xbd88aa38	-0.06673092
154	0xbf80b944	-1.0056539
155	0xbe65eed5	-0.22454388
156	0x3f14cc34	0.5812409
157	0x3c8f1950	0.017468125
158	0x3e1c9762	0.15292123
159	0x3ec3bbeb	0.38229308
160	0x3df2078e	0.11817847
161	0x3c480a68	0.012209512
162	0x3e3c229f	0.18372582
163	0x3e3f53cc	0.1868431
164	0x3c7452ee	0.01491235
165	0xbe3b1cdb	-0.18272726
166	0xbe20335c	-0.15644592
167	0xbe280fd0	-0.16412282
168	0xbd81a5f3	-0.063304804
169	0xbf00dc21	-0.5033589
170	0x3dc07290	0.09396851
171	0xbe695078	-0.22784603
172	0xbc8f69ae	-0.017506447
173	0xbe809161	-0.25110915
174	0x3e3a1907	0.1817361
175	0x3e4f0f9e	0.20220801
176	0xbe621742	-0.22079185
177	0xbebf9f59	-0.3742626
178	0x3e1ba715	0.15200455
179	0x3eb8c5c8	0.36088395
180	0x3eb8a888	0.3606608
181	0xbef4df81	-0.4782677
182	0x3e55f3aa	0.20893732
183	0x3eaa2a02	0.33235174
184	0x3c4e341a	0.012585664
185	0x3cd2581f	0.025676785
186	0x3e1966b6	0.14980587
187	0x3d389ecb	0.04507331
188	0x3c017eb1	0.007903741
189	0xbd71a01d	-0.058990587
190	0xbea2aad3	-0.31770954
191	0x3e761fc5	0.24035557
192	0x3cdbb6ed	0.026820624
193	0xbdc9f352	-0.09860863
194	0x3e90424e	0.28175586
195	0xbcf861a9	-0.030320005
196	0xbd3b1963	-0.045678508
197	0x3d2f0561	0.04272974
198	0xbeaab206	-0.33338946
199	0x3ec243dd	0.379424
200	0x3d7926f1	0.060828153
201	0xbd2727db	-0.040809494
202	0xbd37e539	-0.044896338
203	0xbe514d0b	-0.20439546
204	0xbe8476bc	-0.25871837
205	0x3ea70d66	0.3262741
206	0x3e039f41	0.1285372
207	0xbd25327e	-0.040331356
208	0x3e846bde	0.25863546
209	0xbd80bf90	-0.06286538
210	0xbe5ea197	-0.21741329
211	0xbe6f664e	-0.2337887
212	0x3cf030ba	0.02932011
213	0xbe47b13a	-0.195012
214	0x3d00f940	0.031487703
215	0x3d200536	0.03906747
216	0xbf02a62b	-0.510348
217	0xbf1589bc	-0.5841329
218	0x3c64cb1f	0.0139644435
219	0xbea66d1e	-0.32505125
220	0x3ea27025	0.31726184
221	0xbcf6f026	-0.030143809
222	0x3de9b8ba	0.11412187
223	0x3edfb9ef	0.43696544
224	0xbd2184b0	-0.03943318
225	0x3c96c9de	0.018406805
226	0xbd8df393	-0.06931224
227	0xbe250f59	-0.16119136
228	0xbef772b5	-0.48329702
229	0x3e620111	0.2207072
230	0x3e6ec7f9	0.23318471
231	0x3e5004a4	0.2031427
232	0x3cedc456	0.029024284
233	0x3e1ee409	0.15516676
234	0xbcbd2f21	-0.023093762
235	0xbe3c7e56	-0.18407568
236	0x3dd260d7	0.10272377
237	0xbec9f158	-0.39441943
238	0x3d0e7d84	0.03478767
239	0x3cd982d8	0.026551649
240	0xbeacd50c	-0.33756292
241	0x3e6d7edb	0.23192923
242	0x3ebf6796	0.37383717
243	0x3d2d3337	0.04228517
244	0xbe0c3270	-0.13691115
245	0xbf13056c	-0.5743015
246	0x3ee0eefa	0.43932325
247	0xbece0c15	-0.40243593
248	0xbdee3622	-0.11631419
249	0xbc672b5f	-0.014109462
250	0x3ee6b305	0.45058456
251	0x3f414c54	0.7550709
252	0xbf217373	-0.63066787
253	0x3cd48716	0.02594332
254	0xbe7b6268	-0.24549258
255	0xbec58240	-0.38575935

bias f4 [5]
0	0x3e0b889a	0.13626328
1	0xbc848658	-0.016177341
2	0x3e158e5b	0.14605086
3	0x3e20782e	0.15670845
4	0xbdaa6968	-0.08320886

weight f4 [128, 14]
0	0x3e406548	0.18788636
1	0xbe87a811	-0.26495412
2	0x3d826c68	0.06368333
3	0x3e60ae5c	0.21941513
4	0x3e1b5c2a	0.15171877
5	0xbe81ea27	-0.25373957
6	0xbd41e82c	-0.047340557
7	0x3e4a2972	0.19742373
8	0xbe01dd7e	-0.12682149
9	0xbe498b62	-0.19682077
10	0x3d09c8e0	0.033638835
11	0x3cbf2e80	0.023337603
12	0xbdf424d0	-0.11921084
13	0xbe4746cd	-0.19460602
14	0x3e8496cf	0.25896308
15	0xbc676160	-0.014122337
16	0xbdd15160	-0.10220599
17	0xbe60deda	-0.21960011
18	0x3e194756	0.14968619
19	0x3da4aa48	0.08040291
20	0x3d689d00	0.056790352
21	0x3d725248	0.0591605
22	0x39957000	0.0002850294
23	0xbd6e5208	-0.0581837
24	0xbe87d68f	-0.26530883
25	0xbd956b0c	-0.07295808
26	0x3d377470	0.044788778
27	0xbe638a05	-0.22220619
28	0x3e003ff2	0.12524393
29	0x3e64d12c	0.22345418
30	0xbe026753	-0.12734728
31	0x3e2d7766	0.16940078
32	0x3d6778a8	0.05651155
33	0x3de90d58	0.11379498
34	0xbe576a00	-0.2103653
35	0xbe76eb28	-0.24113142
36	0x3d45c5e0	0.04828441
37	0xbe4f465b	-0.20241682
38	0xbd9c57ac	-0.076339096
39	0x3e81f411	0.2538152
40	0xbc94b5a0	-0.018153012
41	0x3e6bdd4e	0.2303364
42	0x3d68aca8	0.056805283
43	0xbdef2544	-0.1167703
44	0xbe3ad5f7	-0.18245684
45	0x3cc77fc0	0.024352908
46	0xbe1c4340	-0.15260029
47	0xbabd4400	-0.0014439821
48	0x3e074fc2	0.13214019
49	0x3e735fa2	0.2376695
50	0xbe514732	-0.20437315
51	0x3e75e832	0.24014357
52	0x3e1b9dca	0.1519691
53	0xbd9e054c	-0.07715854
54	0x3e342860	0.17593527
55	0x3e268c5a	0.16264477
56	0xbe4429be	-0.19156548
57	0x3e3663d0	0.17811513
58	0xbe2a32c6	-0.16620931
59	0xbe7c08aa	-0.2461268
60	0x3e27ff42	0.16405967
61	0xbe39abb8	-0.18131912
62	0x3c645ca0	0.013938099
63	0xbe3e3cd2	-0.18577889
64	0x3e06670c	0.13125247
65	0x3ddef31c	0.10886213
66	0x3d0ac8b0	0.033882797
67	0x3e40013e	0.18750474
68	0xbe4ba590	-0.19887376
69	0x3ca074b0	0.019586891
70	0xbd933e8a	-0.07189663
71	0xbe344ad0	-0.17606664
72	0x3e52724a	0.2055141
73	0xbdfd3f90	-0.12365639
74	0x3deb5370	0.11490524
75	0xbe73d645	-0.23812206
76	0x3d4827e8	0.048866183
77	0x3e86cd57	0.26328537
78	0x3e65b66a	0.22432867
79	0x3d7a9478	0.061176747
80	0xbdcc2ffe	-0.09970091
81	0x3db33fc4	0.08752397
82	0xbdde1796	-0.108443424
83	0xbe84acb5	-0.25913015
84	0x3d9eeb18	0.07759684
85	0x3e11c33c	0.14234632
86	0x3e212724	0.15737587
87	0x3d8c35fc	0.06846234
88	0x3e36106c	0.17779702
89	0x3e5b7bf8	0.21434009
90	0xbda444e8	-0.08020955
91	0x3da7ddf0	0.08196628
92	0xbc9f15e0	-0.01941961
93	0x3d787158	0.060654968
94	0x3e3c4b2a	0.18388048
95	0x3e1c8592	0.15285328
96	0x3dd42fbc	0.10360667
97	0xbe8120d1	-0.2522035
98	0xbd3a6b44	-0.045512453
99	0x3de278c4	0.110581905
100	0x3e83039d	0.25588694
101	0x3e6c7004	0.23089606
102	0xbb22e800	-0.002485752
103	0xbd7bff04	-0.0615225
104	0x3d8f0d2c	0.06984934
105	0x3e0f92fc	0.14020914
106	0x3e5187ae	0.20461914
107	0x3dae1ec4	0.08501962
108	0x3e042c56	0.12907538
109	0xbd71b708	-0.059012443
110	0x3e0befc8	0.13665688
111	0xbe73ab3b	-0.23795788
112	0xbe7f8ece	-0.2495682
113	0xbe6e6e93	-0.23284368
114	0xbd8775cc	-0.06614265
115	0xbdd29a6c	-0.1028336
116	0x3e33fc54	0.17576724
117	0x3e3ddc18	0.1854099
118	0x3e887295	0.2664992
119	0x3e87ba5b	0.26509365
120	0x3e32ffe4	0.17480427
121	0xbde36072	-0.1110238
122	0x3d9d40fc	0.076784104
123	0xbe6af9b2	-0.22946814
124	0x3e537106	0.20648584
125	0xbe176dfa	-0.14788046
126	0x3ddf528c	0.109044164
127	0xbe173d0c	-0.14769381
128	0xbe6c76a7	-0.23092137
129	0x3def2f40	0.11678934
130	0xbcf092b0	-0.029366821
131	0x3dd80e58	0.10549611
132	0xbdf746d8	-0.12074059
133	0x3e3c0302	0.18360522
134	0x3e29ef5c	0.16595215
135	0x3e490006	0.19628915
136	0xbe450dcb	-0.19243543
137	0xbe22c457	-0.1589521
138	0xbe585190	-0.21124864
139	0x3df5696c	0.11982998
140	0xbe5becda	-0.2147707
141	0xbe71e098	-0.23620832
142	0xbd308e50	-0.04310447
143	0x3e182de0	0.1486125
144	0xbde541de	-0.11194204
145	0x3e2a0e24	0.16606957
146	0xbe409d8c	-0.188101
147	0x3dd811c4	0.105502635
148	0x3e4e5884	0.20150954
149	0xbd134cb0	-0.035961807
150	0x3ddef0fc	0.10885808
151	0xbd7135f0	-0.05888933
152	0xbe864e88	-0.2623179
153	0xbe75ac2e	-0.23991463
154	0x3e4ba278	0.19886196
155	0x3dd966c0	0.10615301
156	0x3e2677c2	0.16256621
157	0xbd3b70e4	-0.045761958
158	0xbe6e6894	-0.23282081
159	0xbe830c2b	-0.2559522
160	0xbe844e99	-0.25841215
161	0x3e21e41a	0.1580967
162	0xbceedf30	-0.029159158
163	0x3e0ad216	0.13556704
164	0xbe59058c	-0.21193522
165	0xbe810f6f	-0.25207087
166	0xbe1046f6	-0.1408957
167	0x3e565dda	0.20934239
168	0xbc803770	-0.015651435
169	0x3e5179ba	0.20456591
170	0xbe6e05ef	-0.23244451
171	0xbe808d92	-0.2510801
172	0xbd0dab7c	-0.03458737
173	0xbc320260	-0.010864824
174	0xbc8ac880	-0.016941309
175	0xbdbd15da	-0.092326835
176	0xbe18e93c	-0.14932722
177	0xbc425be0	-0.011862725
178	0xbe0d5332	-0.13801268
179	0xbdb7453a	-0.08948751
180	0xbde4d300	-0.111730576
181	0x3e554044	0.20825297
182	0xbe0f1f58	-0.139768
183	0x3e4c7e52	0.19970062
184	0x3e36e67a	0.17861357
185	0xbe39a73e	-0.18130204
186	0xbd2bdb1c	-0.041957006
187	0x3b785000	0.003788948
188	0xbd54dba8	-0.051967293
189	0x3e550df8	0.2080611
190	0xbe44a234	-0.192025
191	0x3e224d14	0.15849715
192	0xbd48c21c	-0.049013242
193	0xbdc8f87a	-0.09813018
194	0x3c7fd680	0.015615106
195	0xbe313904	-0.17306906
196	0x3e05ff2e	0.13085625
197	0xbdf405d4	-0.11915174
198	0x3d22eba0	0.03977549
199	0xbe6cd559	-0.2312826
200	0x3e42cce8	0.19023478
201	0x3e30097e	0.17191121
202	0x3e827d2f	0.25486133
203	0xbcb143c0	-0.021638751
204	0xbd35f074	-0.044418767
205	0xbe341134	-0.17584687
206	0xbccaac90	-0.024740487
207	0x3e24f89e	0.16110465
208	0xbe6d2ca6	-0.23161563
209	0xbe880a46	-0.26570338
210	0x3e5b4b66	0.21415481
211	0xbe45e5ee	-0.19325992
212	0xbe4dd609	-0.20101179
213	0x3e2c519e	0.1682801
214	0xbdcad3e2	-0.09903695
215	0xbe20f9b4	-0.15720254
216	0xbe079be4	-0.13243061
217	0x3e2b99d8	0.16757905
218	0xbd46f858	-0.048576683
219	0x3e617640	0.22017765
220	0x3c84fb40	0.016233087
221	0xbe7c53d2	-0.2464135
222	0x3e47c780	0.19509697
223	0xbe12b7c8	-0.1432792
224	0x3d315cd0	0.043301404
225	0xbe260178	-0.16211498
226	0x3e86bdf5	0.263168
227	0x3d35b748	0.044364244
228	0xbe1614a6	-0.14656314
229	0x3dd7c8c8	0.10536343
230	0x3e6503fc	0.22364801
231	0x3e371892	0.17880467
232	0xbdb2598e	-0.087084875
233	0xbd11e834	-0.035621837
234	0xbe1b0ce6	-0.15141639
235	0x3e56aa0a	0.20963302
236	0xbdf569c0	-0.11983061
237	0xbde6ad64	-0.112635404
238	0x3e41af60	0.18914557
239	0x3da9b798	0.08286971
240	0x3dedfa6c	0.1162003
241	0xbd7c3578	-0.06157443
242	0xbc673be0	-0.014113396
243	0xbe544057	-0.20727669
244	0xbc936110	-0.017990619
245	0xbe4c2e62	-0.19939569
246	0x3e2787fa	0.16360465
247	0xbe1126f1	-0.14175011
248	0x3e39c558	0.18141687
249	0x3cb82650	0.022479206
250	0xbd4242a4	-0.047426835
251	0x3c8f9490	0.017526895
252	0x3dd15a68	0.10222322
253	0xbdd1965e	-0.102337584
254	0x3e5da47a	0.21644774
255	0xbe0e064b	-0.13869588

bias f4 [128]
0	0x3e3a5384	0.18195921
1	0x3e5d0688	0.21584523
2	0x3e1c60ac	0.15271252
3	0x3e2b24ee	0.16713306
4	0x3e5d03d6	0.21583495
5	0x3e85b2b1	0.26112893
6	0xbdbc1294	-0.09183231
7	0x3e31c3d4	0.17359859
8	0x3e16601c	0.146851
9	0xbe2cf84b	-0.16891591
10	0xbc553f80	-0.013015628
11	0xbe6f5396	-0.23371729
12	0x3df2fac4	0.11864236
13	0xbe68d026	-0.22735652
14	0xbdc8f504	-0.09812358
15	0xbdb97e9c	-0.09057352
16	0xbe80704d	-0.2508568
17	0x3e678228	0.22608244
18	0x3d1ccbf0	0.038280427
19	0x3e419444	0.18904215
20	0xbd194d8c	-0.03742747
21	0xbdd5b684	-0.10435203
22	0x3e18aa12	0.14908627
23	0xbe413bd1	-0.18870474
24	0x3e1323b8	0.14369094
25	0xbd1502a0	-0.036379457
26	0xbe390ce0	-0.18071318
27	0x3cc46b60	0.023976982
28	0x3e18cc56	0.14921698
29	0xbe30eedc	-0.17278618
30	0x3e570a5a	0.21000043
31	0x3e8890f1	0.26673082
32	0x3ddc997c	0.10771462
33	0x3e80ca49	0.2515433
34	0xbd9e24cc	-0.07721862
35	0x3d8d6b88	0.069052756
36	0xbe52263c	-0.20522398
37	0xbe0558eb	-0.13022201
38	0xbcfba1d8	-0.030716822
39	0x3e82b777	0.25530598
40	0xbde7c76c	-0.113173336
41	0xbe85a074	-0.2609898
42	0x3e126222	0.14295247
43	0xbd50e4e0	-0.050999522
44	0x3d784aa0	0.060618043
45	0x3d4fb340	0.050708055
46	0x3e4b6c6a	0.19865575
47	0x3e83416d	0.25635853
48	0xbd108324	-0.035281315
49	0xbe72a077	-0.23694025
50	0x3d9b8470	0.0759362
51	0x3e65c002	0.22436526
52	0x3e036f10	0.12835336
53	0xbe65f778	-0.22457683
54	0xbe6d2d62	-0.23161843
55	0x3cf2c3e0	0.029634416
56	0x3e85bf47	0.26122496
57	0xbd3441a8	-0.044007927
58	0x3da41138	0.08011097
59	0xbdf3b0ec	-0.118989795
60	0xbd6516b4	-0.055929855
61	0xbdba5990	-0.09099114
62	0x3dfcfefc	0.12353322
63	0xbd22d5cc	-0.039754674
64	0x3e274d1e	0.16338012
65	0xbe31aef0	-0.1735189
66	0xbe8312d0	-0.2560029
67	0x3e380eac	0.17974347
68	0x3e16039c	0.14649814
69	0x3e4992aa	0.19684854
70	0xbd36581c	-0.04451762
71	0xbe3f477f	-0.18679617
72	0x3e09b3d8	0.13447511
73	0xbe48ae17	-0.1959766
74	0xbe31e582	-0.17372707
75	0xbdd2cb34	-0.10292664
76	0xbd97f816	-0.074203655
77	0x3d5f3348	0.054492265
78	0xbdcfc382	-0.10144712
79	0xbe5e1e4f	-0.2169125
80	0x3dcb43c0	0.09925032
81	0xbe393d5b	-0.18089812
82	0xbe307ac8	-0.17234337
83	0x3e168822	0.14700368
84	0xbe4a202c	-0.19738835
85	0xbe2c6d64	-0.16838604
86	0xbe6eb3e5	-0.23310812
87	0xbe85c1fc	-0.2612456
88	0x3e1ae460	0.1512618
89	0xbe484eb2	-0.1956127
90	0xbd9ac3b6	-0.0755686
91	0xbdf9f25e	-0.12204431
92	0xbd87b42c	-0.06626162
93	0x3e6f063a	0.23342219
94	0xbc45cfc0	-0.012073457
95	0xbdf80ae2	-0.12111451
96	0xbc0b9000	-0.008518219
97	0xbe6a0a1b	-0.22855417
98	0xbd54d830	-0.051963985
99	0x3e80a587	0.25126287
100	0x3e7504da	0.23927632
101	0xbe08ff64	-0.13378674
102	0x3e4ae174	0.19812566
103	0x3d950384	0.07276061
104	0x3e525fa2	0.20544294
105	0xbe13fe98	-0.14452589
106	0x3e45e266	0.19324645
107	0xbe14e830	-0.14541698
108	0xbc9b7fd0	-0.018981844
109	0xbb54d400	-0.0032474995
110	0xbdd05052	-0.1017157
111	0x3e087db4	0.13329202
112	0xbdd3e6fc	-0.10346791
113	0xbe77c384	-0.24195677
114	0x3cd725a0	0.026263058
115	0x3e800add	0.25008288
116	0xbda46c90	-0.08028519
117	0x3e1b3538	0.1515702
118	0x3e82ff1b	0.25585255
119	0x3cfeb0e0	0.0310902
120	0x3c3cdfa0	0.011527926
121	0xbdc4276e	-0.09577833
122	0xbdd4f73c	-0.10398719
123	0xbe857ffd	-0.2607421
124	0x3e37706a	0.17913976
125	0x3d88c800	0.06678772
126	0x3e8588b9	0.26080874
127	0xbe2332fe	-0.1593742

weight f4 [128, 128]
0	0x3cadd644	0.021220334
1	0xbd29e5a1	-0.041478757
2	0x3d8d1499	0.06888694
3	0xbd5608f9	-0.05225465
4	0xbd68f393	-0.056872915
5	0x3d156ad8	0.036478847
6	0xbd97ca23	-0.074116014
7	0xbd2fdc68	-0.042934805
8	0x3c9eb9d4	0.01937572
9	0x3d6abc3a	0.057308413
10	0x3d754dae	0.059888534
11	0xbd60c84e	-0.054878525
12	0x3d825ee1	0.06365753
13	0xbca896b0	-0.020579666
14	0x3cac048c	0.020998262
15	0xbcc04cf4	-0.023474194
16	0xbd8b19d3	-0.06792035
17	0xbd43800b	-0.047729533
18	0x3da32ea1	0.07967878
19	0x3d3da182	0.046296604
20	0xbc0ac7d8	-0.008470498
21	0xbd43d078	-0.047806233
22	0x3d30076e	0.042975836
23	0xbcc28b08	-0.023747936
24	0xbc575600	-0.013143063
25	0xbdae7dd0	-0.085200906
26	0xbc91c530	-0.017794222
27	0x3cfef0c4	0.031120665
28	0x3d5f19fa	0.054468133
29	0x3c014430	0.007889792
30	0x3d98e82f	0.074661605
31	0xbcef5256	-0.029214066
32	0xbdaed2fe	-0.08536337
33	0xbcca6fec	-0.024711572
34	0xbda3c166	-0.07995872
35	0xbbbcfee0	-0.005767688
36	0x3d3d8cfe	0.04627704
37	0xbcaba754	-0.020953812
38	0x3d200152	0.03906376
39	0x3c3bedb0	0.011470243
40	0xbdb4ce3f	-0.08828401
41	0xbd1e5535	-0.03865548
42	0x398cc100	0.00026846677
43	0xbdab944d	-0.083778955
44	0x3d46eb32	0.048564143
45	0x3dabc4e5	0.08387164
46	0x3d652e5e	0.055952422
47	0x3db3b367	0.08774453
48	0x3d7d6902	0.06186772
49	0xbcc0dbb4	-0.023542263
50	0xbdacafa8	-0.08431941
51	0x3d7ab406	0.06120684
52	0xbd5a1bb7	-0.053249087
53	0xbbbf3040	-0.0058346093
54	0xbc9aa2bc	-0.018876426
55	0xbd90c6d4	-0.070691735
56	0xbda5c4b4	-0.08094159
57	0xbc0f07b8	-0.008729868
58	0x3da5e761	0.08100773
59	0x3c84ba50	0.016202122
60	0x3d368a96	0.04456576
61	0x3ce7ea18	0.028309867
62	0xbc546138	-0.012962632
63	0x3d2e1486	0.04250004
64	0x3c17a460	0.009255499
65	0x3d819f45	0.063292064
66	0xbdaace98	-0.08340186
67	0xbc8ba6fc	-0.017047398
68	0x3d0ba796	0.03409537
69	0xbd29a24f	-0.041414555
70	0xbd2de8ae	-0.04245823
71	0xbc031fd0	-0.00800319
72	0xbc8831c8	-0.0166253
73	0x3d1ef622	0.03880895
74	0xbda19858	-0.078903854
75	0xbdb28ae2	-0.08717896
76	0x3d142ba6	0.03617444
77	0xbb9e7590	-0.004835792
78	0xbd8394dc	-0.06424877
79	0xbda2b523	-0.07944705
80	0xbd61af1f	-0.05509865
81	0x3da1fe2d	0.07909808
82	0xbd1c6b3c	-0.038188204
83	0x3da16579	0.078806825
84	0xbd8c6448	-0.06855065
85	0xbd7314d8	-0.05934605
86	0xbcbbfe88	-0.022948518
87	0x3dad598b	0.084643446
88	0xbd450e9c	-0.048109636
89	0x3d60786a	0.054802336
90	0xbd95af5f	-0.0730884
91	0xbd69d0bb	-0.057083827
92	0x3d97195f	0.07377886
93	0xbd9e2a25	-0.07722882
94	0x3c677cc0	0.014128864
95	0xbd58aaf8	-0.052897424
96	0xbce7497a	-0.028233279
97	0xbcfa775c	-0.030574493
98	0x3d7d0eba	0.061781622
99	0x3d103b3a	0.035212733
100	0xbd8268a6	-0.06367616
101	0x3cab6cf4	0.020925976
102	0xbb1e92e0	-0.002419643
103	0x3d404466	0.04694023
104	0xbd4207be	-0.047370665
105	0x3d45c3e6	0.048282526
106	0xbd370ba2	-0.04468883
107	0xbb0831a0	-0.0020781532
108	0xbd91f739	-0.07127232
109	0xbd03b945	-0.03215911
110	0xbdaa2212	-0.0830728
111	0xbccec980	-0.025242567
112	0x3d042df4	0.032270387
113	0xba05d980	-0.00051059574
114	0x3cbdad94	0.023154058
115	0x3d771272	0.060320325
116	0x3c254898	0.0100881085
117	0xbd1c2f63	-0.03813113
118	0x3d1a5f3e	0.037688486
119	0x3d891543	0.066935085
120	0xbd5d9c56	-0.05410417
121	0x3c8de46c	0.017320834
122	0xbc7d0418	-0.015442871
123	0xbd992b60	-0.07478976
124	0xbb74bc40	-0.003734365
125	0xbb1436e0	-0.0022615716
126	0x3c693a40	0.014235079
127	0x3d16c68e	0.03681045
128	0xbda02c9e	-0.0782101
129	0x3b091d20	0.00209219
130	0xbdb4dd68	-0.088312924
131	0x3c368318	0.011139654
132	0x3d6e4f36	0.05818101
133	0xbd9f06c1	-0.0776496
134	0xbd8d448c	-0.0689784
135	0xbbfd2ab0	-0.007726036
136	0xbc0816b8	-0.008306198
137	0x3d0c3afc	0.03423594
138	0xbd35d9e6	-0.044397257
139	0x3b7c9700	0.0038542151
140	0xbb3c5840	-0.0028739125
141	0x3d01c0e8	0.03167811
142	0xbd9e6a0c	-0.077350706
143	0xbd898a88	-0.06715876
144	0xbd585e7e	-0.05282449
145	0xbd6d9b31	-0.05800933
146	0x3da2e6c1	0.07954169
147	0x3b9cc580	0.004784286
148	0x3d23c65e	0.0399841
149	0x3c0faae8	0.008768775
150	0x3d2fca0e	0.042917304
151	0x3b741020	0.0037241057
152	0x3b093180	0.0020934045
153	0xbc243a68	-0.010023691
154	0x3c7e8ba8	0.015536226
155	0xbd4ea694	-0.05045183
156	0xbd31524d	-0.04329138
157	0xbcae06ac	-0.021243416
158	0xbd4bdcec	-0.049771234
159	0xbd8d3a3b	-0.06895872
160	0xbce92ec6	-0.028464686
161	0xbcd1de14	-0.02561859
162	0x3d60b482	0.054859646
163	0x3d229e86	0.03970196
164	0xbd1df22a	-0.038561024
165	0x3d3b861e	0.0457822
166	0x3c747208	0.014919765
167	0xbac34000	-0.0014896393
168	0xbd934456	-0.071907684
169	0xbca2e62c	-0.019885145
170	0x3cef4b28	0.029210642
171	0x3d8bedcf	0.06832468
172	0xbdb3f23a	-0.087864354
173	0x3da6dc01	0.08147431
174	0x3d9724ed	0.0738009
175	0x3d9854cb	0.07438048
176	0xbd142b51	-0.036174122
177	0x3d0e75c6	0.034780286
178	0xbc7975b0	-0.015225813
179	0xbcede9b6	-0.029042106
180	0xbda5c3b8	-0.08093971
181	0x3cae417c	0.02127146
182	0xbce5c77c	-0.028049223
183	0x3d945435	0.07242624
184	0x3c854fe0	0.016273439
185	0xbd318e83	-0.0433488
186	0xbbaed960	-0.0053359717
187	0x3d13db50	0.036097825
188	0xbd858d97	-0.06521147
189	0x3c46c200	0.012131214
190	0x3b7cd360	0.0038578138
191	0xbc813c48	-0.015775815
192	0xbd0b35fb	-0.033987027
193	0x3d61d79e	0.05513727
194	0xbcddbafe	-0.027066704
195	0xbdabba56	-0.0838515
196	0x3d1a12b6	0.0376155
197	0x3c555778	0.013021342
198	0x3d2fe04a	0.042938508
199	0xbd8a7b8b	-0.06761845
200	0x3daa07c7	0.08302265
201	0x3d4c765a	0.049917556
202	0x3d4dccce	0.050244145
203	0x3d9c9969	0.07646448
204	0x3d06ea4a	0.03293828
205	0xba0ff200	-0.0005491078
206	0x3d2e2b22	0.042521603
207	0x3d4996c6	0.049216054
208	0x3d99a099	0.07501335
209	0xbd8f0f4a	-0.06985338
210	0xbd42b340	-0.047534227
211	0xbbc43ff0	-0.0059890673
212	0xbd8acdaa	-0.067775086
213	0x3d72147a	0.05910156
214	0x3d67ce8e	0.05659347
215	0x3d3a043e	0.045414202
216	0x3bf73810	0.007544525
217	0x3cebdf6c	0.02879306
218	0xbd61109e	-0.054947488
219	0xbcc085f0	-0.023501366
220	0x3d878e4f	0.0661894
221	0x3d75e876	0.060036145
222	0x3c04eef0	0.008113608
223	0xbd69bf8a	-0.05706743
224	0x3c88b918	0.016689822
225	0x3d5f9ec2	0.054594763
226	0x3c4c4158	0.012466751
227	0x3d998825	0.07496671
228	0x3d33abb6	0.04386493
229	0x3d814ca9	0.0631345
230	0x3d4bb432	0.049732395
231	0x3d07e632	0.033178516
232	0x3d970cef	0.07375514
233	0xbd7fb406	-0.062427543
234	0x3d22a83e	0.03971123
235	0x3c0db8f0	0.00865005
236	0x3cdcae5c	0.02693861
237	0x3d6009ce	0.05469685
238	0xbd68e437	-0.056858268
239	0xbccdf068	-0.025139049
240	0xbcceb504	-0.0252328
241	0x3c8dbe18	0.017302558
242	0x3cd118a4	0.025524445
243	0x3d42888e	0.04749351
244	0x3d5ac5e6	0.053411387
245	0x3d9398e9	0.072069
246	0x3cfd41d8	0.030915186
247	0xbd75acc6	-0.059979223
248	0x3db3045b	0.08741065
249	0x3cbf76ac	0.023372017
250	0x3d6eee96	0.058333002
251	0x3d5ac0e2	0.053406604
252	0xbd8ea880	-0.069657326
253	0x3d0df6ae	0.03465908
254	0x3c8eede8	0.017447427
255	0xbd4ea8b3	-0.050453853

bias f4 [128]
0	0x3c162c58	0.009165846
1	0x3d7f026e	0.062258177
2	0x3d688762	0.056769736
3	0x3cf93544	0.030420907
4	0xbc69f570	-0.014279708
5	0xbc7a8520	-0.015290529
6	0x3db00b17	0.08595865
7	0xbd0e9f75	-0.03482004
8	0x3c6aff10	0.014343038
9	0xbdb467e5	-0.08808879
10	0x3c99e5cc	0.018786334
11	0x3da42145	0.08014158
12	0xbd1f152a	-0.038838543
13	0xbd1999b3	-0.037500095
14	0x3d1baf7e	0.03800916
15	0xbb405960	-0.0029350147
16	0xbd667588	-0.05626443
17	0x3d485f2e	0.048918895
18	0x3cf2a8c0	0.029621482
19	0xbcd7fed2	-0.026366625
20	0x3c91f79c	0.017818265
21	0xbc5c4530	-0.01344423
22	0x3cafb390	0.021447927
23	0x3d9452d3	0.0724236
24	0x399b7800	0.0002965331
25	0x3da1e36f	0.07904708
26	0xbcb5b974	-0.022183158
27	0xbd893e0f	-0.0670129
28	0xbd539d9d	-0.051663984
29	0x3c254428	0.0100870505
30	0xbd37aaca	-0.04484061
31	0xbd3a245e	-0.04544484
32	0xbc4a9298	-0.012364052
33	0xbb49c240	-0.0030785948
34	0xbd87900b	-0.06619271
35	0x3d48b3fe	0.04899978
36	0xbd8712b1	-0.06595362
37	0x3d7ffb9a	0.062495805
38	0xbd421760	-0.047385573
39	0xbcb79fe8	-0.022415116
40	0xbce48960	-0.027897537
41	0xbd82c660	-0.06385493
42	0xbd1a389c	-0.037651643
43	0xbc21fd40	-0.00988704
44	0xbd4c733d	-0.049914587
45	0x3d0f68fe	0.035012238
46	0xbd883389	-0.066504546
47	0xbd9b68ed	-0.075883724
48	0x3d4fc97e	0.050729267
49	0xbd3412f7	-0.0439634
50	0x3dad4a49	0.084614344
51	0xbcf48610	-0.029849082
52	0x3d611e1a	0.054960348
53	0xbc914368	-0.017732337
54	0xbd70dff1	-0.058807317
55	0x3cec5b7c	0.028852217
56	0xbc251b88	-0.010077365
57	0x3cb1e398	0.02171497
58	0xbce49872	-0.027904723
59	0x3d8f42a3	0.06995132
60	0x3c6ca4f8	0.0144436285
61	0xbcb4aa34	-0.022053815
62	0x3d311f0e	0.043242507
63	0xbd9ce599	-0.0766098
64	0xbd88e116	-0.06683557
65	0x3ce8cc8c	0.028417848
66	0x3db3fbdb	0.08788272
67	0xbdaeb682	-0.08530904
68	0xbd829926	-0.06376867
69	0x3d97e3a5	0.074164666
70	0xbd994880	-0.074845314
71	0x3cb04394	0.021516599
72	0x3d6a593e	0.057214014
73	0xbda845a1	-0.08216406
74	0xbc8c3280	-0.017113924
75	0xbda56f1e	-0.080778345
76	0x3c2673e0	0.010159463
77	0xbd9d79bb	-0.07689234
78	0xbd81b2d8	-0.0633294
79	0xbd8711f2	-0.0659522
80	0x3c135478	0.008992307
81	0x3d642c3a	0.05570624
82	0x3d8e7d5f	0.069575064
83	0x3d81c4eb	0.06336387
84	0x3ce203ec	0.02758976
85	0xbd84caac	-0.06483969
86	0x3c39eac8	0.01134748
87	0xbd045c31	-0.032314483
88	0x3da2391d	0.0792105
89	0x3d8bcbdf	0.06825995
90	0x3d7dc122	0.061951764
91	0xbd904b61	-0.070456274
92	0x3ca20ba4	0.019780941
93	0xbd54c122	-0.051942
94	0x3d48cf9a	0.04902611
95	0xbcaec590	-0.02133444
96	0x3c984040	0.018585324
97	0xbc0f5e10	-0.008750454
98	0xbd918edd	-0.07107327
99	0x3d63f91a	0.055657484
100	0xbd64a934	-0.055825427
101	0xbd0f6362	-0.03500689
102	0x3d810469	0.06299669
103	0x3a0af180	0.00053002685
104	0xbd02f529	-0.031972084
105	0x3d843cd9	0.06456918
106	0x3b83ae30	0.0040185675
107	0xbc1b46c0	-0.009477317
108	0xbcbe9c7c	-0.023267977
109	0xbdafc22a	-0.08581956
110	0x3d73c3fe	0.059513085
111	0x3d53cd9a	0.05170975
112	0xbd5a04f4	-0.05322738
113	0xbd2c1017	-0.042007532
114	0x3c234588	0.009965308
115	0xbd1c1c2f	-0.038112815
116	0x3d8e1637	0.06937831
117	0x3da2a275	0.079411425
118	0xbd07f040	-0.033188105
119	0x3da57d99	0.080805965
120	0x3d1302b0	0.035891235
121	0x3d96801d	0.073486544
122	0x3c7a3da8	0.015273489
123	0x3db3cc9d	0.08779261
124	0x3b3702c0	0.0027925223
125	0xbd26d942	-0.040734537
126	0xbb11bf40	-0.0022239238
127	0x3d92242b	0.07135805
